app/src/main/assets/classifier.tflite (tflite, 60080 bytes, 6 tensors)

model_1/dense_5/BiasAdd/ReadVariableOp f4 [29]
0	0xbddf837b	-0.1091375
1	0xbc25b3b9	-0.01011365
2	0xbd40ebe3	-0.04709996
3	0xbe9c2271	-0.30495027
4	0x3c3f458e	0.011674298
5	0x3d58a8ae	0.05289524
6	0x3cc1cf91	0.023658546
7	0xbdbc1f55	-0.091856636
8	0xbe956267	-0.29176638
9	0xbd2073a5	-0.039172787
10	0x3d89974a	0.06718309
11	0x3d19b5d3	0.037526917
12	0x3d99370f	0.07481205
13	0x3e36e6f4	0.17861539
14	0xbe8c45fc	-0.27397144
15	0x3ce39a6f	0.0277836
16	0xbda4f655	-0.080547966
17	0x3d71112b	0.058854263
18	0xbc15994e	-0.009130789
19	0x3da46d67	0.08028679
20	0x3e444c74	0.1916979
21	0xbe172e2b	-0.14763705
22	0x3e463241	0.19355108
23	0x3e2ab068	0.16668856
24	0xbe475222	-0.19464925
25	0xbd4e4e01	-0.05036736
26	0xbca8b3bf	-0.020593522
27	0x3c04a3e4	0.008095715
28	0xbd64f410	-0.05589682

model_1/dense_4/BiasAdd/ReadVariableOp f4 [128]
0	0x3e27e2c8	0.16395104
1	0x3defc607	0.117076926
2	0xbcba9b47	-0.02277912
3	0x3d49610a	0.04916481
4	0x3c86047d	0.016359562
5	0xbd6d061e	-0.057867162
6	0x3d9a65dd	0.0753896
7	0x3d9b2297	0.07574957
8	0x3e40dd95	0.18834527
9	0xbc5ec7a4	-0.013597403
10	0x3d3428ab	0.043984096
11	0x3cd64ebb	0.026160588
12	0xbd4a0d61	-0.049329165
13	0x3dbc950e	0.092081174
14	0xbd33de69	-0.04391328
15	0xbd32455a	-0.04352317
16	0x3bb5c9ea	0.0055477517
17	0x3defe22e	0.11713062
18	0x3d90fa51	0.07078994
19	0xbd6937b4	-0.05693789
20	0x3e029181	0.12750818
21	0xbd8e0015	-0.069336094
22	0x3d4a1b66	0.049342535
23	0x3e2ec6b3	0.17067985
24	0x3dd8a8b5	0.10579053
25	0xbc6c2654	-0.014413435
26	0x3e07b3fe	0.13252255
27	0x3dac5ee2	0.08416535
28	0x3d66034a	0.05615548
29	0xbd67bb6d	-0.056575228
30	0x3a6e17d7	0.0009082532
31	0x3e761997	0.24033199
32	0x3e105da4	0.14098221
33	0x3d839e43	0.064266704
34	0x3e6ac641	0.2292719
35	0x3e08b383	0.13349728
36	0xbd1a51cd	-0.037675668
37	0xbd5aafb6	-0.053390227
38	0xbb9cc54e	-0.0047842627
39	0x3e66b9c2	0.22531798
40	0x3d573e5a	0.052549697
41	0x3e38d9f3	0.18051891
42	0x3d83401f	0.064087145
43	0x3c4ab0a7	0.012371219
44	0x3e04cd48	0.12968934
45	0x3dd962c8	0.10614544
46	0x3d7c3826	0.061576985
47	0xbda32e2d	-0.07967792
48	0x3daf56c0	0.08561468
49	0xbdaecd4f	-0.08535253
50	0x3e4aea34	0.19815904
51	0x3db356d8	0.087567985
52	0xbde7cde8	-0.113185704
53	0x3e239b6f	0.15977262
54	0xbdb97add	-0.090566374
55	0x3d659393	0.05604894
56	0xbd1c9b5d	-0.038234103
57	0x3d954fec	0.072906345
58	0xb92d315e	-0.00016516956
59	0x3e973da9	0.2953923
60	0x3c5ee066	0.013603305
61	0x3e0f79c7	0.14011298
62	0x3c27423d	0.0102086635
63	0x3d8e836d	0.06958661
64	0x3e94b06f	0.29040858
65	0xbd14813b	-0.036256056
66	0x3e1cc8d5	0.15310986
67	0xbd24c66d	-0.040228296
68	0xbc31ce95	-0.010852476
69	0x3e6821ef	0.22669195
70	0x3c6903a2	0.014222058
71	0x3d9cf1b0	0.07663286
72	0x3e83f4a7	0.25772592
73	0x3bb2df26	0.0054587303
74	0x3d851167	0.0649746
75	0x3e24e04c	0.16101187
76	0x3e3aaae8	0.18229258
77	0x3e63ccbf	0.22246073
78	0x3e3acc7d	0.18242069
79	0x3e3c6431	0.18397595
80	0x3d2ac050	0.04168731
81	0x3e5896dc	0.21151298
82	0x3e0d93fa	0.1382598
83	0x3db1fc3c	0.08690688
84	0x3d1ed664	0.038778678
85	0x3d43d9d3	0.047815155
86	0x3e47e2eb	0.19520156
87	0x3e317811	0.17330958
88	0x3ea0a3dd	0.31375018
89	0x3e7f6a2b	0.24942844
90	0x3cef58d7	0.029217167
91	0x3e065e39	0.1312188
92	0xbc477eab	-0.012176196
93	0xbd83091d	-0.063982226
94	0x3cb61fdc	0.022231989
95	0xbe0b2596	-0.13588557
96	0x3db9e1f1	0.09076298
97	0xbc6b1a0e	-0.014349474
98	0xbe33db8a	-0.17564216
99	0x3caf8ef9	0.02143048
100	0x3d5da225	0.05410971
101	0x3cbcad77	0.023031933
102	0xb9defd3f	-0.00042531823
103	0x3ce2b50d	0.027674222
104	0x3e14fd60	0.1454978
105	0x3e1d7625	0.153771
106	0xbd404d01	-0.046948437
107	0x3e3fb0e8	0.18719828
108	0xbd3ca135	-0.046052177
109	0x3d7479ca	0.05968646
110	0x3daf4179	0.0855741
111	0x3d429f5b	0.047515254
112	0x3dcbacf0	0.099450946
113	0xbd2d1e9b	-0.042265516
114	0x3d0096fa	0.031393982
115	0x3e273877	0.16330133
116	0x3af55894	0.0018718415
117	0x3c419d89	0.011817344
118	0x3c2fdd3e	0.010733901
119	0x3e2f3b83	0.17112546
120	0x3d12bbbc	0.03582357
121	0x3d0c8558	0.034306854
122	0xbd86ffbc	-0.06591746
123	0x3e1c7896	0.15280375
124	0x3e2f8caa	0.17143503
125	0x3da27fdd	0.07934544
126	0x3d8d5ac2	0.06902076
127	0xbb5b5bdf	-0.0033471507

model_1/dense_3/BiasAdd/ReadVariableOp f4 [256]
0	0x3db74a69	0.089497395
1	0x3d5f237d	0.054477204
2	0x3d2f339c	0.042773828
3	0x3d9cd0c2	0.07657005
4	0x3daef1fa	0.08542247
5	0x3c3e72e1	0.011624069
6	0x3d952aac	0.0728353
7	0x3e4e8379	0.2016734
8	0xbda7e2c1	-0.08197547
9	0x3c9c4bab	0.01907905
10	0x3de75575	0.112955965
11	0xbd34dfc5	-0.044158716
12	0x3be5b4fa	0.0070100995
13	0x3ddd3cff	0.1080265
14	0xbc9d9949	-0.019238131
15	0xbce71730	-0.028209299
16	0x3dcc5674	0.09977427
17	0x3cfc453a	0.030794729
18	0x3d09aace	0.033610158
19	0x3d1d6aa7	0.03843179
20	0x3d447644	0.04796435
21	0xbc41610c	-0.011802923
22	0xbcba0f13	-0.022712266
23	0x3da87ec5	0.08227304
24	0x3ccaf2d9	0.024774002
25	0x3c50adf8	0.01273679
26	0x3bd024c0	0.006352037
27	0x3db8de4e	0.09026776
28	0x3d829144	0.063753635
29	0xbd834851	-0.06410278
30	0x3d62109f	0.055191632
31	0x3d1df820	0.03856671
32	0x3aeba766	0.0017978966
33	0xbc0c326d	-0.008556944
34	0xbd2a6ce7	-0.041607764
35	0x3cfd41da	0.03091519
36	0xbcc378f6	-0.02386139
37	0xbd4225ae	-0.047399215
38	0x3d492a93	0.049112868
39	0x3cc72dba	0.024313796
40	0x3ce75559	0.02823894
41	0x3dee534e	0.11636983
42	0x3cafd682	0.02146459
43	0x3cec3658	0.028834507
44	0x3c680e2b	0.014163534
45	0xbced13c2	-0.028940085
46	0xbd015b4e	-0.031581216
47	0x3d1fdfe5	0.03903188
48	0x3dbe03b5	0.09278051
49	0xbcb8e19d	-0.022568518
50	0x3dd49c63	0.10381391
51	0xbc650fab	-0.013980786
52	0x3df45d7b	0.119318925
53	0xbd18164b	-0.037130635
54	0x3d7d5ede	0.06185805
55	0x3c545f7b	0.012962217
56	0x3c8ecc4c	0.0174314
57	0x3d4c5923	0.049889695
58	0x3bbd635e	0.0057796678
59	0x3d15948f	0.03651863
60	0x3ca6fb25	0.020383427
61	0xbc1ff616	-0.009763261
62	0x3d063303	0.032763492
63	0xbcbdd238	-0.02317153
64	0xbd0455d7	-0.032308426
65	0xbc79628c	-0.015221249
66	0x3d0f281e	0.034950368
67	0x3caba44b	0.020952364
68	0x3a07df22	0.00051830907
69	0x3d97400b	0.07385262
70	0x3cd14c01	0.025548937
71	0xbcaade59	-0.020857977
72	0x3d29f4b4	0.041493133
73	0xbd957927	-0.072984986
74	0x3b1b676f	0.0023712774
75	0xbc9844df	-0.018587528
76	0x3b14d726	0.0022711246
77	0x3e30ed13	0.17277937
78	0xbd080956	-0.03321203
79	0xbc9b3ab3	-0.018948888
80	0x3c85e5aa	0.016344864
81	0x3dbdcf63	0.092680715
82	0x3da42eae	0.08016716
83	0x3dbdbabc	0.092641324
84	0x3b8f726a	0.004377653
85	0xbd4f63c9	-0.050632272
86	0xbcd121ee	-0.025528874
87	0x3d658482	0.056034572
88	0x3d55ff06	0.052245162
89	0xbcd1486f	-0.025547234
90	0xbcb39ee5	-0.021926353
91	0x3db85411	0.090004094
92	0xbba30e1e	-0.004976048
93	0xbd2aacda	-0.04166875
94	0x3c8f70f5	0.017509917
95	0xbb757954	-0.003745635
96	0x3dda5603	0.10660937
97	0xbd884ad8	-0.066549
98	0x3d9ce2b9	0.076604314
99	0xbd608158	-0.05481085
100	0xbd44a8d2	-0.048012562
101	0xbab48834	-0.0013773502
102	0x3d05c36c	0.032657072
103	0xbd4d670c	-0.0501471
104	0x3ce24180	0.027619123
105	0xbcd45f4b	-0.025924345
106	0x3cb69b09	0.022290723
107	0xbd420961	-0.047372226
108	0xbd098beb	-0.0335807
109	0x3e0dd583	0.1385098
110	0xbd9f82a6	-0.07788591
111	0x3e4d15f4	0.20027906
112	0x3c22e750	0.0099428445
113	0x3cc1f35c	0.023675613
114	0x3d601565	0.054707903
115	0xbc4f0aa3	-0.012636813
116	0x3cc5ef43	0.02416194
117	0x3c96a68f	0.018389968
118	0xbc387b82	-0.011259915
119	0x3d1a7168	0.03770581
120	0x3d1459ef	0.03621858
121	0x3cc0bff6	0.023529034
122	0x3cd12cad	0.025533998
123	0x3e2a20bd	0.16614051
124	0xbd115db5	-0.035489757
125	0xbd08055c	-0.033208236
126	0xbc0d4034	-0.008621264
127	0x3d35793f	0.044305082
128	0x3c457ade	0.01205322
129	0x3d82992f	0.06376874
130	0x3d09dbcd	0.033656884
131	0xbd44f159	-0.04808173
132	0x3ce15531	0.027506443
133	0x3df466e6	0.11933689
134	0x3d3a70bc	0.045517668
135	0x3d43d03e	0.047806017
136	0xbc79333e	-0.015209971
137	0xbcb22818	-0.021747634
138	0x3d8bc81a	0.06825276
139	0xbc6b19a5	-0.014349376
140	0x3d867e34	0.0656704
141	0x3bcda3e5	0.0062756413
142	0xbc27aa20	-0.010233432
143	0x3d60ae93	0.054853987
144	0x3c502231	0.012703464
145	0xbca35204	-0.019936569
146	0x3e0cffc3	0.1376944
147	0xbcd5976b	-0.026073178
148	0x3e5ab60a	0.21358505
149	0x3d83fad1	0.06444324
150	0x3cfb4094	0.030670442
151	0xbc2fc1a6	-0.010727322
152	0xbc839adc	-0.016065054
153	0x3c53292d	0.012888235
154	0x3cc07453	0.023492968
155	0xbbcd81d3	-0.00627158
156	0x3caf2b8f	0.021383075
157	0xbc9c31a3	-0.019066637
158	0xbc0da26f	-0.008644684
159	0xbd5e546c	-0.05427973
160	0x3b3d1668	0.0028852466
161	0x3d7e107c	0.06202744
162	0xb90e0cf0	-0.00013546995
163	0x39b15667	0.00033824446
164	0xbcf136d3	-0.029445088
165	0x3d0d92cc	0.034563825
166	0xbcd600de	-0.02612346
167	0x3d0a361f	0.03374302
168	0x3e3a7ce6	0.18211707
169	0x3bf20e69	0.0073869717
170	0x3d7f4eff	0.062331196
171	0x3d42e24c	0.047579095
172	0x3d9679d1	0.073474534
173	0x3bcf2260	0.0063212365
174	0xbccb349a	-0.024805356
175	0x3d1dca60	0.038523078
176	0x3d255b9e	0.040370576
177	0x3dbfe567	0.09369927
178	0xbd8fffc4	-0.07031205
179	0x3cec0b1a	0.028813887
180	0x3d600ee7	0.054701712
181	0x3cd38ec7	0.025824917
182	0x3d7279b2	0.05919809
183	0xbc4ec732	-0.012620734
184	0x3e11f52d	0.14253683
185	0xbd29dc00	-0.041469574
186	0x3cae7811	0.021297486
187	0x3c924854	0.017856754
188	0x3d071207	0.032976177
189	0x3c71970e	0.014745487
190	0x3d57eb55	0.052714664
191	0xbcdc27cc	-0.026874445
192	0xbbc6af56	-0.006063382
193	0x3bb65dbe	0.005565374
194	0xbbdee193	-0.006801793
195	0xbd11c8e8	-0.03559199
196	0xbcb653a8	-0.022256687
197	0x3b321786	0.0027174666
198	0xbcc56283	-0.024094826
199	0xbc43787c	-0.011930581
200	0x3ca59c65	0.020216176
201	0xbaced79c	-0.0015780809
202	0x3e4b7967	0.1987053
203	0xbd09c497	-0.03363475
204	0x3e0513be	0.12995812
205	0x3d7da333	0.061923217
206	0x3d80d239	0.06290097
207	0x3d5c3865	0.05376472
208	0x3e2a8545	0.16652401
209	0xbcd14f77	-0.025550587
210	0xbb955a2f	-0.00455787
211	0xbbda50d8	-0.0066624694
212	0xbd84edf7	-0.06490701
213	0x3c466b65	0.012110566
214	0x3db5b420	0.08872247
215	0x3beaa25b	0.0071604676
216	0x3b9b7136	0.0047437204
217	0x3c86f79d	0.016475493
218	0xbb828f5c	-0.003984375
219	0x3caeada4	0.021323033
220	0xbd282ce6	-0.041058443
221	0x3c688b3f	0.014193355
222	0x3d536fa3	0.051620137
223	0x3d8ee84b	0.069779
224	0x3da3c060	0.07995677
225	0x3da7a09e	0.08184932
226	0x3c3e259c	0.011605646
227	0xbc81a319	-0.015824841
228	0xbc4488b0	-0.011995479
229	0x3d8317ca	0.06401022
230	0xbc61192a	-0.01373891
231	0x3da36e6f	0.07980048
232	0x3da0593a	0.078295186
233	0x3dbb2dab	0.0913957
234	0x3cd050f0	0.025429219
235	0x3d1e42ef	0.03863805
236	0x3d6e0961	0.058114413
237	0x3d2afa15	0.041742403
238	0xbc4dad30	-0.012553498
239	0xbda39cdf	-0.07988905
240	0x3e1373c4	0.1439963
241	0xb91b5721	-0.0001481441
242	0x3ce36b81	0.027761223
243	0x3d01e07a	0.03170822
244	0x3c05b58f	0.008160963
245	0x3db6d755	0.0892779
246	0xbc8ec553	-0.017428076
247	0xbcf073da	-0.029352117
248	0xbd00946c	-0.031391546
249	0x3b47bb6d	0.0030476705
250	0x3d023eac	0.03179805
251	0xbcfce4c3	-0.0308708
252	0x3dbb5799	0.09147567
253	0xbd030785	-0.031989593
254	0xbca11860	-0.019664943
255	0x3d32bf9b	0.04363976

model_1/dense_3/MatMul i1 [256, 34] scale=0.010468666 zero_point=0
0	0x11	0.17796732
1	0x33	0.533902
2	0x0e	0.14656132
3	0x3f	0.659526
4	0x11	0.17796732
5	0x44	0.7118693
6	0x11	0.17796732
7	0x46	0.7328066
8	0x0c	0.125624
9	0x3c	0.62812
10	0x0f	0.15703
11	0x4e	0.816556
12	0x0b	0.11515533
13	0x40	0.66999465
14	0x06	0.062812
15	0x38	0.5862453
16	0x09	0.094218
17	0x44	0.7118693
18	0xeb	-0.219842
19	0x2b	0.45015267
20	0xeb	-0.219842
21	0x3e	0.6490573
22	0xef	-0.17796732
23	0xf4	-0.125624
24	0x14	0.20937333
25	0x0e	0.14656132
26	0xe6	-0.27218533
27	0xf1	-0.15703
28	0xf0	-0.16749866
29	0xe8	-0.251248
30	0xef	-0.17796732
31	0x4e	0.816556
32	0x03	0.031406
33	0x2b	0.45015267
34	0xea	-0.23031066
35	0xf9	-0.07328066
36	0xfe	-0.020937333
37	0xf8	-0.08374933
38	0xf1	-0.15703
39	0xea	-0.23031066
40	0x00	0.0
41	0xe0	-0.33499733
42	0xe6	-0.27218533
43	0xf0	-0.16749866
44	0x05	0.05234333
45	0xeb	-0.219842
46	0xef	-0.17796732
47	0xfa	-0.062812
48	0x0e	0.14656132
49	0xdb	-0.38734066
50	0x12	0.188436
51	0xf0	-0.16749866
52	0xff	-0.010468666
53	0xe0	-0.33499733
54	0x01	0.010468666
55	0xf5	-0.11515533
56	0x1c	0.29312265
57	0xff	-0.010468666
58	0xe8	-0.251248
59	0x1b	0.282654
60	0x01	0.010468666
61	0xb8	-0.753744
62	0xde	-0.35593465
63	0xb4	-0.79561865
64	0x0f	0.15703
65	0xd3	-0.47109
66	0x00	0.0
67	0xdb	-0.38734066
68	0xe2	-0.31406
69	0xf6	-0.10468666
70	0xed	-0.19890466
71	0xfc	-0.041874666
72	0xef	-0.17796732
73	0x10	0.16749866
74	0xe2	-0.31406
75	0x12	0.188436
76	0xf0	-0.16749866
77	0x03	0.031406
78	0xe3	-0.30359134
79	0xf7	-0.094218
80	0xf9	-0.07328066
81	0x0c	0.125624
82	0x21	0.345466
83	0xed	-0.19890466
84	0x1e	0.31406
85	0xeb	-0.219842
86	0x1f	0.32452866
87	0xff	-0.010468666
88	0x25	0.38734066
89	0xe5	-0.282654
90	0xde	-0.35593465
91	0x17	0.24077933
92	0x0e	0.14656132
93	0xf1	-0.15703
94	0x01	0.010468666
95	0x36	0.565308
96	0x0d	0.13609266
97	0x23	0.3664033
98	0x10	0.16749866
99	0x04	0.041874666
100	0xed	-0.19890466
101	0xfa	-0.062812
102	0x04	0.041874666
103	0x08	0.08374933
104	0x07	0.07328066
105	0xfe	-0.020937333
106	0x04	0.041874666
107	0x0e	0.14656132
108	0x08	0.08374933
109	0x00	0.0
110	0xf6	-0.10468666
111	0x03	0.031406
112	0xf2	-0.14656132
113	0x06	0.062812
114	0xf3	-0.13609266
115	0x04	0.041874666
116	0xd1	-0.4920273
117	0x1b	0.282654
118	0xed	-0.19890466
119	0x16	0.23031066
120	0xcd	-0.533902
121	0x1a	0.27218533
122	0xe9	-0.24077933
123	0x04	0.041874666
124	0xe6	-0.27218533
125	0x31	0.51296467
126	0x1c	0.29312265
127	0xdd	-0.3664033
128	0x3d	0.63858867
129	0x1e	0.31406
130	0x45	0.72233796
131	0x1e	0.31406
132	0x1d	0.30359134
133	0xf5	-0.11515533
134	0x22	0.35593465
135	0x03	0.031406
136	0x0c	0.125624
137	0x14	0.20937333
138	0x08	0.08374933
139	0x0e	0.14656132
140	0x0a	0.10468666
141	0x04	0.041874666
142	0x0d	0.13609266
143	0x0a	0.10468666
144	0x0f	0.15703
145	0x19	0.26171666
146	0x05	0.05234333
147	0x1d	0.30359134
148	0xeb	-0.219842
149	0x0e	0.14656132
150	0x12	0.188436
151	0x06	0.062812
152	0xd1	-0.4920273
153	0x09	0.094218
154	0xfa	-0.062812
155	0x02	0.020937333
156	0xd9	-0.408278
157	0xff	-0.010468666
158	0x0f	0.15703
159	0x05	0.05234333
160	0x06	0.062812
161	0xe5	-0.282654
162	0x17	0.24077933
163	0x36	0.565308
164	0x06	0.062812
165	0x39	0.59671396
166	0x03	0.031406
167	0x20	0.33499733
168	0x0d	0.13609266
169	0x1e	0.31406
170	0xe4	-0.29312265
171	0x00	0.0
172	0xeb	-0.219842
173	0x01	0.010468666
174	0xe4	-0.29312265
175	0xf8	-0.08374933
176	0xf9	-0.07328066
177	0x02	0.020937333
178	0xf6	-0.10468666
179	0xfd	-0.031406
180	0x00	0.0
181	0x0d	0.13609266
182	0x19	0.26171666
183	0x00	0.0
184	0xff	-0.010468666
185	0xf3	-0.13609266
186	0xff	-0.010468666
187	0x02	0.020937333
188	0xd0	-0.502496
189	0xf0	-0.16749866
190	0xec	-0.20937333
191	0xdf	-0.345466
192	0xe7	-0.26171666
193	0x1b	0.282654
194	0x16	0.23031066
195	0xed	-0.19890466
196	0xe2	-0.31406
197	0x23	0.3664033
198	0xf8	-0.08374933
199	0x1a	0.27218533
200	0x0b	0.11515533
201	0x18	0.251248
202	0x24	0.376872
203	0xfc	-0.041874666
204	0xe5	-0.282654
205	0x10	0.16749866
206	0xe6	-0.27218533
207	0x14	0.20937333
208	0xe8	-0.251248
209	0x07	0.07328066
210	0xd3	-0.47109
211	0x16	0.23031066
212	0xee	-0.188436
213	0x0f	0.15703
214	0xd1	-0.4920273
215	0x0e	0.14656132
216	0xfa	-0.062812
217	0xff	-0.010468666
218	0x17	0.24077933
219	0xdf	-0.345466
220	0x23	0.3664033
221	0xf3	-0.13609266
222	0x2a	0.439684
223	0xb7	-0.76421267
224	0x3b	0.61765134
225	0xb8	-0.753744
226	0xd2	-0.48155865
227	0x28	0.41874665
228	0x21	0.345466
229	0xdb	-0.38734066
230	0x2e	0.48155865
231	0x26	0.39780933
232	0x4c	0.79561865
233	0x17	0.24077933
234	0x02	0.020937333
235	0x10	0.16749866
236	0x16	0.23031066
237	0x03	0.031406
238	0x2d	0.47109
239	0x0d	0.13609266
240	0x26	0.39780933
241	0x03	0.031406
242	0x29	0.4292153
243	0x11	0.17796732
244	0x26	0.39780933
245	0x0c	0.125624
246	0x2b	0.45015267
247	0xf9	-0.07328066
248	0x1a	0.27218533
249	0x0b	0.11515533
250	0x39	0.59671396
251	0x07	0.07328066
252	0xeb	-0.219842
253	0x1f	0.32452866
254	0x23	0.3664033
255	0x1c	0.29312265

model_1/dense_4/MatMul i1 [128, 256] scale=0.0073676193 zero_point=0
0	0xf1	-0.11051429
1	0x29	0.3020724
2	0x02	0.014735239
3	0xe3	-0.21366096
4	0x05	0.036838096
5	0xe0	-0.23576382
6	0xfc	-0.029470477
7	0xdd	-0.25786668
8	0x06	0.044205718
9	0x32	0.36838096
10	0x1c	0.20629334
11	0xf9	-0.051573336
12	0x02	0.014735239
13	0x0f	0.11051429
14	0x08	0.058940955
15	0xfb	-0.036838096
16	0xf4	-0.088411435
17	0x0b	0.08104381
18	0xe5	-0.19892572
19	0xcc	-0.38311622
20	0xe6	-0.19155811
21	0x38	0.4125867
22	0x32	0.36838096
23	0x19	0.18419048
24	0x02	0.014735239
25	0xf3	-0.095779054
26	0xfe	-0.014735239
27	0x00	0.0
28	0x0c	0.088411435
29	0x3f	0.46416003
30	0x09	0.06630857
31	0x1a	0.19155811
32	0x03	0.022102859
33	0xee	-0.13261715
34	0x0b	0.08104381
35	0x12	0.13261715
36	0xf0	-0.11788191
37	0x00	0.0
38	0x00	0.0
39	0xd2	-0.3389105
40	0x02	0.014735239
41	0xf8	-0.058940955
42	0xe8	-0.17682287
43	0x0b	0.08104381
44	0x07	0.051573336
45	0x02	0.014735239
46	0x25	0.2726019
47	0x10	0.11788191
48	0x3f	0.46416003
49	0x04	0.029470477
50	0x02	0.014735239
51	0xf5	-0.08104381
52	0xf5	-0.08104381
53	0xf5	-0.08104381
54	0x11	0.12524953
55	0xfb	-0.036838096
56	0x02	0.014735239
57	0xf8	-0.058940955
58	0x25	0.2726019
59	0xee	-0.13261715
60	0x22	0.25049907
61	0x0b	0.08104381
62	0xf5	-0.08104381
63	0x0d	0.095779054
64	0x0a	0.07367619
65	0xff	-0.0073676193
66	0xdf	-0.24313144
67	0x0b	0.08104381
68	0xe6	-0.19155811
69	0x09	0.06630857
70	0x24	0.2652343
71	0xe6	-0.19155811
72	0x50	0.58940953
73	0xfb	-0.036838096
74	0xff	-0.0073676193
75	0x03	0.022102859
76	0x0a	0.07367619
77	0xef	-0.12524953
78	0x31	0.36101335
79	0x0a	0.07367619
80	0x1b	0.19892572
81	0x0f	0.11051429
82	0xea	-0.16208762
83	0x08	0.058940955
84	0x01	0.0073676193
85	0x0a	0.07367619
86	0xfc	-0.029470477
87	0xee	-0.13261715
88	0xf2	-0.10314667
89	0x07	0.051573336
90	0xf0	-0.11788191
91	0xf2	-0.10314667
92	0x0c	0.088411435
93	0xd8	-0.29470477
94	0x2f	0.3462781
95	0xe7	-0.18419048
96	0x16	0.16208762
97	0x01	0.0073676193
98	0x18	0.17682287
99	0xe2	-0.22102858
100	0x29	0.3020724
101	0xf5	-0.08104381
102	0x0b	0.08104381
103	0x0e	0.10314667
104	0x0b	0.08104381
105	0x05	0.036838096
106	0xf9	-0.051573336
107	0x07	0.051573336
108	0x04	0.029470477
109	0xff	-0.0073676193
110	0x09	0.06630857
111	0x0f	0.11051429
112	0x32	0.36838096
113	0xfe	-0.014735239
114	0xee	-0.13261715
115	0xf6	-0.07367619
116	0x0d	0.095779054
117	0xf0	-0.11788191
118	0x10	0.11788191
119	0xf1	-0.11051429
120	0x00	0.0
121	0x24	0.2652343
122	0xfa	-0.044205718
123	0xea	-0.16208762
124	0xdc	-0.2652343
125	0xf8	-0.058940955
126	0xe6	-0.19155811
127	0xe2	-0.22102858
128	0x04	0.029470477
129	0xf1	-0.11051429
130	0x0a	0.07367619
131	0x24	0.2652343
132	0xf2	-0.10314667
133	0xed	-0.13998477
134	0xf2	-0.10314667
135	0x05	0.036838096
136	0x25	0.2726019
137	0xfc	-0.029470477
138	0xf4	-0.088411435
139	0xf1	-0.11051429
140	0x09	0.06630857
141	0xec	-0.14735238
142	0xf1	-0.11051429
143	0xeb	-0.15472001
144	0xf6	-0.07367619
145	0xee	-0.13261715
146	0x20	0.23576382
147	0xfb	-0.036838096
148	0xfe	-0.014735239
149	0x0f	0.11051429
150	0xf3	-0.095779054
151	0x39	0.4199543
152	0xfa	-0.044205718
153	0xe4	-0.20629334
154	0xe4	-0.20629334
155	0x07	0.051573336
156	0x38	0.4125867
157	0xd6	-0.30944002
158	0x2f	0.3462781
159	0x25	0.2726019
160	0x0c	0.088411435
161	0xd8	-0.29470477
162	0xfd	-0.022102859
163	0xf5	-0.08104381
164	0x0b	0.08104381
165	0x0e	0.10314667
166	0xeb	-0.15472001
167	0x0c	0.088411435
168	0xe3	-0.21366096
169	0x14	0.14735238
170	0xef	-0.12524953
171	0xdf	-0.24313144
172	0xfa	-0.044205718
173	0x08	0.058940955
174	0x1c	0.20629334
175	0xf8	-0.058940955
176	0xea	-0.16208762
177	0x07	0.051573336
178	0x06	0.044205718
179	0x15	0.15472001
180	0x23	0.25786668
181	0x00	0.0
182	0xf0	-0.11788191
183	0x23	0.25786668
184	0xbc	-0.50099814
185	0xea	-0.16208762
186	0x39	0.4199543
187	0xec	-0.14735238
188	0xf8	-0.058940955
189	0x13	0.13998477
190	0xd2	-0.3389105
191	0x1c	0.20629334
192	0x00	0.0
193	0xff	-0.0073676193
194	0xfb	-0.036838096
195	0xf2	-0.10314667
196	0x02	0.014735239
197	0xff	-0.0073676193
198	0xf9	-0.051573336
199	0x03	0.022102859
200	0x17	0.16945525
201	0xf3	-0.095779054
202	0x12	0.13261715
203	0x0b	0.08104381
204	0x0f	0.11051429
205	0xe1	-0.22839619
206	0x00	0.0
207	0x21	0.24313144
208	0x0f	0.11051429
209	0x3a	0.4273219
210	0x02	0.014735239
211	0xf8	-0.058940955
212	0x16	0.16208762
213	0xf2	-0.10314667
214	0xea	-0.16208762
215	0x25	0.2726019
216	0xdb	-0.2726019
217	0x15	0.15472001
218	0xfd	-0.022102859
219	0xfe	-0.014735239
220	0x1f	0.22839619
221	0x1c	0.20629334
222	0x1d	0.21366096
223	0x05	0.036838096
224	0x04	0.029470477
225	0xea	-0.16208762
226	0xd8	-0.29470477
227	0x09	0.06630857
228	0x03	0.022102859
229	0x30	0.35364574
230	0xf5	-0.08104381
231	0x0a	0.07367619
232	0x01	0.0073676193
233	0xf6	-0.07367619
234	0xec	-0.14735238
235	0x04	0.029470477
236	0xda	-0.27996954
237	0x00	0.0
238	0xfd	-0.022102859
239	0x0d	0.095779054
240	0xe4	-0.20629334
241	0xf4	-0.088411435
242	0xe4	-0.20629334
243	0xe0	-0.23576382
244	0x1e	0.22102858
245	0x23	0.25786668
246	0x00	0.0
247	0x05	0.036838096
248	0xe1	-0.22839619
249	0xfd	-0.022102859
250	0xf8	-0.058940955
251	0xfa	-0.044205718
252	0xd1	-0.3462781
253	0x04	0.029470477
254	0xed	-0.13998477
255	0xf3	-0.095779054

model_1/dense_5/MatMul i1 [29, 128] scale=0.013356434 zero_point=0
0	0xfa	-0.08013861
1	0xd1	-0.6277524
2	0xfc	-0.053425737
3	0xee	-0.24041581
4	0xee	-0.24041581
5	0x0a	0.13356434
6	0x0c	0.16027722
7	0x0b	0.14692077
8	0x0a	0.13356434
9	0xf4	-0.16027722
10	0x18	0.32055444
11	0xbb	-0.92159396
12	0xec	-0.26712868
13	0xcb	-0.707891
14	0x0a	0.13356434
15	0xf8	-0.10685147
16	0x10	0.21370295
17	0xf8	-0.10685147
18	0x12	0.24041581
19	0xe9	-0.307198
20	0xd3	-0.6010395
21	0xd2	-0.614396
22	0xe5	-0.36062372
23	0xe3	-0.38733658
24	0x0c	0.16027722
25	0xd3	-0.6010395
26	0xec	-0.26712868
27	0x04	0.053425737
28	0xce	-0.6678217
29	0xf5	-0.14692077
30	0x0d	0.17363365
31	0xd1	-0.6277524
32	0x0e	0.18699008
33	0xc7	-0.7613168
34	0xc0	-0.8548118
35	0xec	-0.26712868
36	0xf1	-0.20034651
37	0xf1	-0.20034651
38	0x16	0.29384154
39	0x0a	0.13356434
40	0x0d	0.17363365
41	0xf6	-0.13356434
42	0xf7	-0.120207906
43	0x02	0.026712868
44	0xf9	-0.09349504
45	0x09	0.120207906
46	0xce	-0.6678217
47	0xc6	-0.77467316
48	0x08	0.10685147
49	0xc8	-0.7479603
50	0x0c	0.16027722
51	0xd6	-0.56097025
52	0xfb	-0.06678217
53	0x02	0.026712868
54	0x13	0.25377226
55	0xd7	-0.5476138
56	0xcf	-0.65446526
57	0xd9	-0.5209009
58	0xf5	-0.14692077
59	0xee	-0.24041581
60	0xeb	-0.28048512
61	0x10	0.21370295
62	0xfd	-0.040069304
63	0x08	0.10685147
64	0xea	-0.29384154
65	0x07	0.09349504
66	0xff	-0.013356434
67	0xd9	-0.5209009
68	0x0f	0.20034651
69	0xf5	-0.14692077
70	0x0e	0.18699008
71	0xf6	-0.13356434
72	0xe4	-0.37398016
73	0xfb	-0.06678217
74	0x16	0.29384154
75	0xe8	-0.32055444
76	0xfc	-0.053425737
77	0xd3	-0.6010395
78	0xef	-0.22705938
79	0xe6	-0.3472673
80	0x10	0.21370295
81	0xd9	-0.5209009
82	0xf1	-0.20034651
83	0xdd	-0.4674752
84	0x0f	0.20034651
85	0xfe	-0.026712868
86	0xce	-0.6678217
87	0xd8	-0.53425735
88	0xd3	-0.6010395
89	0xf7	-0.120207906
90	0x0a	0.13356434
91	0x09	0.120207906
92	0x0c	0.16027722
93	0xea	-0.29384154
94	0x06	0.08013861
95	0x0f	0.20034651
96	0xd6	-0.56097025
97	0x06	0.08013861
98	0x08	0.10685147
99	0x10	0.21370295
100	0xe9	-0.307198
101	0xdd	-0.4674752
102	0xe2	-0.40069303
103	0xc9	-0.7346039
104	0xd1	-0.6277524
105	0xd6	-0.56097025
106	0xe7	-0.33391085
107	0xdb	-0.49418807
108	0xf5	-0.14692077
109	0x0e	0.18699008
110	0x05	0.06678217
111	0xfb	-0.06678217
112	0xe4	-0.37398016
113	0xf4	-0.16027722
114	0x09	0.120207906
115	0x0d	0.17363365
116	0x0a	0.13356434
117	0xc7	-0.7613168
118	0x00	0.0
119	0xde	-0.45411876
120	0xdb	-0.49418807
121	0xfc	-0.053425737
122	0xff	-0.013356434
123	0xe8	-0.32055444
124	0xf0	-0.21370295
125	0xe5	-0.36062372
126	0xf8	-0.10685147
127	0x05	0.06678217
128	0xf6	-0.13356434
129	0x06	0.08013861
130	0xfe	-0.026712868
131	0x08	0.10685147
132	0xf7	-0.120207906
133	0x12	0.24041581
134	0x0e	0.18699008
135	0xf9	-0.09349504
136	0x0b	0.14692077
137	0x05	0.06678217
138	0x0e	0.18699008
139	0xf6	-0.13356434
140	0x09	0.120207906
141	0xf8	-0.10685147
142	0xbd	-0.89488107
143	0xfc	-0.053425737
144	0x0b	0.14692077
145	0x00	0.0
146	0x11	0.22705938
147	0x02	0.026712868
148	0xf3	-0.17363365
149	0x0a	0.13356434
150	0xf6	-0.13356434
151	0x04	0.053425737
152	0x00	0.0
153	0x01	0.013356434
154	0xef	-0.22705938
155	0xf6	-0.13356434
156	0xee	-0.24041581
157	0x00	0.0
158	0x0a	0.13356434
159	0xd8	-0.53425735
160	0xf3	-0.17363365
161	0xf5	-0.14692077
162	0x03	0.040069304
163	0x08	0.10685147
164	0xf2	-0.18699008
165	0x02	0.026712868
166	0xfb	-0.06678217
167	0xfc	-0.053425737
168	0xf8	-0.10685147
169	0x03	0.040069304
170	0xfa	-0.08013861
171	0x06	0.08013861
172	0xfd	-0.040069304
173	0xf6	-0.13356434
174	0x10	0.21370295
175	0xf6	-0.13356434
176	0x03	0.040069304
177	0xe2	-0.40069303
178	0xed	-0.25377226
179	0xf9	-0.09349504
180	0x0b	0.14692077
181	0xfc	-0.053425737
182	0xd9	-0.5209009
183	0x08	0.10685147
184	0xfd	-0.040069304
185	0x08	0.10685147
186	0xdf	-0.44076234
187	0xfb	-0.06678217
188	0xec	-0.26712868
189	0x0b	0.14692077
190	0x08	0.10685147
191	0x09	0.120207906
192	0x07	0.09349504
193	0xed	-0.25377226
194	0xfc	-0.053425737
195	0x03	0.040069304
196	0xd7	-0.5476138
197	0xfd	-0.040069304
198	0xeb	-0.28048512
199	0x0b	0.14692077
200	0x08	0.10685147
201	0x0a	0.13356434
202	0xc8	-0.7479603
203	0x05	0.06678217
204	0xf8	-0.10685147
205	0xf7	-0.120207906
206	0x08	0.10685147
207	0x00	0.0
208	0xfd	-0.040069304
209	0x01	0.013356434
210	0xe7	-0.33391085
211	0x0a	0.13356434
212	0x0a	0.13356434
213	0x03	0.040069304
214	0xdf	-0.44076234
215	0x06	0.08013861
216	0xfd	-0.040069304
217	0x0b	0.14692077
218	0xf8	-0.10685147
219	0x09	0.120207906
220	0xfa	-0.08013861
221	0xea	-0.29384154
222	0xfd	-0.040069304
223	0xe6	-0.3472673
224	0xff	-0.013356434
225	0x00	0.0
226	0x02	0.026712868
227	0x09	0.120207906
228	0x12	0.24041581
229	0xe9	-0.307198
230	0xfd	-0.040069304
231	0x03	0.040069304
232	0x00	0.0
233	0xf5	-0.14692077
234	0xf1	-0.20034651
235	0x00	0.0
236	0x09	0.120207906
237	0x04	0.053425737
238	0x03	0.040069304
239	0x04	0.053425737
240	0xe9	-0.307198
241	0x00	0.0
242	0x00	0.0
243	0x11	0.22705938
244	0x02	0.026712868
245	0x08	0.10685147
246	0xfe	-0.026712868
247	0x02	0.026712868
248	0x04	0.053425737
249	0xeb	-0.28048512
250	0xf8	-0.10685147
251	0xfc	-0.053425737
252	0xdd	-0.4674752
253	0x05	0.06678217
254	0x13	0.25377226
255	0xdc	-0.48083162
