app/src/main/assets/pose_06.tflite (tflite, 27240 bytes, 6 tensors)

model/dense_2/MatMul f4 [4, 64]
0	0xbec5a42b	-0.38601813
1	0xbea19dff	-0.31565854
2	0x3e59fefb	0.21288674
3	0xbe263a0e	-0.16233084
4	0x3d830670	0.06397712
5	0x3edb0262	0.42775255
6	0x3e84e292	0.2595411
7	0x3d220392	0.039554186
8	0xbe1c3798	-0.15255582
9	0x3e966f67	0.29381868
10	0xbeb6a55a	-0.35673028
11	0xbe7395ad	-0.23787566
12	0xbecf588f	-0.40497252
13	0xbe811c34	-0.2521683
14	0xbd80a5f1	-0.06281651
15	0xbe9b30c2	-0.30310637
16	0x3e780123	0.24219184
17	0x3e62b9c3	0.22141175
18	0xbe288cb7	-0.16459928
19	0x3e05003b	0.12988369
20	0x3ebcbe97	0.3686416
21	0xbea0d5f8	-0.31413245
22	0xbea6c3fc	-0.325714
23	0x3dc7f4dd	0.09763501
24	0x3ea16698	0.31523585
25	0xbe6d509c	-0.23175281
26	0x3dbd8c15	0.09255234
27	0x3e9610cb	0.29309687
28	0x3e9ff933	0.3124481
29	0xbe00902c	-0.12554997
30	0xbee69f7f	-0.4504356
31	0x3db68b2a	0.08913262
32	0x3c9504f8	0.018190846
33	0xbe45682f	-0.19278024
34	0xbe0f0046	-0.13964948
35	0x3ed22a56	0.41047925
36	0x3c1b5eda	0.009483064
37	0xbebf964d	-0.37419358
38	0xbe088b4b	-0.13334386
39	0x3e2932b5	0.1652325
40	0xbe84f8e8	-0.2597115
41	0xbe4a638c	-0.19764537
42	0xbe7091ae	-0.23493072
43	0x3d90ecf1	0.07076443
44	0x3db7f41e	0.089821085
45	0x3e871c6e	0.26388878
46	0x3e82a32a	0.2551511
47	0xbea23afd	-0.3168563
48	0xbe7409c4	-0.2383185
49	0xbeb38e1b	-0.35069355
50	0xbec94268	-0.39308476
51	0x3e183fab	0.14868037
52	0x3d8027d8	0.062575996
53	0xbe9bbf65	-0.3041946
54	0xbeb0e24e	-0.34547657
55	0xbea0c437	-0.313997
56	0xbe2dd497	-0.16975628
57	0x3ea90422	0.33010966
58	0xbeae7b12	-0.3407827
59	0xbeaa555a	-0.33268243
60	0xbe58a7a7	-0.21157704
61	0xbdc29aa2	-0.0950215
62	0xbdf220a2	-0.118226305
63	0xbec76f29	-0.38951996
64	0xbdee5dd7	-0.11638992
65	0x3e9878cb	0.29779658
66	0x3e275917	0.16342579
67	0xbe88e935	-0.26740423
68	0xbef1fa1b	-0.47261128
69	0x3e2d5b34	0.16929322
70	0xbee957d9	-0.45574835
71	0x3d96a625	0.07355908
72	0x3ebd0aef	0.36922404
73	0x3e0507ab	0.12991206
74	0x3ea69a76	0.3253972
75	0x3ed87dd4	0.422835
76	0x3ece8a65	0.40339962
77	0xbe2d9b92	-0.16953877
78	0x3edf754a	0.43644172
79	0xbece20aa	-0.40259296
80	0x3e6e0d2e	0.23247215
81	0xbef199c6	-0.47187632
82	0x3e41446e	0.1887376
83	0xbef24890	-0.47320986
84	0xbeb4bb11	-0.3529897
85	0xbe7c7450	-0.24653745
86	0xbe5b7d0a	-0.21434417
87	0xbf151158	-0.5822959
88	0xbd145050	-0.036209404
89	0xbd91dd99	-0.071223445
90	0x3d1054d2	0.03523714
91	0xbeb34658	-0.35014606
92	0x3b02adac	0.0019939942
93	0x3e94bddf	0.2905111
94	0x3e9af474	0.30264628
95	0x3ea37bd5	0.31930414
96	0xbdad897f	-0.08473491
97	0x3e077447	0.1322795
98	0x3e5e5dcd	0.2171547
99	0xbeb7222b	-0.35768256
100	0x3d6df056	0.05809053
101	0x3ec57217	0.38563606
102	0x3d8ca302	0.06867029
103	0x3ebde120	0.3708582
104	0x3e5e7395	0.21723779
105	0x3ec7794b	0.38959727
106	0x3eddaf58	0.4329784
107	0xbdb41979	-0.08793921
108	0xbe95fadb	-0.2929295
109	0xbecb3f64	-0.396968
110	0x3e735181	0.2376156
111	0x3da3a5d2	0.07990612
112	0x3ecb9f65	0.39770046
113	0xbe9272b8	-0.28603148
114	0xbd09e7a6	-0.033668183
115	0xbeb57425	-0.35440174
116	0xbebaf954	-0.36518347
117	0x3d7c2b84	0.061564937
118	0x3eca5143	0.39515123
119	0x3ecb462d	0.39701977
120	0x3dbbbbfd	0.09166715
121	0xbe976a64	-0.29573357
122	0xbe866f70	-0.26256895
123	0xbdea2f68	-0.11434823
124	0xbebc5cc2	-0.3678952
125	0x3e6b7dc2	0.22997192
126	0xbe66cef7	-0.22539888
127	0xbe3ffcfd	-0.18748851
128	0xbec1b0cc	-0.37830198
129	0x3e05bf0c	0.1306116
130	0xbed2f12e	-0.4119963
131	0x3eb8127e	0.35951608
132	0xbec7f6de	-0.39055532
133	0x3e074a1b	0.13211863
134	0xbe6c030d	-0.23048039
135	0xbeadf6fa	-0.3397749
136	0xbd6824d9	-0.056675766
137	0xbdc67586	-0.096903846
138	0x3e38870f	0.18020271
139	0xbd9bf17e	-0.0761442
140	0x3d69aec4	0.057051435
141	0xbe49eae0	-0.19718504
142	0x3da7bc50	0.08190215
143	0x3e768f11	0.24078013
144	0xbea3efa9	-0.32018784
145	0x3e1bc8b2	0.15213278
146	0x3e9560a2	0.29175287
147	0x3d415085	0.04719593
148	0x3d2ff0f3	0.042954396
149	0x3eca0d1e	0.39463133
150	0x3ec9491e	0.39313596
151	0xbb126f3c	-0.0022344133
152	0xbef8ac0d	-0.48568764
153	0xbef5c25d	-0.4799985
154	0xbeeb5198	-0.4596069
155	0xbc3ac73c	-0.01140004
156	0x3e9a86be	0.30180925
157	0xbd9a73c0	-0.07541609
158	0xbe850f7b	-0.25988373
159	0xbe9a5dfa	-0.30149823
160	0xbf022a6b	-0.50845975
161	0x3e92e7b6	0.28692406
162	0xbd155718	-0.036460012
163	0xbeb961c3	-0.362074
164	0xbeebc137	-0.4604585
165	0x3d341c08	0.043972045
166	0x3e376973	0.1791132
167	0x3e8d8813	0.2764288
168	0x3eaccada	0.33748513
169	0xbec445d8	-0.38334537
170	0x3e38a313	0.18030958
171	0xbedba443	-0.4289876
172	0x3e8f02b6	0.27931756
173	0x3e28f5bf	0.16499995
174	0x3e56ad34	0.20964509
175	0xbe89f190	-0.2694211
176	0x3d49b8d0	0.049248517
177	0x3ca1de20	0.019759238
178	0xbec8a5b2	-0.39188915
179	0xbb8479b2	-0.0040428275
180	0xbdd2e4ee	-0.10297571
181	0x3ed03ab3	0.40669784
182	0x3e18132d	0.14851065
183	0xbe541092	-0.20709446
184	0x3e95eb4f	0.2928109
185	0x3ea3cbe5	0.31991497
186	0x3e9bde16	0.30442876
187	0xbeafdc2f	-0.34347674
188	0xbee3d994	-0.44501936
189	0x3dd834c5	0.1055694
190	0x3e247033	0.16058426
191	0x3ec7b33f	0.3900394
192	0x3ea3c2a4	0.31984437
193	0xbe58253a	-0.21107951
194	0x3ddd9ca3	0.10820892
195	0x3e7b2139	0.24524392
196	0xbe156951	-0.14590956
197	0xbed5f8cd	-0.41791382
198	0x3e9385d8	0.28813052
199	0xbf00181d	-0.50036794
200	0x3e936b40	0.28792763
201	0xbf086ab3	-0.5328781
202	0xbea37967	-0.3192856
203	0xbe810df1	-0.2520595
204	0x3e21f97c	0.15817827
205	0x3eb0aa2a	0.34504825
206	0xbefd17b9	-0.4943216
207	0x3eaa53c2	0.33267027
208	0xbead272c	-0.33818948
209	0xbe8617b3	-0.26189956
210	0xbdeee782	-0.1166525
211	0x3e65411e	0.22388121
212	0xbeb4cf0c	-0.35314214
213	0xbdb9d63a	-0.090740636
214	0xbeb6dce8	-0.35715413
215	0x3e62f380	0.221632
216	0x3ddcc994	0.107806355
217	0x3d8c1b09	0.06841094
218	0x3db3b1fa	0.08774181
219	0xbe8cbe9f	-0.27489182
220	0xbe70d87e	-0.23520085
221	0xbf0eab19	-0.55729824
222	0x3e75ea55	0.24015172
223	0x3d765db2	0.06014795
224	0xbd014155	-0.031556446
225	0xbd35ed61	-0.044415835
226	0x3debcf7e	0.11514185
227	0xbd8cb960	-0.06871295
228	0x3e455dd6	0.19274077
229	0xbea3d62a	-0.31999332
230	0x3eabb183	0.33533868
231	0xbe0d22e6	-0.13782844
232	0xbe0393ed	-0.12849398
233	0xbd89a2fd	-0.06720541
234	0xbee78618	-0.45219493
235	0x3e88f683	0.26750574
236	0x3e984800	0.29742432
237	0xbe8e6f4a	-0.27819282
238	0xbed5bf7c	-0.41747653
239	0x3edb6de3	0.42857274
240	0x3ec5a53d	0.3860263
241	0x3e6aec3b	0.22941677
242	0x3e9bb8b2	0.3041435
243	0xbe1552cf	-0.1458237
244	0xbf139e25	-0.57663184
245	0xbe2bdce5	-0.16783483
246	0xbe697298	-0.2279762
247	0x3e419b23	0.18906836
248	0xbd4e4f56	-0.05036863
249	0xbe653c77	-0.22386347
250	0xbdea0be1	-0.11428047
251	0x3e824e3a	0.25450307
252	0x3e537d36	0.20653233
253	0xbe24d5e8	-0.16097224
254	0x3e5e66c0	0.21718884
255	0x3e6ea75f	0.23306035

model/dense/BiasAdd/ReadVariableOp f4 [128]
0	0xbc9a29a3	-0.018818682
1	0x3d9e713b	0.07736441
2	0x3cba9610	0.022776634
3	0xbbf08423	-0.0073399707
4	0x3d19930a	0.037493743
5	0x3d838d6e	0.0642346
6	0x3c90d395	0.017679015
7	0x3de0fdcf	0.1098591
8	0x3d787895	0.06066187
9	0xbc234a96	-0.009966513
10	0x3c916a17	0.017750783
11	0x3c65034f	0.01397784
12	0x3ba886a3	0.005143003
13	0xbbebc0b4	-0.007194603
14	0xbd00e6e2	-0.031470187
15	0x3d4a5769	0.049399767
16	0x00000000	0.0
17	0x3db9f916	0.090807125
18	0x3d5818c0	0.05275798
19	0x3d65f6ca	0.05614356
20	0x3d482396	0.048862062
21	0x3d59c572	0.053166814
22	0x3c5358ee	0.01289962
23	0x3d5ddb9d	0.054164518
24	0xbc24759e	-0.010037808
25	0xbcd0ff22	-0.025512282
26	0x3d867649	0.0656553
27	0x3c826bf9	0.015920626
28	0x3d7a1f58	0.061065048
29	0x3d41cae4	0.047312632
30	0x3cb0764c	0.021540783
31	0x3d88f9e9	0.066882916
32	0x3c842294	0.01612977
33	0x3d51c989	0.05121759
34	0xbcc5080f	-0.024051694
35	0x3d1cd0bb	0.038285
36	0x3b283daa	0.002567152
37	0x3d0fa835	0.035072524
38	0x3d0edd48	0.034879
39	0x3c9acbe2	0.018896047
40	0x3d444394	0.04791601
41	0xbb09df5a	-0.002103767
42	0xbb4fbaae	-0.0031696963
43	0x3c80d8ba	0.015728343
44	0x3bd7e5d1	0.0065886755
45	0x3d4a62d2	0.04941065
46	0x3cf5a21b	0.029984524
47	0x3dc7ace3	0.097497724
48	0x00000000	0.0
49	0x3daecda7	0.08535319
50	0x3db4b792	0.08824076
51	0x3d9d8d28	0.07692939
52	0x3d3482d3	0.044070076
53	0x3da4d584	0.080485374
54	0x3d5f2658	0.054479927
55	0x3c6f190c	0.014593374
56	0x3c70bb7a	0.014693135
57	0xbc53d630	-0.012929484
58	0x3d532b13	0.05155475
59	0x3d9f3c9e	0.07775234
60	0x00000000	0.0
61	0x3d309c33	0.043117713
62	0x3d3c6eee	0.04600423
63	0x3d3a1b34	0.0454361
64	0xbbab4c78	-0.0052276216
65	0x3ce3691e	0.027760085
66	0x3d4927b1	0.04911012
67	0x3da7cb54	0.08193079
68	0xbcd019d7	-0.025402946
69	0x3cbf7ead	0.023375833
70	0x3db9a20e	0.090641126
71	0x3c80e2f2	0.015733216
72	0xbc0b69c4	-0.008509103
73	0x3dabc1a2	0.08386542
74	0x3c7147c2	0.014726581
75	0x3cda1600	0.026621819
76	0x3c3bb5d6	0.011456927
77	0xbc8bb343	-0.017053252
78	0x00000000	0.0
79	0x3c8d34b6	0.017237049
80	0x3d645ad1	0.05575067
81	0x3d4e1e9e	0.050322168
82	0x3d6d9aa1	0.058008794
83	0xbba80e36	-0.005128647
84	0x3d8e605a	0.06951971
85	0x3d896368	0.06708413
86	0x3dc292e6	0.09500675
87	0x3d39ce4e	0.045362763
88	0x3d54b17f	0.051927086
89	0x00000000	0.0
90	0xbb28927a	-0.0025722072
91	0x3b062369	0.0020467883
92	0x3d5cd774	0.05391641
93	0x3d3b1253	0.045671772
94	0x3bd0ed3d	0.0063759373
95	0x3d696481	0.056980614
96	0xbc1b2e10	-0.009471431
97	0xbc05b9db	-0.008161987
98	0x3c788c4e	0.01517017
99	0x3d5ea30b	0.05435471
100	0x3abe9936	0.001454151
101	0x3d960bb2	0.073264495
102	0x3d3f453d	0.04669689
103	0x3d05c693	0.03266008
104	0x3d0b0229	0.033937607
105	0xbc0101f1	-0.007873998
106	0x3d212e2a	0.039350666
107	0x3d7e64ad	0.06210773
108	0xbba80d9f	-0.005128577
109	0x3ccdbd87	0.025114788
110	0xbc95c2ef	-0.018281428
111	0x3ccdb391	0.025110038
112	0x3dc25b4c	0.0949007
113	0x3d7f4ebd	0.06233095
114	0x3d395067	0.045242693
115	0x3d10c830	0.035347164
116	0xbbd841e4	-0.0065996516
117	0x3c82a5e9	0.015948253
118	0xbbab4adb	-0.0052274293
119	0xbc7da5f0	-0.015481457
120	0x3d8eed57	0.06978863
121	0xbc1e5851	-0.009664611
122	0xbc67f810	-0.014158264
123	0x3dc7b656	0.09751575
124	0x3d4e05f9	0.050298665
125	0x3d5308cb	0.051522058
126	0x3b388109	0.0028153083
127	0x3d1b134a	0.037860192

model/dense_2/BiasAdd/ReadVariableOp f4 [4]
0	0x3dbaca52	0.09120621
1	0x3cc60cdd	0.024176056
2	0xbe06046b	-0.13087623
3	0xbd02bbcf	-0.03191739

model/dense_1/BiasAdd/ReadVariableOp f4 [64]
0	0x3cd09da3	0.025465792
1	0x3af8434a	0.0018940952
2	0x3e01743c	0.12641996
3	0x3b139b8a	0.0022523128
4	0x3dec3715	0.115339436
5	0x3da55506	0.080728576
6	0x3d1b4ba7	0.037913945
7	0x3de3c38c	0.11121282
8	0x3d061b81	0.032741074
9	0x3dbf2380	0.09332943
10	0x3dba8e5f	0.091091864
11	0x3d454979	0.048165772
12	0x3bea03ed	0.0071415813
13	0xbaec8a93	-0.001804667
14	0x3da31888	0.07963663
15	0xbc441ad4	-0.011969287
16	0x3ddce240	0.10785341
17	0x3d6d7a43	0.057977926
18	0x3c80c985	0.015721092
19	0x3d96b97e	0.073595986
20	0x3d5d2505	0.053990383
21	0x3d140564	0.036137953
22	0x3d038072	0.032104917
23	0x3d676a00	0.056497574
24	0x3dc2dff6	0.095153734
25	0x3d3d83b2	0.046268173
26	0x3df22a30	0.11824453
27	0x3d483dfd	0.04888724
28	0x3d872c39	0.06600232
29	0x3dc979d6	0.098376915
30	0x3ce2a530	0.027666658
31	0x3dcc71c1	0.09982634
32	0x3e0bfde7	0.13671075
33	0x3c5a9814	0.013341922
34	0xbcbd57e8	-0.023113206
35	0x3d88a06a	0.066712216
36	0x3db6406e	0.08899008
37	0x3d2c919a	0.042131044
38	0x3c97e44d	0.01854148
39	0x3dc3d160	0.095614195
40	0x3c78e143	0.015190425
41	0x3d67b8fa	0.05657289
42	0x3d34b2c2	0.04411579
43	0x3d977047	0.07394462
44	0x3d2cbde1	0.04217327
45	0x3d24403c	0.04010032
46	0x3d9d6d2e	0.0768684
47	0x3d2506f4	0.040289834
48	0x3c8e28d1	0.017353447
49	0xbbd85b9f	-0.006602719
50	0x3d28f17c	0.041245922
51	0x3d115dca	0.035489835
52	0x3dd43457	0.103615455
53	0x3cda174e	0.02662244
54	0x3d44cc84	0.048046604
55	0x3d206c5a	0.039165832
56	0x3c8b182a	0.016979296
57	0x3da3b0cb	0.07992705
58	0x3c9d2ed1	0.019187363
59	0x3c110be5	0.0088529335
60	0x3d5d9356	0.05409559
61	0x3d1e3a64	0.038629904
62	0x3d029334	0.031878665
63	0x3c590883	0.013246658

model/dense/MatMul i1 [128, 34] scale=0.004023121 zero_point=0
0	0x13	0.076439306
1	0x04	0.016092485
2	0xdf	-0.132763
3	0x03	0.012069363
4	0x00	0.0
5	0x0d	0.052300576
6	0x09	0.03620809
7	0x21	0.132763
8	0x03	0.012069363
9	0xec	-0.080462426
10	0x14	0.080462426
11	0x28	0.16092485
12	0xff	-0.004023121
13	0xee	-0.07241618
14	0x15	0.084485546
15	0x18	0.096554905
16	0x02	0.008046242
17	0xd1	-0.18908669
18	0x2e	0.18506357
19	0x16	0.088508666
20	0x1c	0.11264739
21	0xf6	-0.040231213
22	0xff	-0.004023121
23	0xf2	-0.056323696
24	0xe2	-0.12069364
25	0xf3	-0.052300576
26	0x22	0.13678612
27	0x28	0.16092485
28	0x18	0.096554905
29	0xdc	-0.14483236
30	0xd2	-0.18506357
31	0x09	0.03620809
32	0x29	0.16494797
33	0xf5	-0.044254333
34	0x12	0.07241618
35	0xc3	-0.2454104
36	0xef	-0.06839306
37	0xcd	-0.20517918
38	0xcc	-0.2092023
39	0xfa	-0.024138726
40	0x1f	0.12471676
41	0xfb	-0.020115606
42	0xd6	-0.16897109
43	0xe9	-0.092531785
44	0xfb	-0.020115606
45	0xe4	-0.11264739
46	0x34	0.2092023
47	0xcb	-0.21322542
48	0xe2	-0.12069364
49	0xf7	-0.03620809
50	0x2a	0.16897109
51	0xd2	-0.18506357
52	0xba	-0.28161848
53	0x01	0.004023121
54	0xd7	-0.16494797
55	0xdc	-0.14483236
56	0xdc	-0.14483236
57	0x46	0.28161848
58	0x36	0.21724854
59	0x03	0.012069363
60	0x00	0.0
61	0xec	-0.080462426
62	0x09	0.03620809
63	0xde	-0.13678612
64	0xc5	-0.23736416
65	0x10	0.06436994
66	0xb1	-0.31782657
67	0xe6	-0.10460115
68	0x4a	0.29771096
69	0xf1	-0.06034682
70	0x1a	0.10460115
71	0xda	-0.15287861
72	0xe6	-0.10460115
73	0x19	0.10057803
74	0x15	0.084485546
75	0x19	0.10057803
76	0x30	0.19310981
77	0xeb	-0.084485546
78	0x21	0.132763
79	0x12	0.07241618
80	0x17	0.092531785
81	0x25	0.14885548
82	0x21	0.132763
83	0xcf	-0.19713295
84	0xc5	-0.23736416
85	0xc9	-0.22127166
86	0x79	0.48679766
87	0x01	0.004023121
88	0xf0	-0.06436994
89	0xc9	-0.22127166
90	0x2b	0.17299421
91	0xf4	-0.048277453
92	0xab	-0.3419653
93	0x0d	0.052300576
94	0x45	0.27759537
95	0x10	0.06436994
96	0x02	0.008046242
97	0x65	0.40633523
98	0x2a	0.16897109
99	0x13	0.076439306
100	0x20	0.12873988
101	0x4f	0.31782657
102	0xdf	-0.132763
103	0xdd	-0.14080924
104	0x03	0.012069363
105	0xdd	-0.14080924
106	0x06	0.024138726
107	0x13	0.076439306
108	0xf0	-0.06436994
109	0xd0	-0.19310981
110	0xcc	-0.2092023
111	0x0f	0.06034682
112	0xf8	-0.03218497
113	0xdf	-0.132763
114	0xf7	-0.03620809
115	0xdb	-0.14885548
116	0x55	0.3419653
117	0x0a	0.040231213
118	0x9d	-0.398289
119	0xfa	-0.024138726
120	0x19	0.10057803
121	0xb7	-0.29368785
122	0x02	0.008046242
123	0xae	-0.32989594
124	0x16	0.088508666
125	0x1a	0.10460115
126	0xab	-0.3419653
127	0x23	0.14080924
128	0x04	0.016092485
129	0x1a	0.10460115
130	0xda	-0.15287861
131	0xdf	-0.132763
132	0xd1	-0.18908669
133	0xda	-0.15287861
134	0xd1	-0.18908669
135	0x31	0.19713295
136	0x04	0.016092485
137	0xe6	-0.10460115
138	0xf7	-0.03620809
139	0xdd	-0.14080924
140	0x1d	0.11667051
141	0xd8	-0.16092485
142	0xd2	-0.18506357
143	0xee	-0.07241618
144	0xcb	-0.21322542
145	0x20	0.12873988
146	0x1e	0.12069364
147	0xff	-0.004023121
148	0xd5	-0.17299421
149	0x34	0.2092023
150	0x06	0.024138726
151	0x15	0.084485546
152	0xea	-0.088508666
153	0xf7	-0.03620809
154	0x30	0.19310981
155	0xdc	-0.14483236
156	0xf7	-0.03620809
157	0x10	0.06436994
158	0xee	-0.07241618
159	0xb2	-0.31380346
160	0xd1	-0.18908669
161	0x00	0.0
162	0x42	0.265526
163	0x3b	0.23736416
164	0x35	0.21322542
165	0x2a	0.16897109
166	0x22	0.13678612
167	0xe8	-0.096554905
168	0x54	0.33794218
169	0x12	0.07241618
170	0xda	-0.15287861
171	0x24	0.14483236
172	0xe6	-0.10460115
173	0x0a	0.040231213
174	0xb7	-0.29368785
175	0xed	-0.076439306
176	0xe3	-0.11667051
177	0x2b	0.17299421
178	0x00	0.0
179	0x2b	0.17299421
180	0xf1	-0.06034682
181	0x1f	0.12471676
182	0xd2	-0.18506357
183	0x23	0.14080924
184	0xc3	-0.2454104
185	0x44	0.27357224
186	0xd7	-0.16494797
187	0x38	0.22529478
188	0x32	0.20115606
189	0x30	0.19310981
190	0x3f	0.25345662
191	0x38	0.22529478
192	0xd5	-0.17299421
193	0xf3	-0.052300576
194	0x29	0.16494797
195	0x3c	0.24138728
196	0x50	0.3218497
197	0xeb	-0.084485546
198	0x19	0.10057803
199	0x0f	0.06034682
200	0x21	0.132763
201	0xf7	-0.03620809
202	0x14	0.080462426
203	0x1b	0.10862427
204	0xfd	-0.012069363
205	0xcc	-0.2092023
206	0xf3	-0.052300576
207	0x02	0.008046242
208	0xdf	-0.132763
209	0xf5	-0.044254333
210	0xce	-0.20115606
211	0x04	0.016092485
212	0xe3	-0.11667051
213	0xcc	-0.2092023
214	0xe9	-0.092531785
215	0xc7	-0.2293179
216	0xb6	-0.29771096
217	0xfa	-0.024138726
218	0x12	0.07241618
219	0xf6	-0.040231213
220	0xab	-0.3419653
221	0xc4	-0.24138728
222	0x0e	0.056323696
223	0xc4	-0.24138728
224	0xd6	-0.16897109
225	0xf3	-0.052300576
226	0xfc	-0.016092485
227	0x12	0.07241618
228	0xd7	-0.16494797
229	0xd2	-0.18506357
230	0xb1	-0.31782657
231	0xa4	-0.37012714
232	0xd7	-0.16494797
233	0xb2	-0.31380346
234	0xa3	-0.37415028
235	0xcd	-0.20517918
236	0x92	-0.44254333
237	0xdc	-0.14483236
238	0xcf	-0.19713295
239	0xe5	-0.10862427
240	0x07	0.028161848
241	0xea	-0.088508666
242	0xe8	-0.096554905
243	0x12	0.07241618
244	0xcc	-0.2092023
245	0x1d	0.11667051
246	0xe2	-0.12069364
247	0xe2	-0.12069364
248	0xbe	-0.265526
249	0xdf	-0.132763
250	0x17	0.092531785
251	0xfe	-0.008046242
252	0xc1	-0.25345662
253	0x43	0.26954913
254	0xe2	-0.12069364
255	0x10	0.06436994

model/dense_1/MatMul i1 [64, 128] scale=0.0033772907 zero_point=0
0	0xe1	-0.10469601
1	0x2f	0.15873267
2	0x1b	0.09118685
3	0x45	0.23303306
4	0x3f	0.21276931
5	0xe4	-0.09456414
6	0x28	0.13509163
7	0xbc	-0.22965577
8	0xd4	-0.14860079
9	0x20	0.1080733
10	0xe7	-0.08443227
11	0x15	0.070923105
12	0x24	0.12158246
13	0xd4	-0.14860079
14	0xcf	-0.16548724
15	0xe8	-0.08105498
16	0xf1	-0.05065936
17	0xf2	-0.04728207
18	0x46	0.23641035
19	0x02	0.0067545814
20	0xf3	-0.043904778
21	0x08	0.027018325
22	0x43	0.22627847
23	0x10	0.05403665
24	0x50	0.27018327
25	0x3e	0.20939203
26	0xf7	-0.030395616
27	0xee	-0.06079123
28	0xa3	-0.31408805
29	0xae	-0.27693784
30	0x3b	0.19926015
31	0xc8	-0.18912828
32	0xd9	-0.13171433
33	0xc1	-0.21276931
34	0xe8	-0.08105498
35	0xd8	-0.13509163
36	0x19	0.08443227
37	0x06	0.020263745
38	0x1c	0.09456414
39	0x4d	0.26005137
40	0x13	0.06416852
41	0xf6	-0.03377291
42	0xf6	-0.03377291
43	0x27	0.13171433
44	0x2d	0.15197808
45	0xc1	-0.21276931
46	0x0f	0.05065936
47	0xc7	-0.19250557
48	0x21	0.11145059
49	0xbe	-0.22290118
50	0xa9	-0.2938243
51	0xfa	-0.020263745
52	0x1b	0.09118685
53	0xff	-0.0033772907
54	0xc2	-0.20939203
55	0x3e	0.20939203
56	0xef	-0.057413943
57	0x2f	0.15873267
58	0x27	0.13171433
59	0xf2	-0.04728207
60	0x19	0.08443227
61	0xf2	-0.04728207
62	0xd8	-0.13509163
63	0x07	0.023641035
64	0xdf	-0.11145059
65	0xdb	-0.12495975
66	0x15	0.070923105
67	0xc7	-0.19250557
68	0x45	0.23303306
69	0x56	0.290447
70	0x0a	0.03377291
71	0x30	0.16210996
72	0x2f	0.15873267
73	0xf9	-0.023641035
74	0x2f	0.15873267
75	0xd2	-0.15535536
76	0x28	0.13509163
77	0x1c	0.09456414
78	0x1a	0.087809555
79	0x3f	0.21276931
80	0xca	-0.1823737
81	0x23	0.118205175
82	0x12	0.06079123
83	0x2f	0.15873267
84	0xc7	-0.19250557
85	0xd2	-0.15535536
86	0xf5	-0.037150197
87	0xe6	-0.087809555
88	0x1e	0.10131872
89	0xfd	-0.010131872
90	0x11	0.057413943
91	0xf8	-0.027018325
92	0xe5	-0.09118685
93	0x1a	0.087809555
94	0x06	0.020263745
95	0xf5	-0.037150197
96	0x28	0.13509163
97	0xf0	-0.05403665
98	0x22	0.114827886
99	0xdd	-0.118205175
100	0x43	0.22627847
101	0xe2	-0.10131872
102	0xba	-0.23641035
103	0x42	0.22290118
104	0xe4	-0.09456414
105	0xcf	-0.16548724
106	0x58	0.29720157
107	0xf9	-0.023641035
108	0x19	0.08443227
109	0xe7	-0.08443227
110	0x21	0.11145059
111	0x19	0.08443227
112	0xcc	-0.17561911
113	0x14	0.06754582
114	0xdb	-0.12495975
115	0x17	0.07767768
116	0x25	0.12495975
117	0x10	0.05403665
118	0xf1	-0.05065936
119	0x33	0.17224182
120	0xc5	-0.19926015
121	0xfe	-0.0067545814
122	0xdf	-0.11145059
123	0xa9	-0.2938243
124	0xa7	-0.30057886
125	0xe6	-0.087809555
126	0x2b	0.1452235
127	0x1b	0.09118685
128	0xfc	-0.013509163
129	0xdd	-0.118205175
130	0xe1	-0.10469601
131	0x15	0.070923105
132	0xf3	-0.043904778
133	0x04	0.013509163
134	0x46	0.23641035
135	0x2c	0.14860079
136	0x1b	0.09118685
137	0x0b	0.037150197
138	0xb9	-0.23978764
139	0x4a	0.2499195
140	0xfa	-0.020263745
141	0x31	0.16548724
142	0x12	0.06079123
143	0xdb	-0.12495975
144	0x2c	0.14860079
145	0xf9	-0.023641035
146	0xec	-0.06754582
147	0xf9	-0.023641035
148	0x43	0.22627847
149	0x20	0.1080733
150	0x2c	0.14860079
151	0x15	0.070923105
152	0xd4	-0.14860079
153	0xe1	-0.10469601
154	0xed	-0.06416852
155	0x67	0.34786093
156	0x15	0.070923105
157	0x0a	0.03377291
158	0x01	0.0033772907
159	0x4f	0.26680598
160	0x08	0.027018325
161	0xe4	-0.09456414
162	0x10	0.05403665
163	0x39	0.19250557
164	0xe8	-0.08105498
165	0x66	0.34448364
166	0x09	0.030395616
167	0xec	-0.06754582
168	0x52	0.27693784
169	0xf2	-0.04728207
170	0x3c	0.20263743
171	0x17	0.07767768
172	0xed	-0.06416852
173	0x17	0.07767768
174	0x3a	0.19588286
175	0xeb	-0.070923105
176	0x13	0.06416852
177	0x33	0.17224182
178	0x24	0.12158246
179	0xb4	-0.25667408
180	0x11	0.057413943
181	0xe2	-0.10131872
182	0xf3	-0.043904778
183	0x9d	-0.33435178
184	0xfc	-0.013509163
185	0xde	-0.114827886
186	0x40	0.2161466
187	0xf2	-0.04728207
188	0x09	0.030395616
189	0x0b	0.037150197
190	0x29	0.13846892
191	0xff	-0.0033772907
192	0x27	0.13171433
193	0x2c	0.14860079
194	0xf3	-0.043904778
195	0x31	0.16548724
196	0xfa	-0.020263745
197	0x26	0.12833704
198	0xea	-0.07430039
199	0xea	-0.07430039
200	0x0a	0.03377291
201	0xeb	-0.070923105
202	0xbe	-0.22290118
203	0xf7	-0.030395616
204	0x30	0.16210996
205	0x16	0.07430039
206	0xec	-0.06754582
207	0xd9	-0.13171433
208	0x3e	0.20939203
209	0xe6	-0.087809555
210	0x0c	0.04052749
211	0x28	0.13509163
212	0x28	0.13509163
213	0x66	0.34448364
214	0x21	0.11145059
215	0xd9	-0.13171433
216	0x16	0.07430039
217	0xf0	-0.05403665
218	0xed	-0.06416852
219	0x3f	0.21276931
220	0xe2	-0.10131872
221	0x25	0.12495975
222	0xec	-0.06754582
223	0xfd	-0.010131872
224	0xe1	-0.10469601
225	0x06	0.020263745
226	0x11	0.057413943
227	0xc2	-0.20939203
228	0xfa	-0.020263745
229	0xf4	-0.04052749
230	0x51	0.27356055
231	0x54	0.28369242
232	0x2b	0.1452235
233	0x06	0.020263745
234	0x1e	0.10131872
235	0x53	0.28031513
236	0xe7	-0.08443227
237	0x47	0.23978764
238	0x1c	0.09456414
239	0x0b	0.037150197
240	0xc4	-0.20263743
241	0x26	0.12833704
242	0xfa	-0.020263745
243	0xc7	-0.19250557
244	0xf6	-0.03377291
245	0xe4	-0.09456414
246	0xcc	-0.17561911
247	0xde	-0.114827886
248	0x0e	0.04728207
249	0x24	0.12158246
250	0xe2	-0.10131872
251	0x14	0.06754582
252	0x1d	0.09794143
253	0x32	0.16886453
254	0xe3	-0.09794143
255	0x50	0.27018327
