app/src/main/assets/pose_03.tflite (tflite, 27240 bytes, 6 tensors)

model/dense_2/MatMul f4 [4, 64]
00000000: ad96 2abf 2d80 d3be 7f98 dfbe 38f1 133d
00000010: 1f58 e1be 3ed6 bc3e e828 e7be dd76 adbd
00000020: 84de a03e c5a9 d33d 6f9b 193e 1cbd 8a3c
00000030: 69ff f23e 6cb5 ff3e cca6 333e a239 a7be
00000040: fb7a 06bf 2629 f4be ffe6 85be 4c00 873e
00000050: 7c8d fabd dbf4 b3be 3d0a ac3e dfbf 1b3e
00000060: 05fe b43e e5ad c0bc a324 203e 2654 bd3e
00000070: e034 6dbe 2e32 3f3e 2a68 bf3e f59b 25bf
00000080: 59d9 bd3d 4485 9b3e 60d9 20bd 8c7f 0bbf
00000090: 2462 ba3e 753d 00bf b641 b83e e41c 823d
000000a0: 79ed 923e b017 863e 72f4 013d 9c9e 95bd
000000b0: 496e 92be 80c6 a1be 6232 c1be 3c47 a13d
000000c0: 7cfa a83d dac7 31be a1ea 26bf 63d4 443e
000000d0: b50c 12bf 367d 49be de45 f6be b662 7c3e
000000e0: b03e 0fbf 644f 12bf 4c4b babe 58de 8dbd
000000f0: 4dbb c23e f3ae 25bf 7277 f6be 647b e8be
00000100: fce2 9d3e 7119 483e b7b7 643d 57b0 dcbe
00000110: ac34 a63e cca3 a53d 1794 b3bd 9477 0d3f
00000120: fe35 a3be c906 85be 8386 f2be 635c 72bd
00000130: b387 4cbe fe44 183e 27eb cd3e ad4c a13e
00000140: d726 963c 367a c43e 89da aebe 381f 2ebf
00000150: 7aef 8a3e 76a4 c73e 105c 443e 4b8b c13c
00000160: 6dcc 1abf 2501 d13e c4c7 09be 5b20 cbbe
00000170: 6481 a1be 9f88 1dbf 01f4 1cbf 40e2 4cbe
00000180: e2ab 6fbe d635 ef3d d451 c93e ddec 7a3e
00000190: 87a6 83bd 3542 cbbe 7599 04bf 8452 3fbf
000001a0: f28b 10bf aa72 0fbd 6589 013e 0226 853e
000001b0: 6a65 af3e ecb5 083f 7fba b9be 751d 083d
000001c0: 3a5a 7cbe c452 8abc fd21 6d3e c703 81be
000001d0: 021e 4f3d eda4 c2bd 7cc1 863e c317 eebe
000001e0: 2816 aa3d 36ad 043e d9a4 603e cb11 91bd
000001f0: 5b91 fbbe 6304 703e 152e 183e 8d5d c53e
00000200: 7504 833e b1ad 013e ac6f 17bf 35ee 00bf
00000210: ea9c 233e 19da 77be 8737 a23e 0efd 83be
00000220: 024e ea3d 4ce5 edbe 1ff9 edbe 1f68 2fbd
00000230: 3eeb bdbe 14d6 afbe 904a 1b3e e05d 813e
00000240: c108 90bc 5f56 dabe 2bbe c4bd 185a d43c
00000250: f57a b33d da2c b0be 54eb 93be 376e e6bc
00000260: fdab 363e d4d8 18bf 7222 48bb b693 ad3e
00000270: 41d9 493e ab27 bb3e 03ba 5b3e d97d ab3d
00000280: e1c7 b63e 7c92 ab3e 63d3 513e fe6d 91be
00000290: 17a0 48be 67c0 bb3e 3f6d a43d 6652 1d3d
000002a0: 0116 983e 04c3 65be 450d 00bf e44c 8b3e
000002b0: 8aee 50be 140c 9bbe c063 b2bc c225 fbbc
000002c0: 6609 f7be 5cf5 9abe 16ab f1bc b32f 6d3e
000002d0: 6e33 57be 3bc9 7c3d 99b7 453e c947 aebc
000002e0: 3481 823d f6a9 b2be f458 bd3c bbcd 373e
000002f0: f816 a83e 54f0 bc3d 7ac0 3c3e 72a3 f9bd
00000300: 9017 06bf 4aef 5cbe 3455 f93d 17f1 963e
00000310: 4ba4 8d3e ca7b 973e 2075 a6be 8285 13be
00000320: 359a f2be 09ac 213e 8118 023e 3e22 0bbf
00000330: 30d3 c23d f66e 7fbe df9a e6bd a784 57bd
00000340: 3784 c7be 59ef 833e 212b f93e 9d24 a53d
00000350: df6f 01bf 4456 c9be 57a7 c5be 48b4 d9be
00000360: dbea 593e 220d 6d3e 90f0 11bd 31c8 b43d
00000370: 865d bb3e cbce a7be b802 2f3e 5b6d 183c
00000380: 54bf 09bf 5b5c eabe a4da 9bbe f06c c43e
00000390: 6ab6 aebe 6075 62bd 90dd f2be a6a2 ad3d
000003a0: 15e7 bdbe c1ed 38be 3328 ba3e 9020 96be
000003b0: b9fa b3be da2f b8be fac2 d03e 7f41 0bbf
000003c0: 2036 a53e 88e3 d63e 1581 373e ac64 07bf
000003d0: 991f 933e 676c a33e f1b0 02bf 961b 01bf
000003e0: f59a 393e a89a f7be 38d7 d2be 7f43 1cbf
000003f0: 9767 1e3e 8384 dd3d 3bc3 18bf 4511 243e
-0.66636163 -0.41308728 -0.43671033 0.036118716 -0.44012544 0.36882204 -0.45148396 -0.08469937
0.31419766 0.10335115 0.150007 0.016935878 0.47460487 0.499431 0.17544097 -0.32661158
-0.52531403 -0.47687644 -0.261528 0.26367414 -0.12234017 -0.35147747 0.3360156 0.15209912
0.35350052 -0.02352042 0.15638976 0.36978263 -0.23164701 0.18671486 0.37384158 -0.64691097
0.092699714 0.3037511 -0.039269805 -0.54491496 0.36403 -0.50093776 0.35987633 0.06353167
0.28696802 0.26189947 0.03172726 -0.07305643 -0.28599766 -0.31596756 -0.37733752 0.07874915
0.08250901 -0.17361394 -0.65201765 0.19221644 -0.5705064 -0.1967667 -0.4810018 0.2464703
-0.5595503 -0.5715239 -0.36385572 -0.06927174 0.38033524 -0.64720076 -0.48138005 -0.4540664
0.30837238 0.19540955 0.055839267 -0.43103287 0.3246206 0.080878824 -0.0876848 0.55260587
-0.3187713 -0.2598174 -0.4736825 -0.059170138 -0.1997364 0.14870068 0.4021847 0.3150381
0.018329067 0.3837449 -0.34151104 -0.68016386 0.2713583 0.3899266 0.19175744 0.02362599
-0.6046818 0.40821186 -0.13455111 -0.39673123 -0.3154403 -0.6153659 -0.6130982 -0.20008183
-0.23405412 0.1168019 0.39320242 0.24504419 -0.06428247 -0.3969895 -0.51796657 -0.74735284
-0.5646354 -0.03502146 0.12650068 0.2600556 0.3425706 0.5340259 -0.36275098 0.033231217
-0.24643794 -0.016885169 0.23157497 -0.25198194 0.050565727 -0.09504113 0.26319492 -0.46502504
0.08305007 0.129567 0.21937884 -0.07083472 -0.49134335 0.23439173 0.14861329 0.38547936
0.25589338 0.12663914 -0.5915477 -0.50363475 0.15977827 -0.24204291 0.3168299 -0.25779003
0.1144066 -0.46464002 -0.46479127 -0.042823907 -0.37093538 -0.34343016 0.15165162 0.25266933
-0.0175823 -0.4264402 -0.09606584 0.025921866 0.087636866 -0.3440922 -0.2889048 -0.028128726
0.17839046 -0.59705853 -0.003053811 0.33901757 0.19711782 0.36553702 0.21457677 0.08373613
0.3569937 0.33510196 0.20490794 -0.2840423 -0.1959232 0.3667023 0.080286495 0.03840866
0.29704288 -0.22437674 -0.5002025 0.272071 -0.20403495 -0.30282652 -0.02177608 -0.030657653
-0.48249358 -0.3026532 -0.029500525 0.23162727 -0.21015713 0.061715346 0.19308318 -0.021274464
0.063723 -0.34895295 0.023113705 0.17949574 0.32830024 0.092255265 0.18432799 -0.12189378
-0.52379704 -0.21575657 0.12174454 0.29480812 0.27664408 0.2958663 -0.32511234 -0.14406398
-0.47383276 0.15788282 0.1270466 -0.54349124 0.09512937 -0.24944672 -0.11260008 -0.05261674
-0.3896806 0.25768545 0.48665717 0.08063624 -0.50561327 -0.39323628 -0.38604233 -0.42520356
0.21280997 0.23149541 -0.03562981 0.08827246 0.3659479 -0.32774958 0.17090881 0.009303416
-0.5380757 -0.45773587 -0.30440247 0.38364363 -0.34123546 -0.05528772 -0.47434664 0.08478288
-0.37090364 -0.18059446 0.36358795 -0.29321718 -0.35152224 -0.35974008 0.40773755 -0.54396814
0.32267857 0.41970468 0.17920335 -0.5288799 0.28735045 0.31918642 -0.5105124 -0.5043272
0.18125518 -0.4836018 -0.41179824 -0.6104049 0.15469204 0.1081629 -0.596729 0.16022213

model/dense/BiasAdd/ReadVariableOp f4 [128]
00000000: c230 223d 0e93 1f3d 7731 90bc eac2 a33d
00000010: 0000 0000 a469 783d b5fa 703d 0ae7 da3c
00000020: 4a41 443d ca7d fb3c 19b5 e13c 0000 0000
00000030: 29c4 d93c 057f 5a3d 921e 253d 3664 a83d
00000040: 41c5 1f3d 6bcc 6c3c d09c 963c 6201 c23c
00000050: fa52 103d fb4b c53c 14ea 313d 4cbb 65bc
00000060: d837 e13c 29ae 8c3c ba44 adbc 01fd eebb
00000070: 5073 753d 2f88 f8ba 0cb9 9d3d 47b9 c8bc
00000080: 99c8 253c 741e 323d 952e 513d e5be a33c
00000090: 8e09 cbbb 5205 1a3d cd79 813d 8f24 203d
000000a0: 24c8 193d 1321 ab3d 72c2 363d f0eb 0aba
000000b0: 8f36 893d 0484 133c 6472 753d 32bf 0a3b
000000c0: 6079 95ba da2c 0c3c 864e 113c c385 b63c
000000d0: 122d 7d3c 65f1 713d ee05 ac3c 3003 9a3b
000000e0: 4802 453c df0c 8a3c b097 2d3d a1be 813c
000000f0: 7a79 0dbc d2d0 6f3d 9d6c 563d f426 703c
00000100: 2adc 983d 7df5 993d 9f29 263d 3c52 a23c
00000110: b693 d93c 0d8b f83c fe8f 633d 623e 113d
00000120: 48ca 843d 427b db3c f52d 203d f1fc 1f3d
00000130: d04f abbb e23e 013d 8c86 673d 295a a53c
00000140: b61a 8f3d 1dae 89bb 16fe 163d 5f29 103d
00000150: ce2d 463d babb 8a3b 913f 343d a931 a73d
00000160: 21e2 ec3c f819 c23c 17ac 733c e80a 0e3d
00000170: 5f5f f23c b572 25bb 7177 e03c d79f 2c3d
00000180: b6ce 933d b23f 473d 7193 213d 49b4 823d
00000190: 28a1 1f3d 6a90 0e3d de51 5f3d 3ccb 9d3d
000001a0: 29c8 673d a47a f13c b98a 913d 7182 b73c
000001b0: 3d01 ab3d e2f9 313a fb83 f4bb e191 993d
000001c0: f021 543c 2848 8d3d c117 b6bb 68bc 4d3d
000001d0: 463d 443d 2bfe b33b 9e10 8fbc e6c9 043d
000001e0: e8dc 17bb f0b7 87bc 3b29 9b3c e96d 483d
000001f0: 21e1 053d 3e24 2abc 6839 173d 28bd 9abc
0.03959728 0.0389586 -0.017601712 0.07996161 0.0 0.06064762 0.058832843 0.026721496
0.047913827 0.03069963 0.027552174 0.0 0.026582794 0.05334379 0.040312357 0.08222239
0.039006475 0.014453034 0.01838532 0.0236823 0.035235383 0.024084082 0.043436125 -0.014021706
0.027492449 0.01717289 -0.021150935 -0.007293344 0.059924424 -0.0018961484 0.077013105 -0.02450241
0.010118627 0.043486074 0.051069815 0.019988487 -0.0061962074 0.03760273 0.0632206 0.039097365
0.037544385 0.08355918 0.04461903 -0.00052994397 0.06699859 0.009003643 0.059923545 0.002117109
-0.001140397 0.008555615 0.008868819 0.02228058 0.01545264 0.059068102 0.020998921 0.004700087
0.01202447 0.01685184 0.04238099 0.01583797 -0.008634919 0.058548756 0.052349675 0.014657725
0.07463868 0.07517526 0.040567037 0.019814603 0.026559692 0.030339742 0.055557244 0.035459884
0.064838946 0.026792172 0.039106328 0.039059583 -0.0052280203 0.03155411 0.0565248 0.020184593
0.069875166 -0.004201664 0.03686341 0.035195705 0.048383527 0.0042338045 0.044005934 0.08163769
0.02891642 0.023694023 0.014872572 0.03467837 0.029586492 -0.0025245373 0.027400704 0.042144623
0.07217161 0.04864473 0.03944725 0.06382043 0.03897205 0.034805693 0.054521434 0.077047795
0.056587372 0.029477425 0.07106537 0.022401066 0.083498456 0.00067892496 -0.0074620224 0.07498527
0.012947544 0.06898528 -0.005557031 0.050228506 0.047909997 0.0054929457 -0.017463978 0.032419108
-0.0023172442 -0.0165672 0.018940559 0.048932943 0.032685403 -0.010384617 0.03691998 -0.018889025

model/dense_2/BiasAdd/ReadVariableOp f4 [4]
00000000: 7928 96bd f6fe 9e3c a5b1 a13d 24cc b1bd
-0.07331938 0.019408684 0.07895211 -0.08681515

model/dense_1/BiasAdd/ReadVariableOp f4 [64]
00000000: f125 163e 7bbf 173e c438 983d 2e14 693d
00000010: 5904 d03d 5096 e13b 1eff 743d 0236 453d
00000020: ae97 d23d 1002 413c 7937 8d3d 6734 df3d
00000030: dbad 063d c5d0 2dbc db4e 703d e034 053e
00000040: 113a 003e 73fe f53c fc44 97bc 5b75 a73d
00000050: 7d9a b63d 3a34 c93c 75bd 943c e15b 473d
00000060: 1538 0f3e 2889 1f3d 9007 01bd ea65 3b3d
00000070: 6180 893d 1c6b 8a3d 6449 8e3d 8665 833d
00000080: dbd8 823d ba1c c83d b40a b33d 6919 803d
00000090: 3d8b d4ba 358d 2b3d e48e e23d 583e a93d
000000a0: 2ae4 943d 97c5 bdbb 2307 c23c 80df fb3d
000000b0: 8538 353d 4ad1 0d3d 676a 363d 930f 833d
000000c0: fa30 303d c47e 233d 3581 a13d 5e2a 3e3d
000000d0: 0b2e 883d 6b9a 043c 9285 de3d 8534 ba3d
000000e0: 2b96 073e 6b7f 4e3d fa8d c73d 4764 d73d
000000f0: 4e45 273d 4e95 e03d bb25 043e a298 b63c
0.14662911 0.14819138 0.07432702 0.05690401 0.10157079 0.0068843737 0.05981361 0.04814721
0.10282837 0.011780277 0.06895346 0.10898667 0.032880645 -0.010608857 0.058668952 0.13008451
0.1252215 0.030028557 -0.018465512 0.08176681 0.08916185 0.024561036 0.018156746 0.048671607
0.13986237 0.03894916 -0.031501353 0.04575149 0.067139395 0.06758711 0.06947592 0.064158484
0.06389018 0.09771104 0.08742276 0.062548466 -0.0016215813 0.041882712 0.110624105 0.08263844
0.07270081 -0.005791377 0.023685044 0.122984886 0.044243354 0.03462342 0.044535067 0.06399455
0.043015458 0.039915815 0.078859724 0.046427123 0.06649407 0.008093457 0.1086532 0.090920486
0.13240878 0.050414484 0.09743877 0.10517173 0.04083758 0.109659776 0.12905018 0.022289578

model/dense/MatMul i1 [128, 34] scale=0.0051056882 zero_point=0
00000000: 49e2 2b0e 42e0 21e5 1918 f906 f71e 001b
00000010: c92d 1d1f 1938 1df8 f2e6 2ffc 0f24 081b
00000020: 2a09 0207 cb07 0513 f3d1 19fb dfcc 24dc
00000030: 0908 4429 e945 0304 c618 42f0 eb03 b90d
00000040: d828 f6f5 f0fe e9f0 de09 e9f4 e223 070a
00000050: e9fb f1e6 180f f9e0 f022 fa14 0ddb e01a
00000060: 05f2 02d7 fadd e8d6 e719 0d0e d90f e2df
00000070: 0cf5 ffe8 32ed 43e8 1213 e636 b527 4f19
00000080: 90d8 d2cf c3ca dfe4 23e4 f410 fbfb e8f6
00000090: e121 defa 011a e90d 00e8 1901 100f fd26
000000a0: e9ee 1a18 f118 0ede ddec edfe 0014 f5dc
000000b0: 1200 0802 e2db 1205 1e22 4d29 e13c 0e05
000000c0: e106 18f0 a0f1 b5c9 b6ea d402 dff0 cec8
000000d0: e9ff e8f1 e6d8 00ff eed8 c12a 1703 cc0e
000000e0: f80c f0dd 0aec ff10 f327 e024 fdfc e21d
000000f0: 030b d1ec f6f9 c5fb 06e3 04d7 09cf 2acd
0.37271523 -0.15317065 0.21954459 0.07147963 0.33697543 -0.16338202 0.16848771 -0.13785358
0.1276422 0.12253652 -0.035739817 0.03063413 -0.045951195 0.15317065 0.0 0.13785358
-0.28081286 0.22975597 0.14806496 0.15827633 0.1276422 0.28591853 0.14806496 -0.040845506
-0.07147963 -0.13274789 0.23996735 -0.020422753 0.07658532 0.18380478 0.040845506 0.13785358
0.2144389 0.045951195 0.0102113765 0.035739817 -0.27060148 0.035739817 0.025528442 0.09700808
-0.066373944 -0.23996735 0.1276422 -0.025528442 -0.16848771 -0.26549578 0.18380478 -0.18380478
0.045951195 0.040845506 0.3471868 0.20933321 -0.11743083 0.35229248 0.015317065 0.020422753
-0.2961299 0.12253652 0.33697543 -0.08169101 -0.10721945 0.015317065 -0.36250386 0.066373944
-0.20422754 0.20422754 -0.051056884 -0.05616257 -0.08169101 -0.0102113765 -0.11743083 -0.08169101
-0.1735934 0.045951195 -0.11743083 -0.06126826 -0.15317065 0.17869909 0.035739817 0.051056884
-0.11743083 -0.025528442 -0.07658532 -0.13274789 0.12253652 0.07658532 -0.035739817 -0.16338202
-0.08169101 0.1735934 -0.03063413 0.10211377 0.066373944 -0.18891047 -0.16338202 0.13274789
0.025528442 -0.07147963 0.0102113765 -0.20933321 -0.03063413 -0.17869909 -0.12253652 -0.2144389
-0.1276422 0.1276422 0.066373944 0.07147963 -0.19912185 0.07658532 -0.15317065 -0.16848771
0.06126826 -0.05616257 -0.0051056882 -0.12253652 0.2552844 -0.09700808 0.3420811 -0.12253652
0.09190239 0.09700808 -0.13274789 0.27570716 -0.3829266 0.19912185 0.40334937 0.1276422
-0.57183707 -0.20422754 -0.23486166 -0.25017872 -0.311447 -0.27570716 -0.16848771 -0.14295927
0.17869909 -0.14295927 -0.06126826 0.08169101 -0.025528442 -0.025528442 -0.12253652 -0.051056884
-0.15827633 0.16848771 -0.1735934 -0.03063413 0.0051056882 0.13274789 -0.11743083 0.066373944
0.0 -0.12253652 0.1276422 0.0051056882 0.08169101 0.07658532 -0.015317065 0.19401616
-0.11743083 -0.09190239 0.13274789 0.12253652 -0.07658532 0.12253652 0.07147963 -0.1735934
-0.17869909 -0.10211377 -0.09700808 -0.0102113765 0.0 0.10211377 -0.05616257 -0.18380478
0.09190239 0.0 0.040845506 0.0102113765 -0.15317065 -0.18891047 0.09190239 0.025528442
0.15317065 0.1735934 0.393138 0.20933321 -0.15827633 0.3063413 0.07147963 0.025528442
-0.15827633 0.03063413 0.12253652 -0.08169101 -0.49014607 -0.07658532 -0.3829266 -0.28081286
-0.37782094 -0.11232514 -0.22465028 0.0102113765 -0.16848771 -0.08169101 -0.2552844 -0.28591853
-0.11743083 -0.0051056882 -0.12253652 -0.07658532 -0.13274789 -0.20422754 0.0 -0.0051056882
-0.09190239 -0.20422754 -0.32165837 0.2144389 0.11743083 0.015317065 -0.26549578 0.07147963
-0.040845506 0.06126826 -0.08169101 -0.17869909 0.051056884 -0.10211377 -0.0051056882 0.08169101
-0.066373944 0.19912185 -0.16338202 0.18380478 -0.015317065 -0.020422753 -0.15317065 0.14806496
0.015317065 0.05616257 -0.23996735 -0.10211377 -0.051056884 -0.035739817 -0.30123562 -0.025528442
0.03063413 -0.14806496 0.020422753 -0.20933321 0.045951195 -0.25017872 0.2144389 -0.2603901

model/dense_1/MatMul i1 [64, 128] scale=0.0043940814 zero_point=0
00000000: 2538 10fb e729 06e6 3a31 f5ec 2ce0 03da
00000010: 3515 f4f8 f6c1 d9f8 f23a 2028 371c fb08
00000020: 2dd5 43f2 2a2f 0c55 cee6 0f28 d70b 401d
00000030: 291b 06d5 fe32 5028 23e8 e11e 40e2 28fd
00000040: 01ce 0002 34de f0f2 df00 e2ce fb41 f3d9
00000050: 2ffe d5df db15 eb11 3501 0d2e 06ef fb02
00000060: 43f2 3412 1236 d14b bbe3 f745 fad0 edfa
00000070: 0207 e5f4 cfdb 1a14 0130 fdd1 cbf6 fc0c
00000080: e549 e0f4 1023 2105 2312 301f 3cdd 27d5
00000090: 3347 d701 f7c7 0410 0b3c 201d 1f19 ba13
000000a0: 57eb 01db 0e34 3f54 e6d0 2924 bc06 592f
000000b0: 1731 2de8 3043 5d5a 69e6 0007 62df 39e1
000000c0: b7fe ecfe 3dde f5ed f7dd faef e030 13f0
000000d0: 1f3e dfef cf0d d3e0 5bcc 2701 d1d6 0a00
000000e0: 21d5 2415 4607 bf2c b306 ee21 fced facb
000000f0: c5d2 e100 d8f8 e0da 2348 1ac4 d2e0 eef5
0.16258101 0.24606857 0.0703053 -0.021970406 -0.10985204 0.18015733 0.026364489 -0.114246115
0.25485674 0.21530999 -0.048334897 -0.087881625 0.19333959 -0.1406106 0.013182244 -0.1669751
0.23288631 0.09227571 -0.052728977 -0.03515265 -0.043940812 -0.27682713 -0.17136918 -0.03515265
-0.06151714 0.25485674 0.1406106 0.17576325 0.24167448 0.12303428 -0.021970406 0.03515265
0.19773367 -0.1889455 0.29440346 -0.06151714 0.18455142 0.20652182 0.052728977 0.37349692
-0.21970408 -0.114246115 0.06591122 0.17576325 -0.18015733 0.048334897 0.2812212 0.12742837
0.18015733 0.1186402 0.026364489 -0.1889455 -0.008788163 0.21970408 0.3515265 0.17576325
0.15379284 -0.105457954 -0.13621652 0.13182244 0.2812212 -0.13182244 0.17576325 -0.013182244
0.0043940814 -0.21970408 0.0 0.008788163 0.22849223 -0.14939877 -0.0703053 -0.06151714
-0.14500469 0.0 -0.13182244 -0.21970408 -0.021970406 0.2856153 -0.057123058 -0.17136918
0.20652182 -0.008788163 -0.1889455 -0.14500469 -0.16258101 0.09227571 -0.09227571 0.07469939
0.23288631 0.0043940814 0.057123058 0.20212774 0.026364489 -0.07469939 -0.021970406 0.008788163
0.29440346 -0.06151714 0.22849223 0.07909346 0.07909346 0.2372804 -0.20652182 0.3295561
-0.30319163 -0.12742837 -0.03954673 0.30319163 -0.026364489 -0.21091591 -0.08348755 -0.026364489
0.008788163 0.03075857 -0.1186402 -0.052728977 -0.21530999 -0.16258101 0.114246115 0.087881625
0.0043940814 0.21091591 -0.013182244 -0.20652182 -0.23288631 -0.043940812 -0.017576326 0.052728977
-0.1186402 0.32076794 -0.1406106 -0.052728977 0.0703053 0.15379284 0.14500469 0.021970406
0.15379284 0.07909346 0.21091591 0.13621652 0.26364487 -0.15379284 0.17136918 -0.1889455
0.22409815 0.31197977 -0.18015733 0.0043940814 -0.03954673 -0.25046265 0.017576326 0.0703053
0.048334897 0.26364487 0.1406106 0.12742837 0.13621652 0.10985204 -0.3075857 0.08348755
0.3822851 -0.09227571 0.0043940814 -0.16258101 0.06151714 0.22849223 0.27682713 0.36910284
-0.114246115 -0.21091591 0.18015733 0.15818693 -0.29879755 0.026364489 0.39107326 0.20652182
0.10106387 0.21530999 0.19773367 -0.105457954 0.21091591 0.29440346 0.40864956 0.39546734
0.46137854 -0.114246115 0.0 0.03075857 0.43061998 -0.14500469 0.25046265 -0.13621652
-0.32076794 -0.008788163 -0.087881625 -0.008788163 0.26803896 -0.14939877 -0.048334897 -0.08348755
-0.03954673 -0.15379284 -0.026364489 -0.07469939 -0.1406106 0.21091591 0.08348755 -0.0703053
0.13621652 0.27243304 -0.14500469 -0.07469939 -0.21530999 0.057123058 -0.19773367 -0.1406106
0.3998614 -0.22849223 0.17136918 0.0043940814 -0.20652182 -0.18455142 0.043940812 0.0
0.14500469 -0.1889455 0.15818693 0.09227571 0.3075857 0.03075857 -0.2856153 0.19333959
-0.33834428 0.026364489 -0.07909346 0.14500469 -0.017576326 -0.08348755 -0.026364489 -0.23288631
-0.2592508 -0.20212774 -0.13621652 0.0 -0.17576325 -0.03515265 -0.1406106 -0.1669751
0.15379284 0.31637385 0.114246115 -0.26364487 -0.20212774 -0.1406106 -0.07909346 -0.048334897
