app/src/main/assets/pose_04.tflite (tflite, 26984 bytes, 6 tensors)

model/dense_2/MatMul f4 [3, 64]
0	0xbe610c46	-0.21977338
1	0xba871fd7	-0.0010309172
2	0x3e842411	0.25808766
3	0xbed33d72	-0.41257817
4	0xbebbb8c5	-0.36664405
5	0x3ea867b8	0.3289163
6	0x3ed6b335	0.419336
7	0xbe8d6fb5	-0.27624288
8	0xbf08f24f	-0.53494734
9	0x3e481ff9	0.19543447
10	0x3e52615c	0.20544952
11	0x3d701867	0.058617022
12	0x3e8cc6b7	0.27495357
13	0x3e4a743d	0.19770904
14	0xbdfe8bf0	-0.12429035
15	0xbf092198	-0.53566885
16	0xbe34ef4a	-0.17669407
17	0x3de8f15d	0.113741614
18	0xbe88981c	-0.2667855
19	0xbed979f6	-0.4247586
20	0x3ea6116d	0.3243517
21	0x3e293b8b	0.1652662
22	0xbe88901f	-0.26672456
23	0xbd61c454	-0.055118874
24	0xbdca4296	-0.098759815
25	0xbcd845fd	-0.02640056
26	0x3e187e9c	0.14892048
27	0xbe54626d	-0.20740671
28	0xbeb2a669	-0.34892586
29	0xbe9856bd	-0.29753676
30	0xbe9c7848	-0.30560517
31	0x3e14fb4c	0.14548987
32	0x3ee3c69d	0.44487467
33	0x3eaa6922	0.33283335
34	0xbeb5abb3	-0.3548256
35	0x3e2da5c9	0.16957773
36	0x3ef28b03	0.47371683
37	0x3e6680f5	0.2251013
38	0x3e805603	0.25065622
39	0x3dcd18d8	0.10014504
40	0x3d8d1f4a	0.068907335
41	0xbcc2c507	-0.02377559
42	0x3d06311e	0.032761686
43	0xbe9a0da9	-0.30088547
44	0xbe8e7244	-0.27821553
45	0x3e6e3bf7	0.23265062
46	0x3e3fba72	0.18723467
47	0x3d385bdf	0.04500949
48	0xbed807be	-0.42193407
49	0xbd830089	-0.063965864
50	0x3e8eb0d6	0.2786929
51	0xbec3725f	-0.38173196
52	0xbc04d2ff	-0.008106946
53	0x3e1010d2	0.14068916
54	0xbef23120	-0.47303104
55	0xbe988c8e	-0.29794735
56	0xbe68ce64	-0.22734982
57	0x3e2ebaab	0.17063396
58	0xbece11a5	-0.40247837
59	0x3e8ab45e	0.27090734
60	0xbefc99ae	-0.49335998
61	0xbeb9e8bd	-0.36310378
62	0xbe589fc2	-0.21154693
63	0x3d3c367b	0.045950394
64	0x3eee8025	0.46582142
65	0x3eb1504e	0.3463158
66	0x3e71fd93	0.23631887
67	0x3eec2e09	0.46128872
68	0xbea73184	-0.32654965
69	0xbee3c802	-0.4448853
70	0xbe8d608a	-0.27612716
71	0xbe3f2aa4	-0.1866861
72	0x3bbee05f	0.005825087
73	0xbe7d27fd	-0.24722286
74	0xbea54a46	-0.3228323
75	0x3ec45649	0.3834708
76	0xbea7ad30	-0.3274932
77	0x3e465175	0.19367011
78	0x3ec4e087	0.3845255
79	0x3d8f34bf	0.069924824
80	0xbdd0395f	-0.10167193
81	0x3ea242e8	0.3169167
82	0x3e613e96	0.21996531
83	0x3ea9e14b	0.33179697
84	0x3e18c6b7	0.14919554
85	0x3e238aad	0.1597087
86	0x3e83a418	0.2571113
87	0x3ebec08f	0.37256286
88	0x3eea9f0c	0.45824468
89	0xbefaad3f	-0.489603
90	0xbeb822e7	-0.35964128
91	0xbe877586	-0.2645685
92	0x3e9b018e	0.30274624
93	0x3e80e6e3	0.25176153
94	0xbeccfa10	-0.40034533
95	0x3ed582f6	0.41701478
96	0xbe198b66	-0.14994583
97	0xbe613f07	-0.219967
98	0x3ec9ddf6	0.39427155
99	0xbe9e440a	-0.30911285
100	0x3d0defe2	0.0346526
101	0xbe60a386	-0.21937379
102	0xb9a9f717	-0.00032418288
103	0xbe87f954	-0.2655741
104	0xbeca12d8	-0.39467502
105	0x3aaf9184	0.0013394807
106	0x3eb700c6	0.35742778
107	0x3eaa8b5f	0.33309457
108	0x3eb38272	0.3506046
109	0xbea94f28	-0.33068204
110	0x3d497695	0.049185354
111	0x3db4467e	0.08802508
112	0x3d48345b	0.048878055
113	0x3eff14bc	0.49820507
114	0xbeab11ec	-0.3341211
115	0xbe5b76f1	-0.21432091
116	0xbe353a23	-0.17697959
117	0x3dca6b9e	0.098838076
118	0x3e15fd12	0.1464732
119	0x3e71cf16	0.23614153
120	0x3e6f3dd5	0.23363431
121	0xbea7855d	-0.32718936
122	0x3e059a7c	0.13047212
123	0xbef0cca2	-0.47031122
124	0xbd99530c	-0.07486543
125	0x3e5c717f	0.2152767
126	0xbeb887fb	-0.36041245
127	0x3bccf03d	0.0062542246
128	0x3db7e1a7	0.08978587
129	0xbe91633d	-0.28396025
130	0xbe24364e	-0.1603634
131	0x3d9d5b5c	0.07683441
132	0x3e6a0f06	0.22857293
133	0xbe83c191	-0.25733617
134	0xbed73931	-0.4203582
135	0x3eb5d499	0.35513762
136	0xbd6bfeb9	-0.05761597
137	0x3d3f8190	0.04675442
138	0xbf040870	-0.51575375
139	0xbeda8269	-0.4267762
140	0x3e4b3fe2	0.19848588
141	0xbed3d3a7	-0.41372415
142	0x3ede0e9f	0.4337053
143	0x3e57b343	0.21064477
144	0x3efed40e	0.4977116
145	0xbecf7243	-0.40516862
146	0xbedc0747	-0.42974302
147	0xbe550ec5	-0.20806415
148	0xbf010968	-0.5040498
149	0xbea1504a	-0.31506568
150	0xbe86c0de	-0.2631902
151	0x3ed5f1a2	0.41785914
152	0xbdc3faa5	-0.09569291
153	0x3e1b6fb7	0.15179335
154	0x3e39cde4	0.18144947
155	0x3ec1ad38	0.37827468
156	0x3eb9566a	0.3619874
157	0xbe8ced61	-0.27524856
158	0x3ed015b8	0.4064157
159	0xbe10194e	-0.14072153
160	0xbc3d4812	-0.011552827
161	0xbe692d7e	-0.2277126
162	0xbe7a5b2a	-0.24448839
163	0xbee0c35d	-0.4389905
164	0xbe06afe7	-0.13153039
165	0xbd98f4f3	-0.07468595
166	0xbe88d83d	-0.26727477
167	0x3ed01ea8	0.4064839
168	0xbe89fd81	-0.2695122
169	0xbee39547	-0.44449827
170	0xbe0bcdf5	-0.13652785
171	0xbe823dce	-0.25437778
172	0xbea7ecbf	-0.3279781
173	0xbecaf085	-0.39636627
174	0xbe8a793c	-0.2704562
175	0xbf0e3a96	-0.55558145
176	0x3e961e1a	0.2931984
177	0x3e2fc063	0.17163233
178	0xbee20ba1	-0.44149497
179	0x3ed22a79	0.4104803
180	0x3ebd5e69	0.36986092
181	0xbecf507f	-0.404911
182	0xbe8bd233	-0.27308807
183	0xbe7afc4f	-0.2451031
184	0xbe637652	-0.22213104
185	0x3e8d0b02	0.2754746
186	0x3eaa1ce6	0.33225173
187	0x3ebaa9d1	0.36457685
188	0x3e18fab1	0.14939381
189	0xbecd334f	-0.40078208
190	0x3e27ba35	0.16379626
191	0x3d0bcc13	0.034130167

model/dense/BiasAdd/ReadVariableOp f4 [128]
0	0x3ceade06	0.028670322
1	0xbd3976c8	-0.045279294
2	0x00000000	0.0
3	0x3d24fa25	0.04027762
4	0xbbbc522f	-0.0057471017
5	0xbd103472	-0.035206266
6	0x3d51202c	0.051056072
7	0xbcf1daba	-0.029523242
8	0x3d0a4d67	0.033765223
9	0xbc8b359a	-0.016993333
10	0x00000000	0.0
11	0x00000000	0.0
12	0x00000000	0.0
13	0xbc8f2e51	-0.01747814
14	0x3cfd4506	0.030916702
15	0x00000000	0.0
16	0xbc9ce774	-0.019153334
17	0xbc5022ce	-0.012703611
18	0x3d2fbb02	0.042902954
19	0x3cd39f1f	0.02583271
20	0x00000000	0.0
21	0x3cd9ac66	0.026571464
22	0x3d324162	0.043519385
23	0x3d259a06	0.04043009
24	0x3d3d2fe7	0.04618826
25	0x00000000	0.0
26	0x3a81ae1b	0.0009893806
27	0x3c7908b5	0.01519983
28	0xb9fb0f56	-0.00047885877
29	0x3ca5bb33	0.020230865
30	0x3d95f4d6	0.073220894
31	0xbc41ec8d	-0.011836183
32	0x3d2435b6	0.040090285
33	0x3d44a362	0.048007376
34	0x3c8b8b55	0.017034212
35	0x3da7acd3	0.081872605
36	0x3c264984	0.010149363
37	0xbc049f2d	-0.008094591
38	0x3d666cc7	0.056256082
39	0xba195b36	-0.00058500783
40	0x00000000	0.0
41	0x3d281c2e	0.0410425
42	0x3c95c8bf	0.0182842
43	0x3d309e08	0.04311946
44	0x00000000	0.0
45	0x00000000	0.0
46	0x3d2b9f60	0.04190004
47	0x3c1e3d5b	0.009658183
48	0x3d424587	0.047429588
49	0x00000000	0.0
50	0xbc298254	-0.010346014
51	0xbbf4a99f	-0.0074665095
52	0xbc90f5de	-0.017695364
53	0xbc4876fb	-0.012235398
54	0x3d001d6f	0.03127807
55	0x3c8b4020	0.01699835
56	0xbc1db71d	-0.009626177
57	0xbc6ce989	-0.014459976
58	0x3bc1caaf	0.0059140543
59	0x3c61b352	0.013775663
60	0x3cf7a68a	0.03023078
61	0x3d152d37	0.036420073
62	0xbc8b7f10	-0.017028362
63	0x3da87130	0.08224714
64	0x3ca3ed95	0.020010749
65	0xbb2db835	-0.00265075
66	0x3ba6b603	0.0050876155
67	0x3d42e40f	0.047580775
68	0x3cc75eca	0.024337191
69	0x3d1e84e8	0.038700968
70	0x3d981280	0.074254036
71	0xbb5f0468	-0.0034029726
72	0x3d61ebe6	0.05515661
73	0x00000000	0.0
74	0xbaf2db30	-0.0018528458
75	0xbc8ae4b9	-0.016954767
76	0x3d1e048b	0.03857855
77	0xbc57aa63	-0.013163182
78	0x3cac5161	0.021034898
79	0x3d1e5e35	0.03866406
80	0x00000000	0.0
81	0x3d1af1f0	0.037828386
82	0x3d361ee6	0.04446306
83	0xbbd7ba23	-0.0065834685
84	0x3d2bc7cc	0.041938588
85	0x3d83bfd1	0.064330705
86	0x3d00234b	0.031283658
87	0x3d8c0048	0.06835991
88	0xbcd135fa	-0.025538433
89	0x3d2f5a20	0.04281056
90	0xbc8adc78	-0.01695083
91	0xbccda218	-0.025101706
92	0x3c63d910	0.013906732
93	0xbc19053d	-0.009339628
94	0xbc88a7dd	-0.016681606
95	0x3d23faff	0.04003429
96	0x00000000	0.0
97	0x00000000	0.0
98	0x3d30559e	0.0430504
99	0xbc76c2d5	-0.0150611
100	0x3d369b4c	0.044581696
101	0x3ca7173f	0.020396827
102	0x00000000	0.0
103	0x3d34a6d5	0.044104416
104	0x3c67065f	0.01410064
105	0x00000000	0.0
106	0x3c97f755	0.018550554
107	0xbcc10695	-0.023562709
108	0x3cd5d025	0.026100228
109	0x3cbb5a76	0.022870284
110	0xbb9c7537	-0.0047747153
111	0x3d91530c	0.07095918
112	0xbcb2da0d	-0.02183249
113	0x3cd42c38	0.025899991
114	0x3d2c0536	0.041997157
115	0xbb9edf77	-0.0048484164
116	0xbc3948f0	-0.011308894
117	0x3d319b03	0.04336072
118	0x3d1c3ee7	0.038145926
119	0x3d6f3965	0.058404345
120	0x3b2f2161	0.0026722776
121	0xbc8ac71c	-0.016940646
122	0x3d049a7a	0.032373883
123	0xbbee6827	-0.0072755995
124	0x3c6a2541	0.014291109
125	0x00000000	0.0
126	0x3c5c5596	0.01344814
127	0x3cd31894	0.025768556

model/dense_2/BiasAdd/ReadVariableOp f4 [3]
0	0x3d1e1e5e	0.03860318
1	0xbd1656d0	-0.036703885
2	0x3af889a1	0.0018961915

model/dense_1/BiasAdd/ReadVariableOp f4 [64]
0	0x3c4e499f	0.012590795
1	0x3cd8acbd	0.026449556
2	0x3d7da393	0.061923575
3	0x3cd42392	0.025895867
4	0x3d7de669	0.061987314
5	0x3d9cf718	0.07664317
6	0x3d8993c9	0.06717641
7	0x3d900aab	0.07033285
8	0x3da45814	0.08024612
9	0xbcde1b35	-0.027112583
10	0x3db52045	0.088440455
11	0x3cf70a4c	0.030156277
12	0x3dc5bb85	0.09654907
13	0x3d794385	0.060855407
14	0x3d927203	0.07150652
15	0x3d996d71	0.074915774
16	0x3d9a0302	0.07520105
17	0x3d3ee2a1	0.04660285
18	0x3d315a44	0.043298975
19	0x3cdd33b7	0.027002199
20	0x3d557650	0.052114785
21	0x3d72327d	0.05913018
22	0x3d5aa15f	0.05337655
23	0x3db5030b	0.08838471
24	0x3d3f4a52	0.046701737
25	0x3db80906	0.08986096
26	0x3dad0d61	0.084498174
27	0x3dca7a83	0.098866485
28	0x3d7f57a9	0.06233946
29	0x3d2d3a6a	0.042292036
30	0x3d94b6a8	0.072614014
31	0x3d2c48d3	0.042061638
32	0x3d53639f	0.051608678
33	0x3d92f5d3	0.071757935
34	0x3d4e0d92	0.05030591
35	0x3db855a1	0.090007074
36	0x3dce5547	0.10074859
37	0x3dc903ea	0.098152
38	0x3dd4d09f	0.10391354
39	0x3dfe8763	0.12428167
40	0x3d98f057	0.07467716
41	0x3cfc29e5	0.030781696
42	0x3d2166d1	0.039404694
43	0x3d368f57	0.044570293
44	0x3d4bb223	0.04973043
45	0x3db5dfb1	0.088805564
46	0x3d910d60	0.07082629
47	0x3d8d121e	0.06888221
48	0x3da150eb	0.07876762
49	0x3d1a0483	0.03760196
50	0x3d954613	0.07288756
51	0x3da18bba	0.07887979
52	0x3dab5246	0.08365302
53	0x3db59f7a	0.08868308
54	0x3d045f6f	0.032317575
55	0x3d5a5748	0.053305894
56	0x3d43ac5a	0.04777179
57	0x3dc86f85	0.09786896
58	0x3d88855d	0.06666062
59	0x3da11a17	0.07866304
60	0x3daf76bb	0.08567568
61	0x3d461b4e	0.048365884
62	0x3db3acaa	0.087731674
63	0xbce165bd	-0.027514333

model/dense/MatMul i1 [128, 34] scale=0.0037141698 zero_point=0
0	0xcb	-0.196851
1	0xc7	-0.21170768
2	0x09	0.03342753
3	0x07	0.025999188
4	0x0c	0.044570036
5	0x04	0.014856679
6	0xe8	-0.08914007
7	0xe8	-0.08914007
8	0xf1	-0.055712547
9	0x05	0.01857085
10	0xef	-0.063140884
11	0x06	0.022285018
12	0xf1	-0.055712547
13	0xe6	-0.09656841
14	0x12	0.06685506
15	0x08	0.029713359
16	0x03	0.011142509
17	0xe2	-0.111425094
18	0xc5	-0.21913601
19	0x32	0.1857085
20	0xc7	-0.21170768
21	0x04	0.014856679
22	0x17	0.085425906
23	0x24	0.13371012
24	0x1d	0.10771093
25	0x09	0.03342753
26	0xde	-0.12628177
27	0x33	0.18942267
28	0xcf	-0.18199432
29	0x1a	0.09656841
30	0x18	0.08914007
31	0x1f	0.11513927
32	0xc9	-0.20427935
33	0x1b	0.10028259
34	0xe2	-0.111425094
35	0xdc	-0.13371012
36	0xd8	-0.1485668
37	0xfe	-0.0074283397
38	0xe0	-0.118853435
39	0xd7	-0.15228096
40	0x06	0.022285018
41	0x23	0.12999594
42	0x25	0.13742429
43	0x22	0.12628177
44	0x45	0.2562777
45	0x08	0.029713359
46	0x0f	0.055712547
47	0xe9	-0.085425906
48	0x2c	0.16342348
49	0xdd	-0.12999594
50	0x1d	0.10771093
51	0x09	0.03342753
52	0xce	-0.1857085
53	0x4b	0.27856272
54	0x02	0.0074283397
55	0x16	0.08171174
56	0xe2	-0.111425094
57	0x3b	0.21913601
58	0x15	0.077997565
59	0xb6	-0.27484858
60	0x2d	0.16713764
61	0x45	0.2562777
62	0xe0	-0.118853435
63	0x46	0.25999188
64	0x2e	0.17085181
65	0x63	0.3677028
66	0x00	0.0
67	0x13	0.070569225
68	0xd8	-0.1485668
69	0x12	0.06685506
70	0xfa	-0.022285018
71	0x1c	0.10399675
72	0x04	0.014856679
73	0x15	0.077997565
74	0xf6	-0.0371417
75	0x13	0.070569225
76	0x22	0.12628177
77	0x1c	0.10399675
78	0x1f	0.11513927
79	0x1c	0.10399675
80	0xfd	-0.011142509
81	0xef	-0.063140884
82	0x02	0.0074283397
83	0xe6	-0.09656841
84	0x24	0.13371012
85	0xff	-0.0037141698
86	0x19	0.09285425
87	0x05	0.01857085
88	0xee	-0.06685506
89	0xf5	-0.04085587
90	0x26	0.14113845
91	0xd5	-0.1597093
92	0xcd	-0.18942267
93	0x24	0.13371012
94	0xfb	-0.01857085
95	0x28	0.1485668
96	0xd3	-0.16713764
97	0x02	0.0074283397
98	0xdc	-0.13371012
99	0xe8	-0.08914007
100	0x2c	0.16342348
101	0x00	0.0
102	0x05	0.01857085
103	0xe2	-0.111425094
104	0x06	0.022285018
105	0xd5	-0.1597093
106	0x24	0.13371012
107	0xef	-0.063140884
108	0xeb	-0.077997565
109	0xfd	-0.011142509
110	0x1f	0.11513927
111	0xd9	-0.14485262
112	0x01	0.0037141698
113	0x12	0.06685506
114	0xfc	-0.014856679
115	0xd6	-0.15599513
116	0xab	-0.31570444
117	0xea	-0.08171174
118	0xed	-0.070569225
119	0xf2	-0.051998377
120	0x15	0.077997565
121	0xc0	-0.23770687
122	0x4b	0.27856272
123	0x43	0.24884938
124	0xcd	-0.18942267
125	0x9d	-0.3677028
126	0x0d	0.048284207
127	0x11	0.063140884
128	0xec	-0.0742834
129	0xab	-0.31570444
130	0xfe	-0.0074283397
131	0xe8	-0.08914007
132	0xab	-0.31570444
133	0x0c	0.044570036
134	0xf3	-0.048284207
135	0xed	-0.070569225
136	0xff	-0.0037141698
137	0x35	0.196851
138	0xf0	-0.059426717
139	0x0e	0.051998377
140	0x13	0.070569225
141	0x2a	0.15599513
142	0x13	0.070569225
143	0x18	0.08914007
144	0x21	0.1225676
145	0xda	-0.14113845
146	0x04	0.014856679
147	0xcf	-0.18199432
148	0x2f	0.17456599
149	0xfa	-0.022285018
150	0xfc	-0.014856679
151	0xfa	-0.022285018
152	0x09	0.03342753
153	0x05	0.01857085
154	0x2f	0.17456599
155	0x14	0.0742834
156	0xd4	-0.16342348
157	0x22	0.12628177
158	0xdb	-0.13742429
159	0x16	0.08171174
160	0x2c	0.16342348
161	0xe6	-0.09656841
162	0xf8	-0.029713359
163	0x24	0.13371012
164	0x19	0.09285425
165	0xd4	-0.16342348
166	0xf3	-0.048284207
167	0xe3	-0.10771093
168	0xed	-0.070569225
169	0xf0	-0.059426717
170	0xfe	-0.0074283397
171	0x0f	0.055712547
172	0xd0	-0.17828014
173	0xf7	-0.03342753
174	0xeb	-0.077997565
175	0x11	0.063140884
176	0xde	-0.12628177
177	0xfe	-0.0074283397
178	0xf2	-0.051998377
179	0xe8	-0.08914007
180	0x15	0.077997565
181	0xde	-0.12628177
182	0x47	0.26370606
183	0xea	-0.08171174
184	0x60	0.3565603
185	0x01	0.0037141698
186	0xdb	-0.13742429
187	0x1e	0.111425094
188	0xcc	-0.19313683
189	0x2a	0.15599513
190	0xaf	-0.30084777
191	0xca	-0.20056517
192	0x31	0.18199432
193	0x13	0.070569225
194	0xa5	-0.33798945
195	0xda	-0.14113845
196	0x50	0.2971336
197	0x4f	0.29341942
198	0xbd	-0.24884938
199	0x13	0.070569225
200	0x39	0.21170768
201	0x18	0.08914007
202	0xe0	-0.118853435
203	0x1f	0.11513927
204	0x20	0.118853435
205	0xf8	-0.029713359
206	0x1c	0.10399675
207	0xdd	-0.12999594
208	0x0f	0.055712547
209	0xf9	-0.025999188
210	0xe8	-0.08914007
211	0xd0	-0.17828014
212	0xde	-0.12628177
213	0xdd	-0.12999594
214	0xe1	-0.11513927
215	0xf4	-0.044570036
216	0xd7	-0.15228096
217	0x00	0.0
218	0x01	0.0037141698
219	0x22	0.12628177
220	0x3a	0.21542186
221	0x17	0.085425906
222	0x27	0.14485262
223	0xf0	-0.059426717
224	0x4b	0.27856272
225	0xda	-0.14113845
226	0xfe	-0.0074283397
227	0xe6	-0.09656841
228	0xf6	-0.0371417
229	0x09	0.03342753
230	0x0f	0.055712547
231	0x9f	-0.36027446
232	0x35	0.196851
233	0xd4	-0.16342348
234	0xc3	-0.22656436
235	0xe0	-0.118853435
236	0x33	0.18942267
237	0xb8	-0.26742023
238	0xeb	-0.077997565
239	0x14	0.0742834
240	0x09	0.03342753
241	0xde	-0.12628177
242	0xaf	-0.30084777
243	0x08	0.029713359
244	0xd4	-0.16342348
245	0xf6	-0.0371417
246	0xcf	-0.18199432
247	0xd4	-0.16342348
248	0x37	0.20427935
249	0x08	0.029713359
250	0x2f	0.17456599
251	0x27	0.14485262
252	0x3d	0.22656436
253	0x19	0.09285425
254	0x0c	0.044570036
255	0xe7	-0.09285425

model/dense_1/MatMul i1 [64, 128] scale=0.0033818898 zero_point=0
0	0x1b	0.09131102
1	0xd5	-0.14542127
2	0xed	-0.06425591
3	0x20	0.10822047
4	0xe0	-0.10822047
5	0xd9	-0.1318937
6	0x5d	0.31451574
7	0xc3	-0.20629528
8	0x4e	0.2637874
9	0xfc	-0.013527559
10	0xde	-0.11498425
11	0xe8	-0.08116536
12	0x15	0.07101969
13	0xde	-0.11498425
14	0x14	0.06763779
15	0xd9	-0.1318937
16	0xc7	-0.19276772
17	0xad	-0.28069684
18	0x13	0.06425591
19	0xe3	-0.0980748
20	0x34	0.17585827
21	0xac	-0.28407875
22	0x29	0.13865748
23	0x61	0.3280433
24	0x42	0.22320473
25	0xd1	-0.15894882
26	0xf9	-0.023673229
27	0x27	0.1318937
28	0x3c	0.20291339
29	0x23	0.118366145
30	0x1b	0.09131102
31	0xf5	-0.037200786
32	0x39	0.19276772
33	0x57	0.2942244
34	0xd2	-0.15556693
35	0x2e	0.15556693
36	0xfe	-0.0067637796
37	0xd6	-0.14203937
38	0x3b	0.1995315
39	0xcb	-0.17924015
40	0x20	0.10822047
41	0x16	0.07440157
42	0x25	0.12512992
43	0x2e	0.15556693
44	0x0a	0.033818897
45	0x29	0.13865748
46	0x02	0.0067637796
47	0x0b	0.037200786
48	0x1c	0.094692916
49	0x08	0.027055118
50	0xfa	-0.02029134
51	0x15	0.07101969
52	0xdd	-0.118366145
53	0x04	0.013527559
54	0xdb	-0.12512992
55	0x12	0.060874015
56	0xcf	-0.1657126
57	0x05	0.016909448
58	0x22	0.11498425
59	0x4e	0.2637874
60	0xf9	-0.023673229
61	0x61	0.3280433
62	0x18	0.08116536
63	0x33	0.17247638
64	0xfc	-0.013527559
65	0x00	0.0
66	0x06	0.02029134
67	0x3f	0.21305905
68	0x5a	0.30437008
69	0x11	0.057492126
70	0x1b	0.09131102
71	0xfc	-0.013527559
72	0x53	0.28069684
73	0xfa	-0.02029134
74	0xd9	-0.1318937
75	0xf9	-0.023673229
76	0x22	0.11498425
77	0x27	0.1318937
78	0xf1	-0.050728347
79	0x20	0.10822047
80	0xec	-0.06763779
81	0x3c	0.20291339
82	0x38	0.18938583
83	0x02	0.0067637796
84	0xe8	-0.08116536
85	0x51	0.27393308
86	0x56	0.29084253
87	0x4b	0.25364172
88	0xf6	-0.033818897
89	0x3f	0.21305905
90	0x11	0.057492126
91	0xbf	-0.21982284
92	0xeb	-0.07101969
93	0x2f	0.15894882
94	0xdd	-0.118366145
95	0x43	0.22658661
96	0x14	0.06763779
97	0x0a	0.033818897
98	0x0b	0.037200786
99	0xf5	-0.037200786
100	0x46	0.23673229
101	0x3c	0.20291339
102	0xfe	-0.0067637796
103	0x32	0.16909449
104	0xe6	-0.08792914
105	0x13	0.06425591
106	0xc5	-0.1995315
107	0x0a	0.033818897
108	0x20	0.10822047
109	0x11	0.057492126
110	0xdd	-0.118366145
111	0x54	0.28407875
112	0xba	-0.23673229
113	0x46	0.23673229
114	0x22	0.11498425
115	0x06	0.02029134
116	0xba	-0.23673229
117	0x43	0.22658661
118	0x47	0.24011417
119	0x3e	0.20967716
120	0xb0	-0.27055117
121	0xd8	-0.13527559
122	0x37	0.18600394
123	0xf1	-0.050728347
124	0xf3	-0.04396457
125	0x1a	0.08792914
126	0x0f	0.050728347
127	0x58	0.2976063
128	0xf6	-0.033818897
129	0xba	-0.23673229
130	0x26	0.12851182
131	0xf8	-0.027055118
132	0xdb	-0.12512992
133	0xe7	-0.084547244
134	0x31	0.1657126
135	0x0f	0.050728347
136	0x40	0.21644095
137	0xe6	-0.08792914
138	0xd6	-0.14203937
139	0xe7	-0.084547244
140	0x10	0.054110236
141	0x11	0.057492126
142	0x40	0.21644095
143	0xfc	-0.013527559
144	0xb7	-0.24687795
145	0xb8	-0.24349606
146	0x4b	0.25364172
147	0xf0	-0.054110236
148	0xd1	-0.15894882
149	0xe1	-0.10483858
150	0x60	0.32466143
151	0x58	0.2976063
152	0x50	0.27055117
153	0x33	0.17247638
154	0x16	0.07440157
155	0xee	-0.060874015
156	0x01	0.0033818898
157	0x1a	0.08792914
158	0xf1	-0.050728347
159	0x02	0.0067637796
160	0x36	0.18262205
161	0x17	0.077783465
162	0x07	0.023673229
163	0x36	0.18262205
164	0xf1	-0.050728347
165	0x33	0.17247638
166	0x02	0.0067637796
167	0x0f	0.050728347
168	0xde	-0.11498425
169	0x31	0.1657126
170	0x27	0.1318937
171	0xf6	-0.033818897
172	0x1a	0.08792914
173	0x00	0.0
174	0x3d	0.20629528
175	0xf5	-0.037200786
176	0x2a	0.14203937
177	0xd8	-0.13527559
178	0xcf	-0.1657126
179	0xfc	-0.013527559
180	0xe5	-0.09131102
181	0x21	0.111602366
182	0xfe	-0.0067637796
183	0x39	0.19276772
184	0x13	0.06425591
185	0x27	0.1318937
186	0xbb	-0.2333504
187	0x1f	0.10483858
188	0x22	0.11498425
189	0xfa	-0.02029134
190	0x0e	0.047346458
191	0x4f	0.2671693
192	0x1d	0.0980748
193	0xee	-0.060874015
194	0xf7	-0.030437008
195	0xf2	-0.047346458
196	0x5b	0.30775198
197	0x1f	0.10483858
198	0x20	0.10822047
199	0x19	0.084547244
200	0x2d	0.15218504
201	0xfd	-0.01014567
202	0x29	0.13865748
203	0x34	0.17585827
204	0x20	0.10822047
205	0x14	0.06763779
206	0xc5	-0.1995315
207	0xe4	-0.094692916
208	0xed	-0.06425591
209	0xfc	-0.013527559
210	0x1c	0.094692916
211	0xfd	-0.01014567
212	0x37	0.18600394
213	0x58	0.2976063
214	0x49	0.24687795
215	0x33	0.17247638
216	0xd6	-0.14203937
217	0x03	0.01014567
218	0xf8	-0.027055118
219	0x07	0.023673229
220	0xeb	-0.07101969
221	0x16	0.07440157
222	0x0c	0.04058268
223	0x40	0.21644095
224	0x2f	0.15894882
225	0x1a	0.08792914
226	0x24	0.12174803
227	0xe4	-0.094692916
228	0xfa	-0.02029134
229	0x04	0.013527559
230	0x02	0.0067637796
231	0x27	0.1318937
232	0xcd	-0.17247638
233	0x1b	0.09131102
234	0xb9	-0.24011417
235	0x1f	0.10483858
236	0x31	0.1657126
237	0x26	0.12851182
238	0x21	0.111602366
239	0x53	0.28069684
240	0xb4	-0.25702363
241	0x0c	0.04058268
242	0xf7	-0.030437008
243	0xed	-0.06425591
244	0xd0	-0.16233072
245	0x28	0.13527559
246	0x12	0.060874015
247	0xfc	-0.013527559
248	0xbe	-0.22320473
249	0x26	0.12851182
250	0x12	0.060874015
251	0xe7	-0.084547244
252	0x11	0.057492126
253	0x0d	0.04396457
254	0x52	0.27731496
255	0x0d	0.04396457
