app/src/main/assets/pose_08.tflite (tflite, 26984 bytes, 6 tensors)

model/dense_2/MatMul f4 [3, 64]
00000000: 3bb7 f2be 41a9 76be 153d 423e 12c9 6cbe
00000010: 5f23 adbe 7814 8ebe f003 fc3e c6ff 9bbe
00000020: a487 c33d e2ed 613e 58a6 03bf 319d b83e
00000030: b03d 393e 7d29 82be 1f62 fdbe 96af cd3d
00000040: 52df 87be 8034 483d 03b8 c63e 787b 213d
00000050: 0726 fdbe 5046 ec3d 2921 12bf a862 6e3c
00000060: e725 d03e 9ac3 ba3e 3ffe cc3e f825 d4bd
00000070: e46a 7b3e 191e b4be a014 f3be 5586 e63d
00000080: 39f6 3b3e 530f cc3e a333 f03e 3fcf a2be
00000090: 91f3 943d adf0 8abd ccd0 afbe 9c53 3a3d
000000a0: 81dc 84bd 0025 01bf 0ec8 ab3e 5bca 123e
000000b0: 40f2 e6be eb49 e33e 272c abbe 896f a13e
000000c0: 88de 9cbe 3bac 12bf bf33 df3e 93fc 13bf
000000d0: 73bb e43d 275c 02bf dad8 b1bd 0d49 c0be
000000e0: 1bcf eabe 2d81 9bbd 29da 6f3e 32e6 07bf
000000f0: 8f38 c53e d0cc 5e3d bd48 383e ee80 013e
00000100: 1e90 de3e c6d9 06bf 83df 7e3d 65f5 043f
00000110: 8d75 df3e 1181 ffbe 0339 01bf 77b9 623e
00000120: 4036 8f3e 41db f1be 800a c73e b30b 393e
00000130: a2ba 0ebf 01dc c43e 8cf1 a73d a543 e6be
00000140: 0130 c4be 71e0 f2be 3ec1 a0be 6b7a 963e
00000150: 94f1 0e3d 1a77 2fbe 9422 c8bd 97c0 2a3d
00000160: 5773 c13e 36e9 0ebe 78d7 7abe e8a3 85be
00000170: 6810 ce3e ba30 043f 3d20 033e 76e8 f7be
00000180: 9b5b 693e 1550 943e ea95 273e e209 a13e
00000190: 68f1 0bbf 33d5 c9be 74fa 3f3e f926 7f3e
000001a0: e049 10bf 1e94 3fbe 3e84 b0be 3ac9 0f3c
000001b0: 0295 aabe 0a91 84be f9f7 383e 5592 ae3e
000001c0: 64cd c33d b330 003e 1bbd b03e de7b 113e
000001d0: 7ad0 d43e 0a9b 913e 2b2f b9be ec8b 853e
000001e0: ca84 dabe 8df1 98be 7b9d 05bf 2a0f 6d3e
000001f0: ad8d c23e d0da 593e 0de1 d3be c851 20bf
00000200: a954 99be 4b40 893e 7fc1 a9be 5dcf f5be
00000210: bf22 34bd 0b01 d63e 2e77 a1be 0716 c03e
00000220: 77d1 febe 9a19 ac3c fba4 8b3d 3e84 19bf
00000230: 853c b63d 119c b4be da0c 1e3e 0aab b33e
00000240: 5422 ca3e bcc4 a53e f085 373e 7720 f5be
00000250: 4aa7 863e d19b d5bd 96a4 733d e4e5 f63e
00000260: 7801 f7be 941d 673e 5b01 f0be 7631 ff3e
00000270: 9e34 86be 0bb8 b4be 88be 123e e399 51bd
00000280: 6644 653e 1d58 f4be bbc2 89be 3769 aabe
00000290: 5865 f23e 1204 f93e dd8d b43e 47a2 83bd
000002a0: 64f4 633e c91d bc3e 93ab d63e cf7d 64bd
000002b0: ad03 833d 78da 8c3d 208b d33e fd90 d0be
000002c0: 2d7e df3e 936d 513e 1f47 45be 4cca bdbe
000002d0: 4b9a 0dbf dec8 903d 0314 fb3e 304d 953e
000002e0: b63b 093f d68b e43e 330b a13d 2d2e ca3d
000002f0: 8304 92be c9fb 10bf 5aab cdbe 456b cd3d
-0.4740542 -0.24088003 0.18968613 -0.23123577 -0.33816049 -0.2774999 0.49221754 -0.30468577
0.09547356 0.22063401 -0.51425695 0.36057428 0.18089938 -0.25422278 -0.49488923 0.10043256
-0.26537567 0.048878193 0.38812265 0.03942439 -0.49443075 0.115368485 -0.5708185 0.014549889
0.40653917 0.36477357 0.40037724 -0.103588045 0.24552494 -0.35179213 -0.47476673 0.112560906
0.18355645 0.3985544 0.46914396 -0.3179874 0.07273019 -0.067841865 -0.34338987 0.045489892
-0.0648737 -0.5044708 0.33551067 0.14335005 -0.45106697 0.44392332 -0.33432123 0.31530407
-0.30638528 -0.5729405 0.43594167 -0.5780727 0.111685656 -0.50921863 -0.08683939 -0.37555733
-0.45861134 -0.07592998 0.23423065 -0.53085625 0.38519713 0.054394543 0.17996497 0.12646839
0.43469328 -0.52676046 0.062224876 0.5193694 0.43644372 -0.49903157 -0.5047762 0.22141062
0.27971077 -0.4723759 0.38875198 0.18070869 -0.5575353 0.384491 0.08200368 -0.44973484
-0.38317874 -0.4743686 -0.31397432 0.29390272 0.034898356 -0.17135277 -0.0977222 0.041687574
0.3778331 -0.1395615 -0.24496257 -0.26101613 0.40246892 0.5163685 0.12805267 -0.4841954
0.22788851 0.28967348 0.16365781 0.31452852 -0.5466523 -0.3942047 0.18747884 0.2491721
-0.56362724 -0.18708846 -0.34475893 0.0087760035 -0.3331681 -0.25891906 0.18063344 0.34096017
0.095606595 0.12518577 0.34519276 0.14207408 0.41565305 0.28438598 -0.361688 0.26083314
-0.42679435 -0.2987179 -0.5219342 0.23150316 0.37998715 0.21274877 -0.41382638 -0.6262479
-0.29947403 0.26806864 -0.33155438 -0.48009768 -0.04397845 0.4179767 -0.3153624 0.37516806
-0.49769184 0.021008302 0.06818577 -0.5996741 0.08898262 -0.3527532 0.1543459 0.3509143
0.39479315 0.3237666 0.17922187 -0.4787633 0.26299506 -0.1043011 0.059483133 0.48222268
-0.48243308 0.22569877 -0.46876034 0.49842423 -0.2621202 -0.35296664 0.14330494 -0.05117215
0.22389373 -0.47723475 -0.2690638 -0.33283398 0.47342944 0.48635918 0.35264483 -0.06427436
0.22261196 0.36741474 0.41927776 -0.055784043 0.063971855 0.06877607 0.4131708 -0.40735617
0.43650952 0.20451955 -0.19265412 -0.37068403 -0.5531356 0.070695624 0.49038705 0.29160452
0.53606737 0.44637936 0.07863464 0.098720886 -0.28519067 -0.56634194 -0.40169793 0.10030226

model/dense/BiasAdd/ReadVariableOp f4 [128]
00000000: 0000 0000 b9ca a33c f909 313d 7d0f 483d
00000010: 2925 613d 2756 8bbd b1ad aabc 15c4 1b3d
00000020: 0000 0000 7f20 423d 9b0b 7f3c 4509 5bbd
00000030: fcf7 f3bc 22a7 e8bb e83b b8bb fd6f d3bc
00000040: f684 3d3c b11b 27bc ae32 223d 073d 5bbd
00000050: 1cee 39bd b67b 4fbd 366f 013d 9725 133d
00000060: b0c2 6dbd 3e96 bdbc da9f 273d f491 3ebd
00000070: 11e7 723d ffa7 97bc 92f8 2bbd 5b04 d0bb
00000080: 7c8e 3cbc 7a6e 243d 627a e13c e082 033d
00000090: ed87 433d 6be9 803c 7ce7 4cbb 822b c5bc
000000a0: 0000 0000 27c4 163d f4be 123d ed2c 1b3b
000000b0: 327e 183c a71c 97bb 6fbe 4b3d fffb 533d
000000c0: 8eb1 06bd 1f67 713c 868d 603d bc24 663c
000000d0: 38f8 203d e728 88bc 8978 5abd 5344 313d
000000e0: fae9 773d 6383 f83c 9eeb 543d ba80 953c
000000f0: 0151 903b 32e3 50bc c2b9 a63b 015b 643d
00000100: 283d 7b3d 923d de3c 4399 32bd 2e68 f23c
00000110: f90c 0a3d ca43 1c3d 0000 0000 e171 21bd
00000120: de40 0fbc f73a e83a 77e6 e0bb 3cb0 063c
00000130: cf6b 443c bdd3 63bd 6cac 44bc 2b15 da3c
00000140: 6fa8 183d 561d 2d3c 9422 3a3d ddc3 023d
00000150: a706 6e3c 7f72 46bc f248 82bc 3abe 223d
00000160: c597 373d 9ff4 983d 341e b6bb 5464 abbc
00000170: 1a78 c83b 1e88 0e3d b0e5 1bbc 59e7 5cbc
00000180: fbe4 b3bc 5c68 16bb 71c2 63bc c665 8d3d
00000190: e415 61ba 0000 0000 c47f a33c b4e2 01bd
000001a0: 028f 323d 2b47 9b3c db01 363d e56a d7bc
000001b0: eb35 2fbd dcc4 373d 0000 0000 b1a5 a4ba
000001c0: 021e d4bc 0000 0000 5982 333c 2430 25bd
000001d0: fa0b 1dbc f08e 483b 37d6 d5bc 4962 88bc
000001e0: 0000 0000 6f22 2a3d 210e 1c3c 3c31 ac3c
000001f0: 5361 223d 5028 69bc ddbd e5bb ae64 e7bb
0.0 0.019994127 0.0432224 0.048842896 0.05496708 -0.06803542 -0.020834776 0.038028795
0.0 0.047394272 0.015566732 -0.053475637 -0.029781334 -0.007100002 -0.0056223758 -0.025810236
0.011567345 -0.010199473 0.039599113 -0.053524997 -0.045393094 -0.05065509 0.0316002 0.03592452
-0.058046997 -0.02314293 0.04092393 -0.04652591 0.059302393 -0.018512724 -0.041985102 -0.0063481755
-0.01150858 0.04014442 0.027524177 0.032107234 0.04773705 0.015736302 -0.0031265905 -0.024068598
0.0 0.03680816 0.03582664 0.00236779 0.009307431 -0.00461157 0.04974216 0.051753994
-0.032884173 0.014734059 0.054822467 0.014046844 0.03929922 -0.016621066 -0.053337608 0.04327805
0.06052587 0.030336088 0.051982515 0.018249858 0.0044041877 -0.01274948 0.005088062 0.05575085
0.06133762 0.027128968 -0.043603193 0.029590692 0.033703778 0.038150586 0.0 -0.039415244
-0.008743493 0.0017717768 -0.006863411 0.0082207285 0.011988594 -0.05562185 -0.012003999 0.026621422
0.037270006 0.010566076 0.045443133 0.03192507 0.014527953 -0.012112259 -0.015903924 0.039732195
0.044822473 0.07468533 -0.0055577997 -0.020921864 0.006117833 0.03479778 -0.009515211 -0.013482892
-0.021959772 -0.0022950387 -0.013901339 0.06904177 -0.0008586331 0.0 0.019958384 -0.03171034
0.043593414 0.018954834 0.044435363 -0.026296088 -0.04277603 0.044865474 0.0 -0.0012561587
-0.025893215 0.0 0.01095637 -0.040329114 -0.009585375 0.0030602776 -0.026103122 -0.016648429
0.0 0.041536745 0.009524853 0.02101957 0.039643597 -0.014230803 -0.007011159 -0.0070615625

model/dense_2/BiasAdd/ReadVariableOp f4 [3]
00000000: ef02 57bd 4ef8 e33d 2a79 5fbd
-0.052493032 0.11131345 -0.05455891

model/dense_1/BiasAdd/ReadVariableOp f4 [64]
00000000: d0d4 b93d 20ca 82bc 45b2 aa3d 7e20 f63d
00000010: a61e 193e a18f 563b 601b b03c 3391 4d3d
00000020: ab7d d13d e90c 32bb 24b7 c73d 00b7 eb3d
00000030: 9be1 32bd 43b5 ac3d 1ead d23d f0fc b5bc
00000040: f44c 0fbd 629a d2bb f321 56bc 8e88 143e
00000050: 9db7 8b3d d5d3 b8bc ce62 a73d 0d80 0dbd
00000060: 2680 a63d 31cd 71bd 095b 903d a04c 36bd
00000070: 1c17 223e 8648 d73d 5b1f 0d3e 71f4 56bc
00000080: a3da 13bd 6799 853d a41a f63d 2a45 d93d
00000090: 2f23 30bc 3514 02bd b34a bc3d b840 1cbd
000000a0: c1c7 a63c 614b bdbc ab74 f5bc a12d c6bc
000000b0: 6c37 b8bc efbc c23a 1346 0a3d 6842 083e
000000c0: 9b77 953d 1149 1a3e c5d1 df3d c5e9 0b3e
000000d0: e8e4 d93d a71e 093e dedc e1bc 6207 283e
000000e0: 4a83 9fbc c90c 3fba 1171 51bc b721 eb3d
000000f0: b9b4 f83d 5098 f53d 2afd 663c f047 a6bc
0.09073794 -0.015965521 0.083347835 0.12017916 0.14953098 0.0032739418 0.021497428 0.0501873
0.102290474 -0.002716834 0.09751728 0.11509514 -0.043672185 0.084330104 0.10286926 -0.022215337
-0.034985498 -0.0064270953 -0.013069618 0.14505216 0.06822131 -0.022561947 0.081731424 -0.034545947
0.08129911 -0.059033576 0.070486136 -0.04450667 0.15829128 0.105118796 0.13781492 -0.013119803
-0.03609718 0.065234 0.120168 0.10608895 -0.010750576 -0.031757552 0.09193935 -0.038147658
0.020358922 -0.023107233 -0.029962858 -0.02419168 -0.022487365 0.0014857332 0.033758234 0.13306582
0.072982036 0.15066935 0.10928682 0.13663395 0.106393635 0.13390599 -0.027571138 0.16409066
-0.019471783 -0.0007287977 -0.012783305 0.1148104 0.12143845 0.11991942 0.014098445 -0.020297974

model/dense/MatMul i1 [128, 34] scale=0.0041673933 zero_point=0
00000000: 102d 261a e401 1c0a 151c f2e0 282b e221
00000010: 06f4 db01 d3f9 e6dc f4ec 20d7 1bf5 f8fe
00000020: ddd7 e105 f113 edef eb05 3ad9 41ca f1e3
00000030: 54d9 d224 33f5 04de b2dc 2528 022b 054a
00000040: 3ef6 ef2a 2218 fb07 1ced 35f0 2ccb 35cf
00000050: 34da 540f 3b0f 4d4b 6347 b0d1 0a27 3000
00000060: 5e3b 2c33 38f5 31ec 3a1e 3116 24d6 0de9
00000070: f70a 3af4 46d6 3705 67e2 5028 2405 0229
00000080: 4bf1 40c6 49d3 34fe 0ee5 fc02 1c05 1ef4
00000090: 1b13 d4e7 b602 fc0e b53b 1fe8 b6af f209
000000a0: ced1 ead3 1317 0a2c c6ff 18f4 dbfa f007
000000b0: 06e0 f422 d132 fa00 f816 e6e4 cf4a 27ee
000000c0: 1d29 d3d5 ea00 c1dc 9ffb 0201 ed0f 08f5
000000d0: f6d1 12cf 110b 150a 36fd 53e3 46c2 2105
000000e0: 5656 e4eb 672f 3903 2f4c 273a 200a 441c
000000f0: 5901 44ef 41e8 38cc 02ef 20eb f1fd 0902
0.06667829 0.1875327 0.15836094 0.10835223 -0.116687015 0.0041673933 0.116687015 0.041673932
0.08751526 0.116687015 -0.058343507 -0.13335659 0.16669573 0.1791979 -0.1250218 0.13752398
0.02500436 -0.05000872 -0.15419355 0.0041673933 -0.1875327 -0.029171754 -0.10835223 -0.15002616
-0.05000872 -0.083347864 0.13335659 -0.17086312 0.11251962 -0.045841325 -0.033339147 -0.008334787
-0.14585876 -0.17086312 -0.1291892 0.020836966 -0.0625109 0.07918047 -0.07918047 -0.070845686
-0.08751526 0.020836966 0.24170882 -0.16252834 0.27088058 -0.22503924 -0.0625109 -0.12085441
0.35006103 -0.16252834 -0.19170009 0.15002616 0.21253707 -0.045841325 0.016669573 -0.14169137
-0.32505667 -0.15002616 0.15419355 0.16669573 0.008334787 0.1791979 0.020836966 0.3083871
0.2583784 -0.041673932 -0.070845686 0.17503051 0.14169137 0.10001744 -0.020836966 0.029171754
0.116687015 -0.07918047 0.22087185 -0.06667829 0.1833653 -0.22087185 0.22087185 -0.20420228
0.21670446 -0.15836094 0.35006103 0.0625109 0.24587621 0.0625109 0.3208893 0.3125545
0.41257194 0.29588494 -0.33339146 -0.19586748 0.041673932 0.16252834 0.20003489 0.0
0.39173496 0.24587621 0.1833653 0.21253707 0.23337403 -0.045841325 0.20420228 -0.083347864
0.24170882 0.1250218 0.20420228 0.09168265 0.15002616 -0.17503051 0.054176114 -0.09585004
-0.03750654 0.041673932 0.24170882 -0.05000872 0.29171753 -0.17503051 0.22920664 0.020836966
0.4292415 -0.1250218 0.33339146 0.16669573 0.15002616 0.020836966 0.008334787 0.17086312
0.3125545 -0.0625109 0.26671317 -0.24170882 0.30421972 -0.1875327 0.21670446 -0.008334787
0.058343507 -0.11251962 -0.016669573 0.008334787 0.116687015 0.020836966 0.1250218 -0.05000872
0.11251962 0.07918047 -0.1833653 -0.104184836 -0.3083871 0.008334787 -0.016669573 0.058343507
-0.3125545 0.24587621 0.1291892 -0.10001744 -0.3083871 -0.33755887 -0.058343507 0.03750654
-0.20836967 -0.19586748 -0.09168265 -0.1875327 0.07918047 0.09585004 0.041673932 0.1833653
-0.24170882 -0.0041673933 0.10001744 -0.05000872 -0.15419355 -0.02500436 -0.06667829 0.029171754
0.02500436 -0.13335659 -0.05000872 0.14169137 -0.19586748 0.20836967 -0.02500436 0.0
-0.033339147 0.09168265 -0.10835223 -0.116687015 -0.20420228 0.3083871 0.16252834 -0.07501308
0.12085441 0.17086312 -0.1875327 -0.1791979 -0.09168265 0.0 -0.26254576 -0.15002616
-0.40423715 -0.020836966 0.008334787 0.0041673933 -0.07918047 0.0625109 0.033339147 -0.045841325
-0.041673932 -0.19586748 0.07501308 -0.20420228 0.070845686 0.045841325 0.08751526 0.041673932
0.22503924 -0.01250218 0.34589365 -0.12085441 0.29171753 -0.2583784 0.13752398 0.020836966
0.3583958 0.3583958 -0.116687015 -0.08751526 0.4292415 0.19586748 0.23754142 0.01250218
0.19586748 0.3167219 0.16252834 0.24170882 0.13335659 0.041673932 0.28338274 0.116687015
0.370898 0.0041673933 0.28338274 -0.070845686 0.27088058 -0.10001744 0.23337403 -0.21670446
0.008334787 -0.070845686 0.13335659 -0.08751526 -0.0625109 -0.01250218 0.03750654 0.008334787

model/dense_1/MatMul i1 [64, 128] scale=0.004074412 zero_point=0
00000000: 0f25 a8e4 2ac5 e804 0504 1cad 04ed 19fc
00000010: e800 b3cc 97d0 e113 e3ed e9ce faff cb13
00000020: dc1e 1b1f 0ce9 b7c7 20ea 00fe 1f20 0ff6
00000030: d71d 082a af11 cb04 a644 ce0a 2c08 f0ea
00000040: d3d2 d220 07e9 0fc9 f63b e429 0fd3 050c
00000050: b1ea 1200 1493 03d0 10c8 f00f ba27 0696
00000060: 24eb c8a1 f40c 26d2 0a0c 00c9 cd11 d5d7
00000070: d7f9 0ece fc0d 091a 1211 2e19 e528 22c5
00000080: 08db 1a4a fc30 0806 df59 0812 24e5 3108
00000090: 0016 464b 61f0 31e3 3e05 e22b e523 47cb
000000a0: fcf6 0629 531f ff2c ef0d 32e8 39f1 3105
000000b0: f408 32ea 250f 1506 3fc2 421c ea33 f350
000000c0: 4151 46fa fe3b e815 f9ee 360f 2120 f4d0
000000d0: 292e fdf5 c04c 1910 4637 0f2d 26fa 2166
000000e0: 0a2c fa40 cede f050 2fc7 2d2b 080f dd17
000000f0: 2afd 0f2a fc00 06c5 2028 dbfc 1215 0e0e
0.061116178 0.15075324 -0.35854825 -0.114083536 0.17112531 -0.2403903 -0.09778589 0.016297648
0.02037206 0.016297648 0.114083536 -0.3381762 0.016297648 -0.07741383 0.1018603 -0.016297648
-0.09778589 0.0 -0.31372973 -0.21186942 -0.42781326 -0.19557178 -0.12630677 0.07741383
-0.118157946 -0.07741383 -0.09371147 -0.2037206 -0.024446473 -0.004074412 -0.21594383 0.07741383
-0.14667884 0.122232355 0.11000912 0.12630677 0.048892945 -0.09371147 -0.29743207 -0.23224148
0.13038118 -0.08963706 0.0 -0.008148824 0.12630677 0.13038118 0.061116178 -0.04074412
-0.16705088 0.118157946 0.032595295 0.17112531 -0.33002737 0.069265 -0.21594383 0.016297648
-0.36669707 0.27706 -0.2037206 0.04074412 0.17927413 0.032595295 -0.06519059 -0.08963706
-0.18334854 -0.18742295 -0.18742295 0.13038118 0.028520884 -0.09371147 0.061116178 -0.22409266
-0.04074412 0.2403903 -0.114083536 0.16705088 0.061116178 -0.18334854 0.02037206 0.048892945
-0.32187855 -0.08963706 0.07333942 0.0 0.08148824 -0.4441109 0.012223236 -0.19557178
0.06519059 -0.22816707 -0.06519059 0.061116178 -0.28520882 0.15890206 0.024446473 -0.43188766
0.14667884 -0.085562654 -0.22816707 -0.38706914 -0.048892945 0.048892945 0.15482765 -0.18742295
0.04074412 0.048892945 0.0 -0.22409266 -0.20779501 0.069265 -0.17519972 -0.16705088
-0.16705088 -0.028520884 0.057041768 -0.2037206 -0.016297648 0.052967355 0.03666971 0.10593471
0.07333942 0.069265 0.18742295 0.1018603 -0.11000912 0.16297647 0.13853 -0.2403903
0.032595295 -0.15075324 0.10593471 0.3015065 -0.016297648 0.19557178 0.032595295 0.024446473
-0.13445559 0.36262265 0.032595295 0.07333942 0.14667884 -0.11000912 0.19964619 0.032595295
0.0 0.08963706 0.28520882 0.30558088 0.39521796 -0.06519059 0.19964619 -0.118157946
0.25261354 0.02037206 -0.122232355 0.17519972 -0.11000912 0.14260441 0.28928325 -0.21594383
-0.016297648 -0.04074412 0.024446473 0.16705088 0.3381762 0.12630677 -0.004074412 0.17927413
-0.069265 0.052967355 0.2037206 -0.09778589 0.23224148 -0.061116178 0.19964619 0.02037206
-0.048892945 0.032595295 0.2037206 -0.08963706 0.15075324 0.061116178 0.085562654 0.024446473
0.25668794 -0.25261354 0.26891118 0.114083536 -0.08963706 0.20779501 -0.052967355 0.32595295
0.2648368 0.33002737 0.28520882 -0.024446473 -0.008148824 0.2403903 -0.09778589 0.085562654
-0.028520884 -0.07333942 0.22001824 0.061116178 0.13445559 0.13038118 -0.048892945 -0.19557178
0.16705088 0.18742295 -0.012223236 -0.04481853 -0.26076236 0.3096553 0.1018603 0.06519059
0.28520882 0.22409266 0.061116178 0.18334854 0.15482765 -0.024446473 0.13445559 0.41559002
0.04074412 0.17927413 -0.024446473 0.26076236 -0.2037206 -0.13853 -0.06519059 0.32595295
0.19149736 -0.23224148 0.18334854 0.17519972 0.032595295 0.061116178 -0.14260441 0.09371147
0.17112531 -0.012223236 0.061116178 0.17112531 -0.016297648 0.0 0.024446473 -0.2403903
0.13038118 0.16297647 -0.15075324 -0.016297648 0.07333942 0.085562654 0.057041768 0.057041768
