app/src/main/assets/pose_05.tflite (tflite, 26984 bytes, 6 tensors)

model/dense_2/MatMul f4 [3, 64]
0.093749255 0.2966354 -0.40507686 -0.54648954 -0.2660177 -0.003775685 -0.01217158 0.17720735
0.16955018 0.43900186 0.22015353 -0.47958067 -0.10221111 -0.2404089 0.2553837 0.029979156
0.12141429 0.34826252 -0.031725466 0.15899682 -0.2537526 0.23955932 0.38179937 0.39816475
-0.426237 0.39304343 -0.27704045 0.11461211 -0.19054118 0.08121679 0.12399121 0.17616844
-0.20729941 -0.33566645 0.2919903 -0.2821913 0.096204326 -0.10707215 0.24629031 -0.0725861
-0.31650713 0.3150815 -0.35303456 0.25178438 -0.17263694 0.42998794 0.2522598 0.04933644
-0.565601 -0.087262966 0.20841335 -0.18633406 -0.03826087 -0.27390894 -0.07970705 -0.37618983
0.2597024 -0.23831752 -0.2668359 0.38330513 -0.04172632 0.2783274 -0.14572169 0.040911812
-0.3466244 -0.369813 0.19595669 0.060938355 0.1747489 0.15534236 0.46607533 -0.12508088
0.3264495 -0.088880055 0.01755952 0.10294047 0.14732727 -0.42518538 0.1627944 -0.0016978552
-0.023757998 -0.16553807 -0.32133302 -0.38640517 0.4737677 -0.36816633 -0.052318126 -0.4185549
0.010869145 -0.47309858 0.274898 -0.35661593 -0.09948933 -0.2582732 0.027166756 0.3029075
0.05167003 -0.28913164 -0.33456036 0.27012095 -0.005150964 0.25012833 0.2527656 -0.12224056
0.18873453 -0.24140874 -0.2720812 0.3740511 -0.30529413 -0.37851933 0.3178129 0.29997656
0.047299534 -0.21952958 -0.317093 0.039210904 0.15151817 0.23548087 -0.23410177 0.24411081
0.14879827 0.3970368 0.25966606 -0.22931013 -0.38598654 -0.10170856 -0.1511654 -0.24609445
0.21013078 0.18559088 -0.27683198 0.048992008 -0.3416711 -0.35217068 -0.32221538 0.36441043
-0.37854198 -0.14160913 -0.3666817 -0.00012835042 -0.32312953 0.15994032 -0.4004929 -0.36780587
0.33806282 -0.23664142 0.3388742 0.3285115 0.32101634 0.34696656 -0.32794863 -0.0039880015
0.34834516 -0.21339867 0.2613335 0.04210556 0.27884603 -0.4778435 0.38878956 -0.024368675
-0.43216705 0.35093588 -0.19244531 0.11042519 0.41025487 -0.412972 -0.1843397 0.3185641
0.026516536 -0.49342325 0.2267448 -0.12654647 0.17267013 -0.3914796 -0.32451138 -0.23259161
0.07043834 0.16586962 0.27343425 -0.44318196 -0.37476575 0.30560666 0.30296537 0.16717589
-0.4275047 0.0040015397 0.2655611 -0.047559608 -0.33349115 -0.014731564 0.3967196 0.34419504
00000000: 9cff bf3d 98e0 973e 3c66 cfbe bde6 0bbf
00000010: 7933 88be 7c71 77bb 4f6b 47bc d875 353e
00000020: 909e 2d3e dac4 e03e ed6f 613e 998b f5be
00000030: 0f54 d1bd c02d 76be a7c1 823e d996 f53c
00000040: 0ea8 f83d 774f b23e 90f2 01bd 10d0 223e
00000050: dceb 81be 0a4f 753e 357b c33e 40dc cb3e
00000060: bc3b dabe fd3c c93e 3fd8 8dbe c1b9 ea3d
00000070: 3a1d 43be fd54 a63d 1aef fd3d 8065 343e
00000080: 4c46 54be 79dc abbe c17f 953e 617b 90be
00000090: c606 c53d a548 dbbd 8733 7c3e 05a8 94bd
000000a0: 390d a2be 5d52 a13e f2c0 b4be e2e9 803e
000000b0: bdc7 30be 6127 dc3e 3228 813e 0215 4a3d
000000c0: 3acb 10bf edb6 b2bd 4f6a 553e 5bce 3ebe
000000d0: 6eb7 1cbd cb3d 8cbe 733d a3bd f49b c0be
000000e0: b7f7 843e 8209 74be b79e 88be 9240 c43e
000000f0: 38e9 2abd ee80 8e3e 1138 15be 2593 273d
00000100: c178 b1be 2158 bdbe dfa8 483e 7f9a 793d
00000110: 60f1 323e 1112 1f3e 6da1 ee3e 3415 00be
00000120: 6424 a73e bf06 b6bd fcd8 8f3c 74d2 d23d
00000130: f6dc 163e e6b1 d9be 93b3 263e 918a deba
00000140: 22a0 c2bc d082 29be c385 a4be e6d6 c5be
00000150: ae91 f23e 4c80 bcbe 884b 56bd d44c d6be
00000160: 8014 323c fa39 f2be 6ebf 8c3e 5d96 b6be
00000170: 10c1 cbbd 633c 84be d18c de3c b116 9b3e
00000180: f4a3 533d 1009 94be 7f4b abbe 4b4d 8a3e
00000190: 6bc9 a8bb d210 803e 7e6a 813e 4259 fabd
000001a0: a043 413e da33 77be 3a4e 8bbe a083 bf3e
000001b0: 834f 9cbe 49cd c1be 5fb8 a23e 8796 993e
000001c0: 28bd 413d 5dcc 60be 045a a2be 9d9b 203d
000001d0: 9427 1b3e e621 713e 60b8 6fbe 2ff8 793e
000001e0: 935e 183e 6848 cb3e f3f2 843e 46d0 6abe
000001f0: 07a0 c5be 944c d0bd 1acb 1abe 2f00 7cbe
00000200: 862c 573e 890b 3e3e ecbc 8dbe d8ab 483d
00000210: 84ef aebe b74f b4be 6af9 a4be 0194 ba3e
00000220: 41d0 c1be fc01 11be b4bd bbbe ce95 06b9
00000230: 3c71 a5be 65c7 233e 680d cdbe 0d51 bcbe
00000240: 9216 ad3e 2152 72be eb80 ad3e a932 a83e
00000250: 415c a43e 9aa5 b13e e2e8 a7be c8ad 82bb
00000260: 4c5a b23e 2e85 5abe 81cd 853e e176 2c3d
00000270: e8c4 8e3e e7a7 f4be 6d0f c73e d1a0 c7bc
00000280: 0045 ddbe dead b33e 6210 45be 9a26 e23d
00000290: ed0c d23e 1171 d3be 8cc3 3cbe d51a a33e
000002a0: 3539 d93c f9a1 fcbe ca2f 683e 6695 01be
000002b0: 70d0 303e 0470 c8be 5b26 a6be 7f2c 6ebe
000002c0: fa41 903d bad9 293e 93ff 8b3e bfe8 e2be
000002d0: 4ce1 bfbe 7a78 9c3e 471e 9b3e 2830 2b3e
000002e0: e5e1 dabe 591f 833b a0f7 873e ddcd 42bd
000002f0: 5abf aabe a85c 71bc d51e cb3e 553a b03e

model/dense/BiasAdd/ReadVariableOp f4 [128]
0.07669873 0.10439327 0.04478346 0.0022931015 0.07052417 0.018628212 0.07918929 0.047958255
0.058631774 0.04370447 0.063498564 0.07783791 0.00976747 -0.016608648 0.04179274 -9.38122e-05
-0.020240597 -0.0064259903 0.03195349 0.066763416 0.01203696 -0.022031449 -0.005787044 0.04847194
0.05934781 0.01941453 0.04656073 0.04207467 -0.01347474 0.054539606 0.05965795 -0.01062362
0.026413871 0.021395223 -0.01582723 -0.0060038376 0.09723438 0.09504599 -0.002587922 -0.0051461426
0.03049869 0.04012742 0.09795109 -0.021863392 0.037708152 0.011358897 0.014156955 0.01855362
0.07443744 0.045411468 0.10129347 0.07107169 0.10815266 0.07170949 0.022216666 0.0074082124
0.020627841 0.048352305 0.048873585 0.062830396 0.07877185 0.0033045502 0.020837087 0.04025824
0.09411629 0.0 0.051514734 0.010205779 0.07784856 0.020342255 -0.012893635 0.0765698
0.082256086 -0.005177551 0.09846742 0.08820803 -0.031769708 0.06625467 0.08357086 0.08963376
-0.010475991 0.09968989 0.03629681 0.08538965 0.039629262 0.034314536 0.09369774 0.0325205
-0.03446072 0.05548288 0.062961675 0.026277868 -0.00029287615 0.05567949 0.08594134 0.029534237
-0.010675488 -0.01630916 0.034390837 0.07279483 0.0030697905 -0.0027581332 0.011358283 0.0035587922
0.064265534 0.07835927 -0.011735826 0.08386067 0.076490246 0.021015558 0.029880311 0.031611122
0.0037029502 0.0026358727 0.034291413 0.058585044 0.032692935 0.02156119 -0.00515136 0.047360748
0.069294624 0.015796991 0.008890534 -0.028811939 0.027155848 -0.017710548 0.0397006 0.041611776
00000000: 3914 9d3d 24cc d53d dd6e 373d dc47 163b
00000010: fa6e 903d 319a 983c ff2d a23d e06f 443d
00000020: df27 703d 7503 333d 890b 823d 7b69 9f3d
00000030: bd07 203c dc0e 88bc dd2e 2b3d 0bbd c4b8
00000040: 9ccf a5bc 1d91 d2bb aae1 023d 42bb 883d
00000050: ab36 453c 4c7b b4bc 3ea1 bdbb 838a 463d
00000060: b016 733d 380b 9f3c 77b6 3e3d 7d56 2c3d
00000070: 28c5 5cbc ec64 5f3d e55b 743d b10e 2ebc
00000080: e761 d83c 0945 af3c 1ba8 81bc d7bb c4bb
00000090: d222 c73d 79a7 c23d 209a 29bb f9a0 a8bb
000000a0: 64d8 f93c a65c 243d 959a c83d db1a b3bc
000000b0: dd73 1a3d ab1a 3a3c 93f2 673c c3fd 973c
000000c0: a872 983d 6001 3a3d f372 cf3d 098e 913d
000000d0: 247f dd3d 6ddc 923d baff b53c 97c0 f23b
000000e0: b8fb a83c 110d 463d ab2f 483d 39ad 803d
000000f0: 2353 a13d 2791 583b 8ab2 aa3c d3e5 243d
00000100: 0bc0 c03d 0000 0000 1d01 533d 2436 273c
00000110: 116f 9f3d cda4 a63c d33f 53bc a1d0 9c3d
00000120: e175 a83d 72a8 a9bb 49a9 c93d 69a6 b43d
00000130: f420 02bd 87b0 873d 3327 ab3d e891 b73d
00000140: 7ea3 2bbc 372a cc3d f7ab 143d c5e0 ae3d
00000150: 4b52 223d 668d 0c3d 9ae4 bf3d 3734 053d
00000160: af26 0dbd 0442 633d 0df2 803d af44 d73c
00000170: 2c8d 99b9 2d10 643d 0302 b03d c9f1 f13c
00000180: 3ee8 2ebc ca9a 85bc 68dd 0c3d 7515 953d
00000190: 8a2e 493b ccc1 34bb 1818 3a3c a03a 693b
000001a0: a69d 833d d37a a03d 9f47 40bc 25bf ab3d
000001b0: eba6 9c3d d228 ac3c 8ec7 f43c aa7a 013d
000001c0: 32ad 723b 9bbe 2c3b 2775 0c3d dff6 6f3d
000001d0: 07e9 053d 18a1 b03c bdcc a8bb 58fd 413d
000001e0: 57ea 8d3d b168 813c 9aa9 113c 0407 ecbc
000001f0: f175 de3c b615 91bc 199d 223d 1c71 2a3d

model/dense_2/BiasAdd/ReadVariableOp f4 [3]
-0.017859405 0.061522327 -0.10546514
00000000: e34d 92bc d6fe 7b3d 1bfe d7bd

model/dense_1/BiasAdd/ReadVariableOp f4 [64]
0.03219997 0.00025910183 0.07172054 0.08455063 0.059078902 0.07695657 0.077560686 -0.031410612
0.05877907 0.048817538 0.09491971 0.08783003 0.082262374 0.0017335793 0.100169264 0.13689768
-0.01993763 0.02619808 -0.012679594 0.030526482 0.075326756 0.008106764 0.071782194 0.0014048743
0.053006254 0.047974207 0.043802675 0.044453025 -0.012198643 0.07705666 -0.005432187 0.09404397
0.059782855 0.02341762 0.038553737 0.03354067 -0.019005623 0.05784397 0.090287514 0.016784087
0.04298835 0.04892052 -0.0070616156 0.08978409 0.0064096362 0.029203221 0.09164967 0.06333017
0.07312049 -0.02814732 0.008144451 0.07295031 0.10514689 0.07643657 -0.015320173 0.036320787
0.11649878 0.043841224 0.049539648 0.04662794 0.06441999 -0.022113552 0.02097869 -0.0030819906
00000000: 1ee4 033d 0fd8 8739 38e2 923d e128 ad3d
00000010: b8fc 713d 689b 9d3d 23d8 9e3d 6aa8 00bd
00000020: 52c2 703d e6f4 473d 4465 c23d 3be0 b33d
00000030: 2d79 a83d 4539 e33a 8b25 cd3d e82e 0c3e
00000040: 3e54 a3bc 5b9d d63c 12be 4fbc ac12 fa3c
00000050: ea44 9a3d 3cd2 043c 8b02 933d c223 b83a
00000060: 161d 593d 9a80 443d 6f6a 333d 6014 363d
00000070: d1dc 47bc e2cf 9d3d 7d00 b2bb 209a c03d
00000080: dede 743d 4fd6 bf3c 86ea 1d3d f161 093d
00000090: aeb1 9bbc cced 6c3d a9e8 b83d c87e 893c
000000a0: 8d14 303d e260 483d 2065 e7bb b9e0 b73d
000000b0: ed07 d23b 983b ef3c d2b2 bb3d 40b3 813d
000000c0: 32c0 953d 3595 e6bc 4e70 053c f966 953d
000000d0: 4157 d73d c78a 9c3d 7701 7bbc 1bc5 143d
000000e0: ea96 ee3d db92 333d 16ea 4a3d f0fc 3e3d
000000f0: a1ee 833d 7b27 b5bc 80db ab3c 39fb 49bb

model/dense/MatMul i1 [128, 34] scale=0.004072973 zero_point=0
-0.22401352 -0.1058973 -0.18735676 -0.21994054 0.06516757 -0.089605406 -0.17106487 -0.04072973
0.06924054 -0.23215947 0.11404324 -0.008145946 0.008145946 -0.18735676 -0.16291893 -0.04072973
-0.17921081 0.1058973 -0.32176486 -0.085532434 -0.4235892 0.22401352 0.23623243 0.118116215
-0.19957568 0.15884595 -0.020364866 -0.15477298 0.05294865 -0.048875675 -0.13440812 -0.04072973
-0.05702162 -0.05702162 -0.13848108 0.085532434 -0.12626216 0.061094597 -0.14662702 -0.004072973
-0.17106487 0.14662702 -0.024437837 -0.02851081 0.089605406 -0.09775135 0.06924054 -0.10182433
-0.122189194 0.16291893 -0.26067027 -0.118116215 -0.3299108 0.34212974 -0.24845135 0.10182433
0.23215947 -0.11404324 0.122189194 0.10182433 0.15884595 -0.21994054 0.05702162 -0.09367838
0.10182433 -0.118116215 0.032583784 -0.07738649 -0.15477298 0.16699189 -0.24030541 -0.06516757
-0.10182433 -0.012218919 0.06924054 -0.04072973 -0.089605406 -0.09775135 -0.06516757 0.1058973
0.048875675 0.085532434 -0.26474324 0.05294865 0.05294865 0.13848108 -0.2728892 -0.02851081
-0.26067027 -0.061094597 0.09775135 0.23215947 -0.23623243 -0.036656756 -0.26067027 -0.16699189
-0.08145946 -0.07738649 -0.05702162 0.085532434 -0.20364866 0.122189194 0.19142973 0.10997027
0.21586756 -0.012218919 0.1507 0.06516757 0.18328379 -0.12626216 -0.08145946 -0.089605406
0.004072973 0.16291893 -0.06924054 -0.05702162 0.048875675 -0.06924054 -0.26067027 0.17106487
0.02851081 0.1955027 -0.15477298 0.17106487 0.085532434 0.2728892 -0.06516757 -0.024437837
0.0 -0.016291892 0.11404324 -0.20772162 0.20364866 0.036656756 0.28918108 0.122189194
-0.05294865 -0.044802703 -0.089605406 0.17513785 -0.11404324 -0.10997027 0.17106487 -0.008145946
-0.06516757 -0.19142973 0.1058973 -0.10182433 0.12626216 0.061094597 -0.08145946 0.044802703
-0.35434866 0.20772162 -0.24845135 0.15884595 -0.35434866 0.18328379 0.06924054 -0.024437837
-0.26474324 0.061094597 -0.05294865 -0.3176919 -0.14255406 -0.085532434 -0.016291892 -0.18328379
0.06924054 0.1058973 0.14662702 0.06924054 0.044802703 -0.07331351 0.008145946 -0.18328379
-0.15477298 -0.10997027 -0.07738649 -0.19957568 0.06516757 -0.020364866 0.05702162 -0.13848108
-0.13033514 -0.13033514 -0.085532434 0.15477298 -0.09775135 -0.10997027 -0.18735676 0.020364866
0.19142973 -0.012218919 -0.2728892 0.08145946 -0.07738649 -0.06924054 0.024437837 -0.07331351
-0.15477298 0.15884595 -0.16291893 0.09775135 0.020364866 0.10182433 -0.06516757 -0.06516757
-0.19142973 -0.14662702 0.02851081 -0.07331351 -0.036656756 0.13440812 0.15477298 -0.05702162
-0.1058973 0.05702162 -0.09367838 -0.085532434 -0.34212974 -0.09367838 -0.40322432 0.044802703
-0.24845135 0.1955027 0.21994054 -0.12626216 -0.19142973 0.09775135 -0.13440812 -0.23623243
-0.07331351 -0.41951624 0.19142973 0.05702162 0.14662702 -0.07738649 -0.19957568 0.18735676
-0.3014 -0.02851081 -0.118116215 0.13440812 -0.14662702 0.20364866 0.05702162 0.016291892
0.020364866 0.06516757 0.05294865 0.23215947 -0.17513785 0.29732704 -0.24437839 0.15477298
00000000: c9e6 d2ca 10ea d6f6 11c7 1cfe 02d2 d8f6
00000010: d41a b1eb 9837 3a1d cf27 fbda 0df4 dff6
00000020: f2f2 de15 e10f dcff d624 faf9 16e8 11e7
00000030: e228 c0e3 af54 c319 39e4 1e19 27ca 0ee9
00000040: 19e3 08ed da29 c5f0 e7fd 11f6 eae8 f01a
00000050: 0c15 bf0d 0d22 bdf9 c0f1 1839 c6f7 c0d7
00000060: eced f215 ce1e 2f1b 35fd 2510 2de1 ecea
00000070: 0128 eff2 0cef c02a 0730 da2a 1543 f0fa
00000080: 00fc 1ccd 3209 471e f3f5 ea2b e4e5 2afe
00000090: f0d1 1ae7 1f0f ec0b a933 c327 a92d 11fa
000000a0: bf0f f3b2 ddeb fcd3 111a 2411 0bee 02d3
000000b0: dae5 edcf 10fb 0ede e0e0 eb26 e8e5 d205
000000c0: 2ffd bd14 edef 06ee da27 d818 0519 f0f0
000000d0: d1dc 07ee f721 26f2 e60e e9eb ace9 9d0b
000000e0: c330 36e1 d118 dfc6 ee99 2f0e 24ed cf2e
000000f0: b6f9 e321 dc32 0e04 0510 0d39 d549 c426

model/dense_1/MatMul i1 [64, 128] scale=0.0034405359 zero_point=0
0.08257286 0.044726968 -0.04128643 -0.13762143 0.055048574 -0.1445025 0.103216074 0.1823484
0.12729983 0.11009715 -0.15826465 -0.1720268 0.24083751 0.38534 -0.16514573 0.2683618
0.103216074 -0.030964823 0.12041876 0.0034405359 0.13762143 -0.12729983 0.096335 -0.07569179
-0.037845895 0.16170518 -0.103216074 0.06537018 -0.04128643 0.07569179 -0.05848911 -0.04128643
0.2201943 0.16858625 0.14106198 0.055048574 -0.055048574 0.04128643 0.35437518 0.15826465
0.027524287 0.11697822 -0.11697822 0.0860134 -0.061929647 0.020643216 -0.044726968 -0.096335
0.04128643 -0.14794303 -0.034405358 -0.061929647 -0.14794303 -0.05848911 0.037845895 0.055048574
0.20299162 0.19267 0.09977554 -0.113537684 0.103216074 -0.04128643 0.11697822 -0.07225125
-0.0481675 -0.044726968 0.034405358 -0.30276716 -0.1341809 0.07569179 0.020643216 0.12041876
0.13074036 0.0481675 0.079132326 0.09977554 0.013762143 -0.051608037 -0.044726968 0.092894465
0.15482411 0.02408375 0.07569179 0.044726968 -0.21331322 -0.11697822 -0.030964823 0.096335
0.11009715 -0.113537684 0.044726968 -0.044726968 0.28556448 0.13762143 0.21331322 0.15482411
0.15482411 -0.06537018 0.07225125 -0.10665661 0.06537018 0.16170518 0.3371725 0.1823484
-0.22707537 -0.16170518 0.051608037 -0.0860134 0.1720268 0.31996983 -0.061929647 -0.068810716
0.33029145 0.123859294 0.21331322 -0.04128643 0.0860134 0.21675377 0.044726968 0.13762143
0.04128643 0.22707537 0.037845895 0.08257286 0.22363482 0.1823484 -0.26492125 -0.07225125
-0.051608037 0.11009715 -0.010321608 0.027524287 -0.27180234 0.12729983 -0.027524287 0.1823484
0.2201943 0.24083751 -0.0034405359 -0.103216074 0.1341809 0.02408375 -0.31308877 0.22707537
-0.092894465 -0.020643216 0.017202679 -0.1341809 0.28212395 -0.096335 -0.017202679 -0.11697822
0.16514573 0.1341809 -0.034405358 -0.08257286 -0.037845895 0.1720268 0.1341809 -0.089453936
0.13762143 0.027524287 0.044726968 -0.02408375 -0.079132326 -0.08257286 0.30964822 0.14106198
-0.07225125 0.2786834 0.11697822 0.20643215 0.08257286 -0.113537684 -0.037845895 -0.31308877
-0.07225125 -0.15138358 0.123859294 -0.044726968 -0.10665661 -0.1445025 0.089453936 -0.02408375
-0.044726968 0.089453936 0.06537018 -0.14106198 -0.044726968 0.12729983 0.13762143 0.2098727
0.079132326 -0.09977554 0.113537684 -0.09977554 -0.051608037 0.15826465 0.17546733 -0.16170518
-0.08257286 -0.17546733 -0.11009715 -0.055048574 -0.123859294 0.17890787 -0.061929647 -0.17546733
-0.14106198 0.096335 0.27180234 0.0481675 -0.051608037 -0.15826465 0.092894465 0.19611055
0.11009715 -0.103216074 0.068810716 0.2580402 0.092894465 -0.037845895 -0.017202679 0.089453936
-0.0068810717 0.14106198 0.1720268 -0.2098727 0.11697822 0.2580402 0.2098727 0.07569179
-0.07569179 -0.0068810717 0.17546733 -0.0860134 0.010321608 0.079132326 0.092894465 0.2786834
0.29588607 0.23395644 0.29588607 0.15482411 0.19611055 0.044726968 0.103216074 0.19267
0.113537684 0.027524287 0.19267 0.1341809 0.26148072 0.123859294 -0.13074036 -0.07569179
00000000: 180d f4d8 10d6 1e35 2520 d2ce 4670 d04e
00000010: 1ef7 2301 28db 1cea f52f e213 f416 eff4
00000020: 4031 2910 f00c 672e 0822 de19 ee06 f3e4
00000030: 0cd5 f6ee d5ef 0b10 3b38 1ddf 1ef4 22eb
00000040: f2f3 0aa8 d916 0623 260e 171d 04f1 f31b
00000050: 2d07 160d c2de f71c 20df 0df3 5328 3e2d
00000060: 2ded 15e1 132f 6235 bed1 0fe7 325d eeec
00000070: 6024 3ef4 193f 0d28 0c42 0b18 4135 b3eb
00000080: f120 fd08 b125 f835 4046 ffe2 2707 a542
00000090: e5fa 05d9 52e4 fbde 3027 f6e8 f532 27e6
000000a0: 2808 0df9 e9e8 5a29 eb51 223c 18df f5a5
000000b0: ebd4 24f3 e1d6 1af9 f31a 13d7 f325 283d
000000c0: 17e3 21e3 f12e 33d1 e8cd e0f0 dc34 eecd
000000d0: d71c 4f0e f1d2 1b39 20e2 144b 1bf5 fb1a
000000e0: fe29 32c3 224b 3d16 eafe 33e7 0317 1b51
000000f0: 5644 562d 390d 1e38 2108 3827 4c24 daea
