app/src/main/assets/pose_09.tflite (tflite, 26984 bytes, 6 tensors)

model/dense_2/MatMul f4 [3, 64]
00000000: 8624 77be 48b9 c63e d413 843e 4dad d4be
00000010: 3399 d3be 4040 fc3d 270d 1bbd 07bc bc3e
00000020: 4ccd a03e 26e5 80bc a7aa f4bd 87b2 893e
00000030: 2197 98be f386 0e3e 44a8 bc3e 54d5 d93e
00000040: ad3d 81be 93d6 bcbe 673b 9cbe 9a8e 5b3e
00000050: 7973 9a3e ff56 bf3d 4215 343d a9f4 093d
00000060: bd52 0abe 5075 c0be 8b43 7bbe 460a dd3e
00000070: 9548 fb3e 946b d73d 30dd e4be 8eaa 563e
00000080: 2418 da3e 79a2 60be 7117 f7be e785 c03e
00000090: 0468 3abe 5d85 c2bd b89e b83d d6fa 013e
000000a0: 80a0 29be 5b89 efbe a0df eb3d 1485 debd
000000b0: 6749 553e d093 253e c6df 843d 1e9f ca3d
000000c0: 9c76 cc3e ef25 99be fbfa fd3e d54d ad3e
000000d0: 15ba 3abe e3b6 c2bd 02b1 f1be a96c 423c
000000e0: 2d92 383e 7e75 72bc 3581 a6be 2ac3 893e
000000f0: 54b1 da3e 724c 23bc 7518 85be ecd8 de3e
00000100: 02a1 b73e 675d af3e 6316 c9be 006c c3be
00000110: a98e a93e 8538 acbe 9a10 163e db4c 90be
00000120: dbcd 90be e87c b33e 515a f83e 9d2e d13e
00000130: dafa ce3e 53c2 03be c65a 46be e3c7 95be
00000140: b111 9a3e de89 303e 33d3 c63e 650b c63e
00000150: 576f bebe 6304 d8be cae5 163d 9d4c 6bbd
00000160: 92cf edbe 56a1 643d 2e5f 4a3e a128 1dbe
00000170: 1b32 9a3d 2b49 2f3e b082 433e ab91 863e
00000180: 15e1 83be 15f8 703e 7a94 87be c343 3b3e
00000190: 79b4 df3e 78d6 1bbe 7c4c e23d 71d0 08bf
000001a0: 7d42 6fbe ebcd d8bd 46b2 b4be 3f7f fb3e
000001b0: 07b8 a83e 427f 5b3e 54fd 563e 0f3a ebbe
000001c0: 00a2 b2bb ae85 6f3e 256d 0ebe f39c aebd
000001d0: 26b1 b13e 700d debe e92d 843b 64d4 dcbe
000001e0: 895b 3dbd 5e15 6d3e 093f afbd 4999 7abe
000001f0: e105 d6be a5ea aebd adc7 3fbe da96 333e
00000200: 5369 813e 32b3 01be 4910 233e 71aa 053c
00000210: 51aa 3d3e 23b2 803e 6389 d0be 448f b7be
00000220: 0c79 a1be 7aa6 58be 7adf 85be 0a76 abbd
00000230: 19f1 babe a2d2 9d3e f6e5 8bbe 0230 9abe
00000240: 55e9 c43e d776 de3d 9eb4 473e 46e6 c2be
00000250: 991b efbe 8098 823e 0e84 d1be d555 b5bd
00000260: e757 663e f772 96be 3641 95be 0aef 983e
00000270: 21e0 15bc 2001 61be 5414 ae3e 58ce cbbe
00000280: 173c debe 2b23 a03d 76a1 1e3e aaf6 c2bd
00000290: 10e1 06be 2827 883e e7af f4be d1bb f53d
000002a0: 3920 a43e cb1e b13e c469 f73d 9b7e 73be
000002b0: 6899 f5be e094 9bbe a41d f8be de34 3f3e
000002c0: b892 91be 3f35 be3e 07c6 e63d 8ab9 df3e
000002d0: ea0b 6f3e 3ff5 c83d b21e 95bd 7d52 c83d
000002e0: 02c0 df3c dc02 7fbe 7eff 663e f5b7 78be
000002f0: 5d66 373d 7367 debe 9bd0 a83e 62f0 adbd
-0.24135026 0.38813233 0.25796378 -0.41538468 -0.4132782 0.12316942 -0.03785434 0.36862203
0.3140663 -0.015734266 -0.11946612 0.26894018 -0.29802802 0.13918667 0.36847126 0.4254557
-0.25242367 -0.36882457 -0.3051407 0.21441117 0.30166224 0.09342765 0.043965586 0.03368059
-0.13508125 -0.37589502 -0.24537484 0.431719 0.49078813 0.10518566 -0.44700003 0.20963499
0.42596543 -0.21936978 -0.48260072 0.3760216 -0.18203741 -0.09498093 0.09014648 0.12693343
-0.16565132 -0.4678448 0.115172625 -0.108652264 0.20828782 0.16169667 0.06487994 0.098936304
0.39934242 -0.29911754 0.49605545 0.33848444 -0.18235047 -0.09507539 -0.4720536 0.011866727
0.18024512 -0.01479852 -0.32520452 0.2690671 0.42713416 -0.009966956 -0.25995222 0.43524873
0.35865027 0.34250948 -0.39274892 -0.38168335 0.33116654 -0.3363687 0.1465477 -0.28183636
-0.28282055 0.35056233 0.48506406 0.40855876 0.4042576 -0.12867098 -0.19370565 -0.29254064
0.30091622 0.17240092 0.38833007 0.38680568 -0.3719432 -0.42190847 0.036840238 -0.05744611
-0.46447426 0.055817924 0.1976287 -0.1534753 0.07529088 0.17117755 0.19092822 0.2628301
-0.2575766 0.23532136 -0.26480466 0.18287568 0.43692377 -0.15218532 0.110497445 -0.53443056
-0.23365207 -0.10586151 -0.35292262 0.4912052 0.32952902 0.21435264 0.20995075 -0.45942733
-0.005451441 0.23390839 -0.13908823 -0.085260294 0.34705466 -0.43369627 0.004033793 -0.4313079
-0.046229873 0.23152682 -0.08556945 -0.24472536 -0.4180136 -0.08540849 -0.18728514 0.17538014
0.25275669 -0.12666014 0.15924181 0.008158312 0.18522002 0.25135908 -0.40729818 -0.3585149
-0.31537664 -0.21157256 -0.26147062 -0.083721235 -0.36512068 0.30824763 -0.27323884 -0.30114752
0.38459268 0.10862511 0.19502494 -0.3806631 -0.46700743 0.25506973 -0.40921062 -0.08854262
0.2249447 -0.29384586 -0.29151314 0.29869872 -0.009147675 -0.21973085 0.33999884 -0.39805865
-0.4340522 0.07819208 0.1549128 -0.09519704 -0.13171792 0.26592374 -0.47790453 0.11998714
0.32055834 0.34593806 0.1208072 -0.23778765 -0.47968602 -0.3038702 -0.48460114 0.18672511
-0.2843225 0.3715 0.112682395 0.43696243 0.23344389 0.09812402 -0.07281245 0.097813584
0.027313236 -0.24903435 0.225584 -0.24288924 0.044775356 -0.434383 0.32971653 -0.08493115

model/dense/BiasAdd/ReadVariableOp f4 [128]
00000000: a633 16bc ef58 033c 0000 0000 0000 0000
00000010: 8687 16bc 55b3 b33d df31 4e3d 1cf3 9e3d
00000020: 51ae 2b3b 226a 843d 56fa 7dbc ce62 983b
00000030: 97fe e2bb 0000 0000 9fa5 8cbc 0000 0000
00000040: cfa0 e63c 0000 0000 0029 aebb 9fdb 293d
00000050: 0000 0000 7441 8b3c 301d 423d 0ad6 00bc
00000060: a481 0dbc e56e 9fbb 732e 063d f338 d53a
00000070: dc82 1ebc 6403 f43b 9a6f 9a3d 2d86 ee3c
00000080: 9373 af3d 0000 0000 046a a43c 0000 0000
00000090: ce31 e23c ed22 86bc 2b95 563d 97ff 6ebc
000000a0: 2958 c43c 34e4 64bb 304a b13c 0000 0000
000000b0: 8c9b c9bb e376 a83d 6234 abbb 733a b33b
000000c0: f88c b03d 9db6 35bc becc cdbc fc2e 423d
000000d0: 0000 0000 0000 0000 2c44 053d 0000 0000
000000e0: 0b97 393d 6a66 883d f98a 0dbc 4dcf cf3b
000000f0: e6e8 7b3c 7ef0 cabc 0000 0000 04fb 17bb
00000100: 7940 7fbc 0101 b33d b38c d73b a9a2 79bb
00000110: 8735 e93b 8148 3b3d 8901 063b 3329 bbbb
00000120: 0b41 8abc c9c8 e3bc 0000 0000 508f 193d
00000130: 3f31 683c cdd1 6a3d 0000 0000 a432 093d
00000140: e2c6 be3c 6ded 33bb d7a5 623d 0000 0000
00000150: 0000 0000 b75e a5bb 0000 0000 882b af3d
00000160: 2c13 afbb 26d0 913c 0000 0000 ce31 5cbc
00000170: 72cd 44bc b412 a33d f483 e13c 0000 0000
00000180: 9088 a7b6 5802 843c 4215 883d 35cb 693d
00000190: 0000 0000 8e1e 093c 7a0d 4a3d 1e31 96bc
000001a0: 0000 0000 ce4f f03c a60c 683d 0000 0000
000001b0: 0000 0000 e7ad 87bc d3b3 813d 0000 0000
000001c0: de56 59bb 5504 8fbc 0000 0000 7788 103d
000001d0: 0525 20bb a0b1 26bd 4ab7 823b 13a8 133d
000001e0: 0000 0000 e1ea fb3c 386d 493d 61c3 dc3b
000001f0: fa0f 243d 2df4 913d d89a bd3d 9c9e b53d
-0.009167587 0.008016809 0.0 0.0 -0.009187585 0.08774439 0.05034053 0.07761213
0.002619643 0.06465556 -0.015501579 0.0046504503 -0.006927322 0.0 -0.017168818 0.0
0.028152851 0.0 -0.005314946 0.041469213 0.0 0.016998984 0.047391117 -0.007863531
-0.008636866 -0.0048655146 0.03275914 0.0016267583 -0.009674754 0.0074466933 0.075408176 0.029116714
0.08566966 0.0 0.020070083 0.0 0.02761164 -0.016374076 0.05238835 -0.014587305
0.02396782 -0.0034926059 0.02164182 0.0 -0.006152576 0.08225801 -0.0052247504 0.005469614
0.08620638 -0.011090902 -0.025122043 0.04740809 0.0 0.0 0.032535717 0.0
0.04531006 0.06660159 -0.008639091 0.006341851 0.0153753515 -0.024772879 0.0 -0.0023190388
-0.015579336 0.08740426 0.006578052 -0.0038091338 0.0071169767 0.045723442 0.0020447692 -0.0057116984
-0.016876718 -0.027805703 0.0 0.03749019 0.014171897 0.057328988 0.0 0.03349556
0.023288194 -0.002745475 0.05533394 0.0 0.0 -0.0050466913 0.0 0.08553225
-0.0053428616 0.017799448 0.0 -0.013439609 -0.012011873 0.07962552 0.02752874 0.0
-4.992886e-06 0.016114399 0.066446796 0.05707856 0.0 0.008369101 0.04932926 -0.018333968
0.0 0.029334929 0.056652687 0.0 0.0 -0.016562415 0.06333127 0.0
-0.003316335 -0.01745812 0.0 0.035286393 -0.0024436128 -0.04069674 0.003989135 0.03604896
0.0 0.030751647 0.049176425 0.006737158 0.0400543 0.07126651 0.0925805 0.08868143

model/dense_2/BiasAdd/ReadVariableOp f4 [3]
00000000: 842b 173d 761b c0bc 50d1 91bc
0.036906734 -0.023450594 -0.017800003

model/dense_1/BiasAdd/ReadVariableOp f4 [64]
00000000: b623 323d bda6 ae3d 8fad 923d b6d4 983c
00000010: 7be6 b23c 6a25 b73d d8ad 533d 4543 c63d
00000020: 2f21 b83d 0179 503d 64ae 823d 8df0 9f3d
00000030: 63a9 b83c 33e8 903d be6e bd3d e014 573d
00000040: d2e8 e43c 8735 e73c bdac 963c 1c2f 863d
00000050: a2bc d33d dbed ab3d cafe 9d3d b51f 0cbd
00000060: 60a6 d63c e77a a33b 47b7 733d 83ed a33d
00000070: 5129 023e b4b2 a6bc a070 983c bc0e 723d
00000080: d6be 9f3d b995 8b3d 51f9 343d 2419 ba3d
00000090: 397f 033d d58a 633d fb68 a83d 7a50 d43d
000000a0: 9d80 a63c 1624 b63c 87f3 c83d 0f96 4a3d
000000b0: 81ba 803d 2079 8a3d 1e31 983d 377f 343d
000000c0: 90da 6a3d 4439 e03c 4657 523d 41ae 6d3d
000000d0: ac5d 363d cd57 703d 0130 003d 02bb b13d
000000e0: 1454 e8bc f074 a83d fa54 b63b f3af babb
000000f0: 2e10 af3d 7d3b c43d 9c25 483c e98f cf3d
0.043491088 0.085278966 0.0716201 0.018656116 0.021838417 0.08942683 0.051679462 0.096807994
0.08990704 0.05089665 0.063809186 0.07809553 0.022541707 0.070755385 0.09249638 0.052510142
0.027943049 0.028223766 0.018392915 0.06551954 0.10338713 0.08394977 0.07714613 -0.034209926
0.02620238 0.0049890163 0.05950096 0.08004286 0.12711073 -0.020348884 0.018608391 0.059096083
0.07800071 0.06815667 0.04418308 0.090868264 0.03210375 0.055552322 0.082231484 0.10366912
0.020325 0.022234004 0.09812074 0.049459513 0.06285573 0.06761384 0.07431243 0.044066634
0.057337344 0.027371056 0.05135276 0.05802751 0.044522926 0.058677483 0.03129578 0.08678247
-0.028360404 0.08225429 0.005564329 -0.0056972443 0.08548008 0.09581659 0.012215998 0.101348706

model/dense/MatMul i1 [128, 34] scale=0.003354367 zero_point=0
00000000: 69e3 0b11 45fa e7ca eb13 12e7 110e f60e
00000010: 191a 60c1 62de f2b4 e715 2042 402a 36cb
00000020: 1618 fc17 03cf ef00 0f2b d729 20d0 d214
00000030: dcd1 bee1 dcc1 d09b 40f1 01cc edcb c997
00000040: df06 cd15 262a 1f1e d612 240e e6fa 31eb
00000050: 0ed9 0412 16d5 d407 f937 fbfa cb1b ccd9
00000060: 1f1f 1830 e4cb 340b d7d1 092b 2cf9 1709
00000070: d127 e707 122d 08ef c909 f829 020d de24
00000080: c813 1bf7 05ee df07 0a17 011c c5f5 3536
00000090: 080a d4f2 c71c df0a d61b 37d1 2108 28de
000000a0: 3b05 24ff 09e8 0125 f414 06eb aeea b109
000000b0: f8c1 12ea d51e de21 ff2b da39 ae7b f568
000000c0: ede9 75fb cf47 c43a e242 ff09 070c d408
000000d0: dceb 0814 c0fc 5be6 1504 dfbe cafb e8b6
000000e0: abd1 653a f4d5 de08 d7e0 ecda 8cd8 c7d5
000000f0: f20a d1f7 dace 0b19 f405 e2c7 c722 f80d
0.35220855 -0.09727664 0.03689804 0.05702424 0.23145133 -0.020126203 -0.083859175 -0.18113582
-0.07044171 0.063732974 0.060378607 -0.083859175 0.05702424 0.04696114 -0.033543672 0.04696114
0.083859175 0.087213546 0.32201925 -0.21132512 0.328728 -0.11404848 -0.04696114 -0.2549319
-0.083859175 0.07044171 0.10733975 0.22138824 0.2146795 0.14088342 0.18113582 -0.17778146
0.07379608 0.08050481 -0.013417468 0.07715044 0.010063102 -0.164364 -0.05702424 0.0
0.050315507 0.14423779 -0.13752905 0.13752905 0.10733975 -0.16100962 -0.15430088 0.067087345
-0.120757215 -0.15765525 -0.22138824 -0.10398538 -0.120757215 -0.21132512 -0.16100962 -0.33879107
0.2146795 -0.050315507 0.003354367 -0.17442709 -0.063732974 -0.17778146 -0.18449019 -0.35220855
-0.11069412 0.020126203 -0.17107272 0.07044171 0.12746595 0.14088342 0.10398538 0.10063101
-0.14088342 0.060378607 0.120757215 0.04696114 -0.087213546 -0.020126203 0.164364 -0.07044171
0.04696114 -0.13082032 0.013417468 0.060378607 0.07379608 -0.14423779 -0.14759216 0.02348057
-0.02348057 0.18449019 -0.016771836 -0.020126203 -0.17778146 0.09056791 -0.17442709 -0.13082032
0.10398538 0.10398538 0.08050481 0.16100962 -0.09392228 -0.17778146 0.17442709 0.03689804
-0.13752905 -0.15765525 0.030189304 0.14423779 0.14759216 -0.02348057 0.07715044 0.030189304
-0.15765525 0.13082032 -0.083859175 0.02348057 0.060378607 0.15094651 0.026834937 -0.05702424
-0.18449019 0.030189304 -0.026834937 0.13752905 0.006708734 0.043606773 -0.11404848 0.120757215
-0.18784456 0.063732974 0.09056791 -0.030189304 0.016771836 -0.060378607 -0.11069412 0.02348057
0.033543672 0.07715044 0.003354367 0.09392228 -0.19790766 -0.03689804 0.17778146 0.18113582
0.026834937 0.033543672 -0.14759216 -0.04696114 -0.19119893 0.09392228 -0.11069412 0.033543672
-0.14088342 0.09056791 0.18449019 -0.15765525 0.11069412 0.026834937 0.13417469 -0.11404848
0.19790766 0.016771836 0.120757215 -0.003354367 0.030189304 -0.08050481 0.003354367 0.124111585
-0.040252406 0.067087345 0.020126203 -0.07044171 -0.2750581 -0.07379608 -0.264995 0.030189304
-0.026834937 -0.21132512 0.060378607 -0.07379608 -0.14423779 0.10063101 -0.11404848 0.11069412
-0.003354367 0.14423779 -0.12746595 0.19119893 -0.2750581 0.41258717 -0.03689804 0.34885418
-0.063732974 -0.07715044 0.39246094 -0.016771836 -0.164364 0.23816006 -0.20126203 0.19455329
-0.10063101 0.22138824 -0.003354367 0.030189304 0.02348057 0.040252406 -0.14759216 0.026834937
-0.120757215 -0.07044171 0.026834937 0.067087345 -0.2146795 -0.013417468 0.3052474 -0.087213546
0.07044171 0.013417468 -0.11069412 -0.22138824 -0.18113582 -0.016771836 -0.08050481 -0.24822317
-0.2851212 -0.15765525 0.33879107 0.19455329 -0.040252406 -0.14423779 -0.11404848 0.026834937
-0.13752905 -0.10733975 -0.067087345 -0.12746595 -0.38910657 -0.13417469 -0.19119893 -0.14423779
-0.04696114 0.033543672 -0.15765525 -0.030189304 -0.12746595 -0.16771835 0.03689804 0.083859175
-0.040252406 0.016771836 -0.10063101 -0.19119893 -0.19119893 0.11404848 -0.026834937 0.043606773

model/dense_1/MatMul i1 [64, 128] scale=0.0033856865 zero_point=0
00000000: 1c5e 0510 d4ab 48e3 e6f4 2621 5c28 f12b
00000010: 2831 2dec f235 2fd4 4aec f854 f9fe 02d8
00000020: f719 0f1f eddf c952 ce0d 23e5 2dc3 e51a
00000030: 1340 fa2b 0003 fe05 cccf 15f3 4356 d976
00000040: d4c8 2bf8 2722 333e 0947 fa41 ea21 1708
00000050: 5157 fa26 05dd ddc0 1fef 201b 2ace 1707
00000060: 044d ee08 004b 213f 1043 0124 d044 f9df
00000070: 0912 d905 3013 0ff8 1911 4656 332c fd06
00000080: e5ff f732 2c70 554b 3848 d9e0 c804 2e19
00000090: 0f05 2f18 dc18 3608 f6da 34d8 dae4 3426
000000a0: 43ee 1305 d4e5 efea f801 d60b c03e 04f2
000000b0: f9ca 0e23 1b2a 0fcc faf3 2411 5909 cc15
000000c0: 0537 1ad3 ebda 01f7 fe11 2e1c c05a 0f31
000000d0: 551c 1dea ec10 114d 2cda 17e3 13f3 61d0
000000e0: e6f2 2e32 0a01 2eb6 2a31 62f1 f9e2 f3cd
000000f0: 2cd2 fa02 3d0b 0003 0305 0c19 150a 182b
0.09479922 0.31825453 0.016928433 0.054170985 -0.1489702 -0.28778335 0.24376944 -0.09818491
-0.08802785 -0.04062824 0.12865609 0.111727655 0.31148317 0.13542746 -0.0507853 0.14558452
0.13542746 0.16589864 0.1523559 -0.06771373 -0.04739961 0.17944139 0.15912727 -0.1489702
0.2505408 -0.06771373 -0.027085492 0.28439766 -0.023699805 -0.006771373 0.006771373 -0.13542746
-0.03047118 0.084642164 0.0507853 0.104956284 -0.064328045 -0.111727655 -0.18621276 0.2776263
-0.16928433 0.044013925 0.118499026 -0.091413535 0.1523559 -0.20652688 -0.091413535 0.08802785
0.064328045 0.21668394 -0.02031412 0.14558452 0.0 0.01015706 -0.006771373 0.016928433
-0.1760557 -0.16589864 0.071099415 -0.044013925 0.226841 0.29116905 -0.13204178 0.399511
-0.1489702 -0.18959844 0.14558452 -0.027085492 0.13204178 0.11511334 0.17267 0.20991257
0.03047118 0.24038374 -0.02031412 0.22006963 -0.0744851 0.111727655 0.07787079 0.027085492
0.2742406 0.29455474 -0.02031412 0.12865609 0.016928433 -0.118499026 -0.118499026 -0.21668394
0.104956284 -0.05755667 0.10834197 0.091413535 0.14219883 -0.16928433 0.07787079 0.023699805
0.013542746 0.26069787 -0.06094236 0.027085492 0.0 0.2539265 0.111727655 0.21329825
0.054170985 0.226841 0.0033856865 0.12188472 -0.16251296 0.23022668 -0.023699805 -0.111727655
0.03047118 0.06094236 -0.13204178 0.016928433 0.16251296 0.064328045 0.0507853 -0.027085492
0.084642164 0.05755667 0.23699805 0.29116905 0.17267 0.1489702 -0.01015706 0.02031412
-0.091413535 -0.0033856865 -0.03047118 0.16928433 0.1489702 0.37919688 0.28778335 0.2539265
0.18959844 0.24376944 -0.13204178 -0.10834197 -0.18959844 0.013542746 0.15574159 0.084642164
0.0507853 0.016928433 0.15912727 0.08125648 -0.12188472 0.08125648 0.18282707 0.027085492
-0.033856865 -0.12865609 0.1760557 -0.13542746 -0.12865609 -0.09479922 0.1760557 0.12865609
0.226841 -0.06094236 0.064328045 0.016928433 -0.1489702 -0.091413535 -0.05755667 -0.0744851
-0.027085492 0.0033856865 -0.14219883 0.03724255 -0.21668394 0.20991257 0.013542746 -0.04739961
-0.023699805 -0.18282707 0.04739961 0.118499026 0.091413535 0.14219883 0.0507853 -0.1760557
-0.02031412 -0.044013925 0.12188472 0.05755667 0.3013261 0.03047118 -0.1760557 0.071099415
0.016928433 0.18621276 0.08802785 -0.1523559 -0.071099415 -0.12865609 0.0033856865 -0.03047118
-0.006771373 0.05755667 0.15574159 0.09479922 -0.21668394 0.3047118 0.0507853 0.16589864
0.28778335 0.09479922 0.09818491 -0.0744851 -0.06771373 0.054170985 0.05755667 0.26069787
0.1489702 -0.12865609 0.07787079 -0.09818491 0.064328045 -0.044013925 0.3284116 -0.16251296
-0.08802785 -0.04739961 0.15574159 0.16928433 0.033856865 0.0033856865 0.15574159 -0.2505408
0.14219883 0.16589864 0.33179727 -0.0507853 -0.023699805 -0.1015706 -0.044013925 -0.17267
0.1489702 -0.15574159 -0.02031412 0.006771373 0.20652688 0.03724255 0.0 0.01015706
0.01015706 0.016928433 0.04062824 0.084642164 0.071099415 0.033856865 0.08125648 0.14558452
