app/src/main/assets/pose_01.tflite (tflite, 26984 bytes, 6 tensors)

model/dense_2/MatMul f4 [3, 64]
000000 57 7f 44 3e 5f a5 c7 be 47 77 a1 3e 02 d7 bb be
       0.19189201 -0.38993356 0.31536314 -0.36687475
000010 03 2a b2 bd dc 16 25 3e 83 04 bf be c3 97 36 be
       -0.08699419 0.16122001 -0.3730813 -0.1783133
000020 2d dd 7b 3e db ff b4 3d a0 3d 66 3d ab b3 cd bd
       0.2459609 0.08837863 0.056211114 -0.100440346
000030 d2 f0 9a 3e 21 05 b1 3e 61 07 cf 3d 63 c6 e8 be
       0.30261856 0.34574226 0.10108829 -0.45463857
000040 04 00 7e 3e 49 64 dd bb 4e 45 db be 5b e9 6c be
       0.24804693 -0.0067563397 -0.42826313 -0.23135893
000050 08 e4 e4 3e 06 d7 70 3e c7 da d1 be f4 7c 8c be
       0.44705224 0.23519525 -0.40987226 -0.27439082
000060 4e 7f 09 bc 4d ba 83 3d 37 d8 d3 bd df 30 9e 3d
       -0.008392168 0.064320184 -0.10343974 0.07724165
000070 33 84 83 be 12 02 4b be 25 d3 76 3e da 8d 9c 3e
       -0.25686797 -0.19825009 0.24103983 0.30576974
000080 3c 8d c9 be 20 f0 c0 be f2 75 8c bd 32 7a 8e be
       -0.39365566 -0.376832 -0.06858434 -0.27827603
000090 83 63 07 3e de 0e 96 3e d6 de 9a 3e 47 68 d8 bd
       0.13221554 0.29308218 0.30248135 -0.10566764
0000a0 cb 67 4b be 35 63 7f bd 98 09 35 bd c1 e3 bb 3d
       -0.19863813 -0.06235047 -0.044198602 0.091743
0000b0 39 f3 55 3e 8b 72 ac 3e 95 59 9f be 19 50 d9 3d
       0.20893563 0.3368114 -0.31123033 0.106109805
0000c0 8d bf b3 be 3f 55 d5 3e f2 80 b8 be f4 af cd be
       -0.3510708 0.416666 -0.36035877 -0.40173304
0000d0 24 a6 2f 3d 0c f4 9e be 26 26 43 3e 8c 68 ce 3d
       0.042883053 -0.31045568 0.19057521 0.100785345
0000e0 15 9d 96 be b3 1f d4 be e2 92 62 be d8 f2 7b 3d
       -0.2941672 -0.41430435 -0.22126344 0.06151089
0000f0 fe 5b 9b be 89 4c 37 3d 63 08 8d 3e 2e 47 a4 3e
       -0.30343622 0.044750724 0.2754546 0.32085556
000100 d6 9f 68 be f7 50 42 be dc 14 c8 be b5 23 b3 3e
       -0.22717223 -0.18976198 -0.39078414 0.3498818
000110 55 76 d1 3e 59 0d dc be 79 a3 e2 3e 8c c6 e3 be
       0.40910593 -0.42978933 0.44265345 -0.44487417
000120 2a b0 de be d7 a8 39 3d cc 0b 83 bd c0 ba 9a 3e
       -0.43493778 0.045327034 -0.063987345 0.30220604
000130 03 8f 91 be 27 0b ea 3d 22 cc e8 be fb d0 e1 bd
       -0.28429422 0.114279084 -0.4546824 -0.11026188
000140 d5 51 77 be 12 c1 18 3e e5 08 bf be 59 ba a2 3e
       -0.2415231 0.149174 -0.37311473 0.31782797
000150 00 ac b3 be 39 70 36 be 1d 83 e0 be 07 1d cb 3e
       -0.35092163 -0.17816247 -0.43850031 0.39670584
000160 b5 84 ed be 8b 62 0b be 23 87 75 3e e1 d6 9d be
       -0.4639031 -0.1361181 0.23977332 -0.30828002
000170 05 84 c9 be a0 e8 37 be 92 ef bf bd 84 cb 73 be
       -0.39358535 -0.17959833 -0.09371866 -0.23808104
000180 63 cf ff 3d 62 2e b5 3e 96 84 ef 3e 47 26 8b be
       0.12490728 0.3538695 0.46780843 -0.2717764
000190 94 08 c5 be 64 f9 bf bc bc 71 7a bd c2 2b bb be
       -0.38483107 -0.023434348 -0.06114362 -0.36556822
0001a0 0a 5c b9 be 97 18 e6 be 41 0c 70 3d 99 66 ce bc
       -0.36203033 -0.44940636 0.058605436 -0.025195407
0001b0 c3 9b 09 be 3d 1d dd be 65 bb 13 3e 0d b0 6a be
       -0.13438325 -0.4318637 0.14426954 -0.2291872
0001c0 ac 7a bd 3e ea f6 d6 bd 5f b9 23 3e 48 9c c4 3e
       0.37007654 -0.10496314 0.15988682 0.38400483
0001d0 7d a7 d4 be 9c 04 aa 3e 0e 04 44 be 79 20 d7 be
       -0.41534033 0.33206642 -0.19142172 -0.42016962
0001e0 78 62 3f be 2b bf 95 3e 86 7f c0 3e 0a d0 d6 be
       -0.18689907 0.29247412 0.37597293 -0.41955596
0001f0 df 1e 23 3e f8 49 27 be be 9a a0 3e c6 b5 49 3e
       0.15929745 -0.1633681 0.3136806 0.19698247
000200 d1 f1 87 bd d3 85 67 3e ba ac 8e 3e ff 1b c0 be
       -0.0663792 0.22609644 0.27866155 -0.3752136
000210 bf 9d c8 bd 36 cd d7 3d b1 2b 75 be 2c 83 e7 3e
       -0.09795713 0.10537188 -0.23942448 0.45217264
000220 54 b0 2e 3e 6c 1e c3 be 43 e7 0b bf 21 d9 4a be
       0.17059451 -0.38109148 -0.5464975 -0.1980939
000230 0a c1 ed bc 1d 51 0b be 01 4d 44 be 33 bf b7 3e
       -0.029022712 -0.13605161 -0.1917 0.3588806
000240 db e7 a0 be 2f ad 10 bf 16 5e e7 3e e5 d5 c8 3e
       -0.31426892 -0.5651426 0.4518897 0.3922569
000250 51 db 99 be a5 4d 8b be 28 b4 49 3e e0 87 0c be
       -0.30050138 -0.27207676 0.1969763 -0.13723707
000260 41 fd 8c 3e d3 1c bd bd 2b 70 b1 3d 0d 7e 81 3e
       0.27536967 -0.092340134 0.086639725 0.25291482
000270 b3 e4 a9 3e 8a f1 54 3e 26 0c 85 3e 39 cd ed 3d
       0.33182296 0.20795265 0.2598583 0.11611409
000280 72 06 f4 3d 5c 1b af be 78 29 cf bd bd 60 66 3e
       0.11915292 -0.3420056 -0.101153314 0.2249784
000290 de 4e af be 86 8c 8c be 7e 63 dd bd 5c 97 be 3e
       -0.34239858 -0.2745096 -0.10809992 0.37224853
0002a0 22 d7 66 3e ef 08 24 be 09 a7 09 bf 74 7a 01 bf
       0.22543004 -0.16019033 -0.537705 -0.50577474
0002b0 cf a3 63 3e a1 b8 ad be 97 81 7c be a4 41 76 3e
       0.22230457 -0.33929923 -0.2465881 0.24048477
0002c0 09 55 af 3e b4 5e e1 be e4 61 83 3e ca 4e e3 bc
       0.34244564 -0.44017565 0.25660622 -0.02774753
0002d0 76 50 ab be c0 7f 86 be ae 08 03 be 37 ec b3 3e
       -0.33459824 -0.2626934 -0.1279628 0.35141155
0002e0 ff a8 b5 3e 91 d5 35 be b2 54 9c be 40 29 f8 be
       0.35480496 -0.1775725 -0.30533367 -0.4846897
0002f0 2f 09 98 3e 25 4d 7b be 96 32 fa be 5f 06 c8 be
       0.29694507 -0.24541147 -0.4886672 -0.3906736

model/dense/BiasAdd/ReadVariableOp f4 [128]
000000 51 f0 58 3d 13 8a 44 3d 98 4e dc bb 41 59 f7 3c
       0.05296356 0.04798324 -0.0067232363 0.030193927
000010 c9 dc 42 bc 48 26 a6 3d 08 f0 ce 3d 3c 0a 17 3d
       -0.01189346 0.0811277 0.10104376 0.036874995
000020 2d ef 6c 3d 4e 2d d3 bb 0d 8b be 3b 8a 9b c9 bb
       0.057845283 -0.0064446097 0.005814916 -0.006152575
000030 04 d3 df bc e6 86 3f 3b 41 35 12 3d fb 7e 09 3d
       -0.0273223 0.0029224693 0.035695318 0.033568364
000040 c1 77 51 3b b6 cc ba 3d 78 16 c5 bc a0 9d 09 3d
       0.0031962248 0.09121077 -0.024058565 0.03359759
000050 50 87 1a 3c 82 bf 50 bb 8d 0c 50 3d 83 7d 38 bc
       0.009431675 -0.0031852429 0.05079322 -0.011260393
000060 7e 12 e3 bc 01 50 45 3b 5a 59 5a 3b 0d 43 47 3d
       -0.027718779 0.00301075 0.0033317418 0.04864793
000070 27 0a 8c 3d a9 11 3e 3d 2a 46 41 3d 9e 2d 3d 3d
       0.06837874 0.04640356 0.047186054 0.046186082
000080 b4 4c f7 3c 3f b9 5d 3d d1 46 d2 3a f0 a0 2e 3d
       0.030187942 0.054131743 0.0016042833 0.04263395
000090 0e 5b 1a 3d 72 45 8f 3c 69 75 e6 bc c5 ed 35 3d
       0.037684493 0.017489169 -0.028132157 0.044416208
0000a0 e6 56 aa 3d 65 76 0c 3d fb a2 b2 3c 8c d1 a0 3b
       0.08317356 0.034292597 0.02180623 0.0049077924
0000b0 ba f7 2b 3d be 67 07 3d d6 b9 02 3c 93 b1 2e 3b
       0.041984297 0.03305792 0.007978877 0.0026656135
0000c0 42 89 b2 3c 4a 6b 68 3d b1 2d 16 3d 83 c5 76 3c
       0.021793965 0.056742944 0.03666467 0.015061739
0000d0 a5 d1 47 3b ba c1 c6 bc ae 14 4b 3d 55 1f 48 3d
       0.0030489948 -0.024262298 0.04958027 0.048858006
0000e0 63 46 ff bb 80 b2 20 3c 2f 83 bf bb d3 b8 0b bd
       -0.007790373 0.009808183 -0.0058444957 -0.03411181
0000f0 dc a5 b2 ba be 30 d6 3c cb b0 44 bc 55 b4 f9 3a
       -0.0013629752 0.026146289 -0.012005041 0.0019050936
000100 5c 26 5d 3d 66 9c 56 3d 02 b1 4d 3d 7f 7a 95 3d
       0.05399166 0.052395247 0.050217636 0.07298755
000110 af 80 90 3d fa 89 fc 3c 07 64 4b 3c d9 d8 b0 3c
       0.070557944 0.030827511 0.012413985 0.021587776
000120 43 d1 3a bc a0 1d 87 3d b0 17 41 3d 0f 16 64 3d
       -0.011402431 0.065974474 0.04714173 0.0556851
000130 69 78 1c bd 0a 03 34 3d e7 06 44 3d 21 fb 37 3d
       -0.03820077 0.04394821 0.047858145 0.04491723
000140 cd 6d 06 bd 6f 00 8b 3d 65 2a 43 3d e7 c9 8c 3d
       -0.032819558 0.06787192 0.047647852 0.06874447
000150 5a 2a ed 3c 10 b3 4e 3d 3d 3d 3e 3d e8 fd 82 3d
       0.028950859 0.050463736 0.04644512 0.06396085
000160 e8 28 e3 3c b2 09 79 3c be 22 73 3d 07 c5 83 3c
       0.027729467 0.015200065 0.059359305 0.01608516
000170 bb ba 95 3c a4 32 31 3b 88 9e 88 3d f6 99 b6 3c
       0.018277517 0.002703824 0.066708624 0.022290211
000180 48 b8 a0 bc bf 2d 78 3c 22 3a 90 3b 48 53 8b bc
       -0.019619122 0.0151476255 0.004401461 -0.017007485
000190 36 cf 04 3b 68 d9 8e 3d 0a 37 ca bc 52 4f 3b 3d
       0.002026511 0.06975061 -0.024684448 0.045729943
0001a0 11 c7 95 3d 7e 41 46 3c e5 bd 13 bd 23 ef a6 3d
       0.073133595 0.0121005755 -0.03606977 0.081510805
0001b0 27 a7 b8 bc f5 a9 66 bc 90 84 e1 3c 94 01 de bc
       -0.022540642 -0.014078607 0.027529031 -0.027100362
0001c0 07 27 26 3d ab 20 1b 3c bb a9 83 bd 2d cb 5d 3d
       0.040564563 0.009468238 -0.06428858 0.05414884
0001d0 f7 a3 a7 bc 46 90 98 3c b5 6e be 3b c1 7d 44 3d
       -0.020463927 0.018623482 0.005811537 0.04797149
0001e0 9c b6 3d 3d 6a 30 a9 3c e0 45 e1 3b 9d ad 9b bc
       0.046316728 0.020652968 0.006874785 -0.019003684
0001f0 e4 2e 03 3d e7 2e ca 39 6f bd 20 3d 0b dc c2 3c
       0.03202714 0.00038563387 0.039243158 0.023786565

model/dense_2/BiasAdd/ReadVariableOp f4 [3]
000000 e8 dd 24 3d 9f 19 4c bd 17 e7 22 3a
       0.04025069 -0.04982912 0.00062142446

model/dense_1/BiasAdd/ReadVariableOp f4 [64]
000000 22 b4 8c 3d 5c 17 ce 3c 7c 3e 7a 3d 61 1f 3b 3d
       0.06870295 0.025157623 0.061094746 0.045684222
000010 d2 36 e0 3c 2a 31 d1 3d 80 f2 01 3c 79 9e 86 3d
       0.02736989 0.102144554 0.007931352 0.06573195
000020 a6 d7 a3 3d 05 e0 aa 3d ef a6 6b 3d 95 92 10 3c
       0.08000116 0.083435096 0.057532247 0.00882401
000030 c1 62 22 3d f7 35 0e 3d c9 2c 37 3d 88 00 07 3d
       0.03964496 0.034719434 0.044720445 0.03295949
000040 b6 46 08 3d bc 58 b5 3d 19 50 76 3d a4 b4 09 3d
       0.03327056 0.08854815 0.06013498 0.033619538
000050 b5 5d 3a 3d a5 f5 da 3c 8c 99 34 3d d7 bc 41 bc
       0.045499522 0.02672846 0.044091746 -0.011824808
000060 d1 7a e8 3d 2f 9a 09 bd 90 91 e3 3c c6 6a f9 3d
       0.1135155 -0.033594307 0.02777937 0.121785685
000070 ba 11 52 3d eb d5 70 3d 15 02 fd 3d 46 75 7f 3d
       0.051286437 0.058797758 0.12353913 0.0623677
000080 aa c7 4b 3c 1c e7 e0 3c 88 b9 5f 3d 62 04 2e 3d
       0.01243774 0.027453952 0.054620296 0.04248465
000090 57 8b 50 3d 8b a1 2b 3d 59 1d 25 3d 7d f2 9e 3d
       0.050914135 0.041902106 0.04031119 0.07761095
0000a0 d2 47 85 3d 84 d0 a7 3d de 44 ca 3d bb 98 71 3d
       0.06507839 0.08194068 0.098764166 0.058983546
0000b0 8d ca fb 3d 0d 83 b0 3c 92 4a 33 bb 31 44 ab 3d
       0.12294493 0.021546865 -0.002735768 0.08362616
0000c0 5e a1 6e 3d 66 fa 1c 3d 80 5d 26 3d de 6a 77 3c
       0.05825936 0.038324736 0.040616512 0.015101163
0000d0 8b 64 49 3d 41 06 8c bc f2 5d 29 3d b5 36 b3 3d
       0.04916815 -0.017092826 0.04134936 0.08750669
0000e0 ec 72 36 3d b6 c8 b3 3c 4d a2 9d 3c 88 4c b6 3d
       0.04454319 0.021946292 0.01924243 0.08901316
0000f0 34 b1 14 3d 3a 11 8e bc 33 62 45 3d ec 7a 58 3c
       0.036301807 -0.017342199 0.048189353 0.013212901

model/dense/MatMul i1 [128, 34] scale=0.0035102942 zero_point=0
000000 04 f2 37 11 15 fa 1f f0 f2 e9 0c 14 0b f8 fe f9
       0.014041177 -0.04914412 0.19306618 0.059675 0.07371618 -0.021061765 0.10881912 -0.056164708 -0.04914412 -0.08073677 0.04212353 0.07020588 0.038613237 -0.028082354 -0.0070205885 -0.02457206
000010 5a e2 d3 19 3d 17 fd e9 fe da f3 1b 18 4e 0b 0f
       0.3159265 -0.10530883 -0.15796325 0.08775736 0.21412794 0.08073677 -0.0105308825 -0.08073677 -0.0070205885 -0.13339119 -0.045633826 0.09477794 0.08424706 0.27380297 0.038613237 0.052654415
000020 cc 53 0b d6 1f 1f 18 ef f9 0f f9 d3 17 d1 05 df
       -0.1825353 0.29135442 0.038613237 -0.14743236 0.10881912 0.10881912 0.08424706 -0.059675 -0.02457206 0.052654415 -0.02457206 -0.15796325 0.08073677 -0.16498382 0.01755147 -0.11583971
000030 0a 35 32 db 02 fa 4b 16 ea 2f 47 09 f6 22 0f 0b
       0.03510294 0.1860456 0.17551471 -0.12988089 0.0070205885 -0.021061765 0.26327208 0.077226475 -0.077226475 0.16498382 0.24923089 0.03159265 -0.03510294 0.11935 0.052654415 0.038613237
000040 f9 2a d6 44 11 f2 e9 22 f6 39 d2 f6 16 13 d4 ef
       -0.02457206 0.14743236 -0.14743236 0.2387 0.059675 -0.04914412 -0.08073677 0.11935 -0.03510294 0.20008677 -0.16147354 -0.03510294 0.077226475 0.06669559 -0.15445295 -0.059675
000050 fe 26 b7 37 c1 1a f4 24 b9 b3 25 00 19 e1 09 c8
       -0.0070205885 0.13339119 -0.25625148 0.19306618 -0.22114854 0.09126765 -0.04212353 0.1263706 -0.24923089 -0.27029267 0.12988089 0.0 0.08775736 -0.10881912 0.03159265 -0.19657648
000060 04 01 08 b5 32 f9 08 37 15 0e 47 21 fe cf f0 1c
       0.014041177 0.0035102942 0.028082354 -0.26327208 0.17551471 -0.02457206 0.028082354 0.19306618 0.07371618 0.04914412 0.24923089 0.11583971 -0.0070205885 -0.17200442 -0.056164708 0.09828824
000070 eb d3 43 cb e9 2f 08 1a 02 1d 40 31 a0 ec 1e ff
       -0.07371618 -0.15796325 0.23518972 -0.1860456 -0.08073677 0.16498382 0.028082354 0.09126765 0.0070205885 0.101798534 0.22465883 0.17200442 -0.33698824 -0.07020588 0.10530883 -0.0035102942
000080 3b 25 31 48 0c 1d fe 43 04 c3 f1 dd dd ce 24 ed
       0.20710737 0.12988089 0.17200442 0.2527412 0.04212353 0.101798534 -0.0070205885 0.23518972 0.014041177 -0.21412794 -0.052654415 -0.1228603 -0.1228603 -0.17551471 0.1263706 -0.06669559
000090 fe 28 f9 d3 b8 1b 16 d9 a6 27 54 ce f5 dd 14 ee
       -0.0070205885 0.14041176 -0.02457206 -0.15796325 -0.2527412 0.09477794 0.077226475 -0.13690148 -0.3159265 0.13690148 0.2948647 -0.17551471 -0.038613237 -0.1228603 0.07020588 -0.0631853
0000a0 dd 2e 03 c9 97 ab a7 07 fd f7 fd ea eb d7 e4 c6
       -0.1228603 0.16147354 0.0105308825 -0.19306618 -0.3685809 -0.298375 -0.3124162 0.02457206 -0.0105308825 -0.03159265 -0.0105308825 -0.077226475 -0.07371618 -0.14392206 -0.09828824 -0.20359707
0000b0 e5 d7 14 04 02 df 37 cd 44 0d fe 1a 33 51 20 31
       -0.09477794 -0.14392206 0.07020588 0.014041177 0.0070205885 -0.11583971 0.19306618 -0.17902501 0.2387 0.045633826 -0.0070205885 0.09126765 0.17902501 0.28433383 0.112329416 0.17200442
0000c0 f0 c5 c5 20 0d 28 d9 09 bb 4d cc 08 2b eb 03 ed
       -0.056164708 -0.20710737 -0.20710737 0.112329416 0.045633826 0.14041176 -0.13690148 0.03159265 -0.2422103 0.27029267 -0.1825353 0.028082354 0.15094265 -0.07371618 0.0105308825 -0.06669559
0000d0 f5 d3 29 06 31 d9 e5 c0 ee b2 43 07 47 f1 3f 45
       -0.038613237 -0.15796325 0.14392206 0.021061765 0.17200442 -0.13690148 -0.09477794 -0.22465883 -0.0631853 -0.27380297 0.23518972 0.02457206 0.24923089 -0.052654415 0.22114854 0.2422103
0000e0 f6 17 d9 dd 21 d1 ed 1e e3 40 ca 13 fd 36 3c 00
       -0.03510294 0.08073677 -0.13690148 -0.1228603 0.11583971 -0.16498382 -0.06669559 0.10530883 -0.101798534 0.22465883 -0.18955588 0.06669559 -0.0105308825 0.18955588 0.21061766 0.0
0000f0 31 13 f4 31 e4 02 17 f2 21 e2 02 0d b5 15 21 00
       0.17200442 0.06669559 -0.04212353 0.17200442 -0.09828824 0.0070205885 0.08073677 -0.04914412 0.11583971 -0.10530883 0.0070205885 0.045633826 -0.26327208 0.07371618 0.11583971 0.0

model/dense_1/MatMul i1 [64, 128] scale=0.003456049 zero_point=0
000000 2f 3d b9 49 e2 ea 38 2d 03 fb 35 eb b3 fe 12 e4
       0.1624343 0.21081898 -0.24537948 0.25229156 -0.10368147 -0.07603308 0.19353874 0.1555222 0.010368147 -0.017280245 0.18317059 -0.07257703 -0.26611575 -0.006912098 0.06220888 -0.09676937
000010 d1 2f e2 67 f2 fc 33 da 1b ed db f0 f4 7f 03 3e
       -0.1624343 0.1624343 -0.10368147 0.35597304 -0.048384685 -0.013824196 0.17625849 -0.13132986 0.09331332 -0.06566493 -0.12787381 -0.055296782 -0.041472588 0.4389182 0.010368147 0.21427503
000020 1e 77 f3 5a 40 06 fc 47 e4 28 e3 e5 ed 6b 93 dc
       0.10368147 0.4112698 -0.044928636 0.3110444 0.22118713 0.020736294 -0.013824196 0.24537948 -0.09676937 0.13824196 -0.10022542 -0.09331332 -0.06566493 0.36979723 -0.37670934 -0.12441776
000030 13 29 1e 54 9b 1f 22 4b f8 d8 f6 24 c8 1f c6 c6
       0.06566493 0.141698 0.10368147 0.29030812 -0.34906095 0.107137516 0.11750566 0.25920367 -0.027648391 -0.13824196 -0.03456049 0.12441776 -0.19353874 0.107137516 -0.20045084 -0.20045084
000040 fb 6e dc 15 24 2d ec ee a8 1c 19 62 b6 27 eb f2
       -0.017280245 0.38016537 -0.12441776 0.07257703 0.12441776 0.1555222 -0.06912098 -0.06220888 -0.3041323 0.09676937 0.086401224 0.33869278 -0.25574762 0.1347859 -0.07257703 -0.048384685
000050 04 06 62 5f 08 34 01 64 f9 01 ed fe f6 22 3a 32
       0.013824196 0.020736294 0.33869278 0.32832465 0.027648391 0.17971455 0.003456049 0.3456049 -0.024192343 0.003456049 -0.06566493 -0.006912098 -0.03456049 0.11750566 0.20045084 0.17280245
000060 1b 26 b4 39 9c 13 01 50 2e f3 a7 39 d4 11 2f c0
       0.09331332 0.13132986 -0.26265973 0.19699478 -0.3456049 0.06566493 0.003456049 0.27648392 0.15897825 -0.044928636 -0.30758834 0.19699478 -0.15206616 0.05875283 0.1624343 -0.22118713
000070 08 e9 c4 d8 d9 fc db 19 38 f1 d2 d0 e3 06 1e 4f
       0.027648391 -0.07948913 -0.20736293 -0.13824196 -0.1347859 -0.013824196 -0.12787381 0.086401224 0.19353874 -0.051840734 -0.15897825 -0.16589035 -0.10022542 0.020736294 0.10368147 0.27302787
000080 d9 36 eb ec 4d 32 11 e5 07 24 ce ef e9 36 dc 34
       -0.1347859 0.18662664 -0.07257703 -0.06912098 0.26611575 0.17280245 0.05875283 -0.09331332 0.024192343 0.12441776 -0.17280245 -0.05875283 -0.07948913 0.18662664 -0.12441776 0.17971455
000090 f8 00 15 16 14 4c d2 f6 00 b3 68 39 eb e5 f9 eb
       -0.027648391 0.0 0.07257703 0.07603308 0.06912098 0.26265973 -0.15897825 -0.03456049 0.0 -0.26611575 0.3594291 0.19699478 -0.07257703 -0.09331332 -0.024192343 -0.07257703
0000a0 26 ad fa eb 29 03 25 a4 27 c6 d3 ed 17 d2 4d 49
       0.13132986 -0.28685206 -0.020736294 -0.07257703 0.141698 0.010368147 0.12787381 -0.3179565 0.1347859 -0.20045084 -0.1555222 -0.06566493 0.07948913 -0.15897825 0.26611575 0.25229156
0000b0 12 cb b3 e9 46 f8 cf 12 31 49 09 17 59 3c 42 c1
       0.06220888 -0.18317059 -0.26611575 -0.07948913 0.24192342 -0.027648391 -0.16934639 0.06220888 0.16934639 0.25229156 0.03110444 0.07948913 0.30758834 0.20736293 0.22809923 -0.21773107
0000c0 07 ac 4f ef af ca 02 0b 29 f3 cc dc ea 2e c5 01
       0.024192343 -0.29030812 0.27302787 -0.05875283 -0.27993995 -0.18662664 0.006912098 0.03801654 0.141698 -0.044928636 -0.17971455 -0.12441776 -0.07603308 0.15897825 -0.20390688 0.003456049
0000d0 ef ca 0b d4 b8 b6 de bd 02 fa 36 d7 0b e6 e4 e3
       -0.05875283 -0.18662664 0.03801654 -0.15206616 -0.24883552 -0.25574762 -0.11750566 -0.23155528 0.006912098 -0.020736294 0.18662664 -0.141698 0.03801654 -0.08985727 -0.09676937 -0.10022542
0000e0 30 c9 47 16 31 18 50 e7 dc de 23 bb 1e e8 fe 29
       0.16589035 -0.19008268 0.24537948 0.07603308 0.16934639 0.082945175 0.27648392 -0.086401224 -0.12441776 -0.11750566 0.12096171 -0.23846738 0.10368147 -0.082945175 -0.006912098 0.141698
0000f0 b4 1a de 14 d0 37 04 de bc b3 50 17 d2 d5 49 23
       -0.26265973 0.08985727 -0.11750566 0.06912098 -0.16589035 0.19008268 0.013824196 -0.11750566 -0.23501132 -0.26611575 0.27648392 0.07948913 -0.15897825 -0.1486101 0.25229156 0.12096171
