app/src/main/assets/pose_07.tflite (tflite, 26984 bytes, 6 tensors)

model/dense_2/MatMul f4 [3, 64]
-0.0885555 0.4010708 -0.43034405 -0.07823181 0.2224182 0.28206483 0.2708616 -0.29069617
0.20196207 0.21576926 -0.09566564 0.27601033 -0.14048271 -0.28350067 0.0047419993 -0.07988922
-0.39072686 0.28043944 -0.2455556 -0.17156786 -0.060548656 0.2792542 -0.24768 -0.47716737
-0.13991643 -0.31084108 -0.25895336 0.017010057 0.29210743 0.3630619 -0.2974295 -0.15274543
-0.4494091 0.2892077 0.07599721 -0.30788645 -0.06793933 0.20513253 0.29695436 0.21320026
-0.05320567 0.25407112 0.27173677 0.24692175 0.045712892 -0.2753468 -0.36536023 -0.044707555
-0.38687015 0.12914291 0.19814731 0.2884038 0.09433875 -0.38850474 0.12891254 0.055054475
0.121433005 0.30993575 -0.17443018 0.35238525 -0.29981714 0.32534796 -0.33634967 -0.015612263
-0.3811968 0.20132816 0.007103195 0.20682068 -0.31854677 -0.23992799 -0.15877776 0.27025315
-0.4301945 0.22507799 -0.22860256 -0.35306752 -0.22421281 0.4218768 -0.057298373 0.36585125
-0.071060754 -0.16330725 0.41248095 0.23498543 -0.401708 0.12330526 0.104705185 0.1881063
-0.08195476 0.35776776 -0.09298023 0.41707167 0.33674145 -0.10162523 -0.28742784 -0.19746263
0.1490673 -0.28035343 -0.049187645 -0.025645941 -0.09170305 0.22880037 -0.4117235 -0.25696567
0.38327137 0.1106248 -0.43867174 0.036703307 -0.42579526 0.22258605 0.37384462 -0.44488302
-0.002797637 -0.483227 -0.24812786 0.060402527 0.2573805 0.06276266 -0.16942233 -0.2393944
0.13883029 -0.020814052 0.29803327 0.30981785 -0.1968421 -0.24021603 0.346178 0.01820462
-0.023496542 -0.209991 0.14522845 -0.41926908 -0.24074179 -0.32290605 0.26813194 -0.39791453
-0.2835279 -0.10866036 0.06444094 0.1617238 0.37800613 0.14478678 0.36895448 0.21468227
-0.47200748 -0.32377288 -0.28039727 -0.32129085 -0.3624104 -0.29808074 0.26064542 0.278214
0.38463718 -0.4046639 0.2275588 -0.36582902 -0.06470187 -0.35537535 0.20110972 0.17675668
0.10792234 0.29917324 0.27305877 0.19727966 -0.42123106 -0.38003206 0.19603233 0.18776903
-0.08956247 -0.3002616 -0.3397181 -0.43246606 0.1541189 -0.36973947 -0.2800203 0.1523381
0.31214517 0.2344711 0.20908403 -0.25590453 -0.31608745 0.34795842 0.22675465 -0.22098933
-0.3310823 -0.36000636 0.118124776 -0.19783178 0.20590913 0.35202 -0.071954876 -0.3936446
00000000: 965c b5bd 2759 cd3e 0e56 dcbe 0038 a0bd
00000010: 99c1 633e cd6a 903e 5fae 8a3e 21d6 94be
00000020: 25cf 4e3e 9ef2 5c3e 59ec c3bd 3a51 8d3e
00000030: b3da 0fbe 0027 91be c662 9b3b f69c a3bd
00000040: 5a0d c8be c295 8f3e ed72 7bbe 7caf 2fbe
00000050: de01 78bd 68fa 8e3e d39f 7dbe 484f f4be
00000060: 4146 0fbe 9026 9fbe 8995 84be ad58 8b3c
00000070: 1b8f 953e 40e3 b93e ae48 98be 4c69 1cbe
00000080: f318 e6be 0813 943e 6da4 9b3d 4ba3 9dbe
00000090: c723 8bbd 430e 523e 670a 983e 2b51 5a3e
000000a0: 30ee 59bd 9c15 823e 1521 8b3e 0ed9 7c3e
000000b0: 713d 3b3d 41fa 8cbe 7f10 bbbe 451f 37bd
000000c0: d813 c6be 0a3e 043e 21e7 4a3e aaa9 933e
000000d0: ad34 c13d 18ea c6be a601 043e cd80 613d
000000e0: deb1 f83d e6af 9e3e d39d 32be d76b b43e
000000f0: a281 99be 0294 a63e 0636 acbe 94ca 7fbc
00000100: 3a2c c3be f828 4e3e ebc1 e83b cdc8 533e
00000110: 9018 a3be afaf 75be a396 22be 9f5e 8a3e
00000120: 7442 dcbe d87a 663e ca16 6abe 44c5 b4be
00000130: 0b98 65be 3c00 d83e b3b1 6abd db50 bb3e
00000140: 4d88 91bd 043a 27be b430 d33e 05a0 703e
00000150: acac cdbe 7887 fc3d ac6f d63d f09e 403e
00000160: e6d7 a7bd 562d b73e 6b6c bebd 6b8a d53e
00000170: 6069 ac3e e320 d0bd be29 93be a533 4abe
00000180: 19a5 183e 7c8a 8fbe fc78 49bd 7017 d2bc
00000190: cfce bbbd a54a 6a3e 6ccd d2be 0191 83be
000001a0: 253c c43e 418f e23d 9599 e0be 3556 163d
000001b0: d601 dabe 99ed 633e 9068 bf3e b5c7 e3be
000001c0: 8f58 37bb 8869 f7be 3b15 7ebe a468 773d
000001d0: 60c7 833e b689 803d 0c7d 2dbe ce23 75be
000001e0: 8729 0e3e 3b82 aabc d197 983e 72a0 9e3e
000001f0: fa90 49be 31fb 75be 3e3e b13e db21 953c
00000200: d27b c0bc e107 57be c4b6 143e 70aa d6be
00000210: 0485 76be f153 a5be 9748 893e 74bb cbbe
00000220: 922a 91be 5389 debd 9df9 833d ec9a 253e
00000230: 058a c13e fc42 143e 9ae7 bc3e abd5 5b3e
00000240: f7aa f1be 8fc5 a5be 3b90 8fbe 3c80 a4be
00000250: db8d b9be 0a9e 98be 5173 853e 1172 8e3e
00000260: 2aef c43e 1b30 cfbe 2d05 693e f14d bbbe
00000270: 6a82 84bd c2f3 b5be b5ef 4d3e b4ff 343e
00000280: 6306 dd3d 3c2d 993e 5cce 8b3e ae03 4a3e
00000290: 99ab d7be 9093 c2be b3bc 483e 8646 403e
000002a0: 876c b7bd e3bb 99be 88ef adbe 316c ddbe
000002b0: 58d1 1d3e 7e4e bdbe d25e 8fbe 85fe 1b3e
000002c0: 7ed1 9f3e 3119 703e 201a 563e eb05 83be
000002d0: 37d6 a1be 9b27 b23e 5f32 683e 074b 62be
000002e0: 9f83 a9be c152 b8be 67eb f13d 6a94 4abe
000002f0: d8d9 523e f73b b43e 145d 93bd c98b c9be

model/dense/BiasAdd/ReadVariableOp f4 [128]
0.083471164 0.008316704 0.0 0.03670759 0.054477196 0.022792695 0.0049308245 -0.006143886
0.0 0.057393134 0.05730099 0.048834052 0.07075692 0.0062345644 -0.0052274773 0.009998955
0.033872433 0.006950426 0.0692267 -0.0074135666 -9.002568e-06 0.031954594 -0.024723755 0.05407505
0.06486284 0.014994397 0.05480703 0.0064420146 -0.007962602 0.067771465 0.03639473 -0.012957454
0.06625554 0.05494592 0.052407466 0.0018512665 -0.0070356545 0.05484771 -0.026872855 0.08467638
0.044874407 -0.0146455085 0.06924519 0.06102682 0.050566517 -0.0055356254 0.0034560582 0.051860403
0.02795774 0.054902032 0.072039984 0.008639173 0.06331799 0.034568366 0.05103615 -0.022214558
0.016681174 -0.0035014164 -0.0073565324 0.04833311 0.04368355 0.005887491 0.04100475 0.020461172
0.04140214 0.0717627 0.12629378 0.014339954 0.0408263 -0.011158874 0.083374664 0.050643563
0.05930471 -0.0025225864 0.008315171 0.02231025 0.005537175 0.026340447 0.03910258 -0.010372103
0.05403969 0.07095993 0.06475065 0.0 0.08184358 0.015119722 -0.014824744 0.019830529
0.049618524 0.057765003 0.055070475 -0.013928206 0.038125943 0.013064901 0.039264463 -0.019669347
0.049610518 0.07362214 -0.0046144114 0.07232636 0.04078883 0.06481789 0.0537653 -0.00122834
0.066887826 -0.01952845 -0.0033228914 -0.008835966 0.032810453 0.122934766 0.045711454 0.06017007
0.027710062 0.08359688 0.056665424 0.03022139 0.0 0.04864448 0.054672174 0.03425989
0.0 0.06940859 0.056101818 0.06636004 0.0141460085 0.020665918 0.06371021 0.08262697
00000000: eef2 aa3d c942 083c 0000 0000 b35a 163d
00000010: 7b23 5f3d bfb7 ba3c c192 a13b a752 c9bb
00000020: 0000 0000 1015 6b3d 71b4 6a3d 3706 483d
00000030: 01e9 903d 514b cc3b 424b abbb a8d2 233c
00000040: d2bd 0a3d 66c0 e33b bac6 8d3d 81ed f2bb
00000050: bc09 17b7 d2e2 023d 7989 cabc cd7d 5d3d
00000060: cfd6 843d 0fab 753c 567d 603d 8917 d33b
00000070: 9375 02bc c4cb 8a3d a412 153d 804b 54bc
00000080: fcb0 873d f90e 613d 36a9 563d 32a6 f23a
00000090: 598b e6bb fea7 603d 7624 dcbc cf6a ad3d
000000a0: 3ace 373d b7f3 6fbc 6cd0 8d3d 42f7 793d
000000b0: d61e 4f3d 3164 b5bb 097f 623b 936b 543d
000000c0: a107 e53c f4e0 603d b389 933d 518b 0d3c
000000d0: ddac 813d 8f97 0d3d 480b 513d 4efb b5bc
000000e0: f5a6 883c 0578 65bb 110f f1bb f0f8 453d
000000f0: 86ed 323d dbeb c03b 99f4 273d 309e a73c
00000100: 4a95 293d 53f8 923d 2853 013e 20f2 6a3c
00000110: 7a39 273d b6d3 36bc 56c0 aa3d a06f 4f3d
00000120: 7fe9 723d fa51 25bb 5b3c 083c fcc3 b63c
00000130: 3171 b53b ecc7 d73c 072a 203d c1ef 29bc
00000140: b958 5d3d 7153 913d fd9b 843d 0000 0000
00000150: 9b9d a73d b6b8 773c 7ce3 72bc a273 a23c
00000160: cb3c 4b3d ff9a 6c3d 9491 613d 2133 64bc
00000170: f329 1c3d 2b0e 563c c6d3 203d 9c21 a1bc
00000180: 6634 4b3d 34c7 963d 7d34 97bb d81f 943d
00000190: 3012 273d 3ebf 843d 0139 5c3d 4000 a1ba
000001a0: 7cfc 883d 21fa 9fbc dec4 59bb bac4 10bc
000001b0: 4164 063d 39c5 fb3d ef3b 3b3d e474 763d
000001c0: 3600 e33c d734 ab3d 011a 683d d992 f73c
000001d0: 0000 0000 6f3f 473d eeef 5f3d 1954 0c3d
000001e0: 0000 0000 1726 8e3d 05cb 653d c6e7 873d
000001f0: a9c4 673c 924b a93c 807a 823d 5438 a93d

model/dense_2/BiasAdd/ReadVariableOp f4 [3]
-0.016521892 0.009877061 0.0056684865
00000000: eb58 87bc 65d3 213c b6be b93b

model/dense_1/BiasAdd/ReadVariableOp f4 [64]
0.0727787 0.06649566 0.07921686 0.07353162 0.039403357 0.021759618 0.024024947 0.04750622
0.014955102 0.02610118 0.018083556 0.040239505 0.04337595 0.05479056 0.05077143 0.055596657
0.1316212 0.0077199186 0.05452561 0.07129303 0.027184809 0.06209693 0.06713368 0.07259792
0.058983404 0.056523684 0.04131346 0.054428473 0.08347953 0.042676106 0.059458043 0.039015595
0.037791375 0.048052397 -0.026552001 -0.020832717 0.087704845 0.048224576 0.027033344 0.032144167
0.05653394 -0.014151856 0.032160923 0.051800482 0.07127665 0.05324154 0.034535468 0.043603633
0.07016783 0.042050112 0.04718656 0.048319735 0.049321532 0.055076912 0.07305232 0.008340432
0.049956605 0.038303766 0.0630877 0.08000105 0.03844578 0.06431087 0.054789864 0.06764552
00000000: 000d 953d e02e 883d 733c a23d bf97 963d
00000010: 6a65 213d 3a41 b23c f7cf c43c e295 423d
00000020: 3e06 753c 24d2 d53c f723 943c 2ed2 243d
00000030: fbaa 313d 116c 603d b4f5 4f3d 52b9 633d
00000040: b5c7 063e 5ff7 fc3b 3f56 5f3d 1502 923d
00000050: adb2 de3c 5a59 7e3d 627d 893d 38ae 943d
00000060: 9598 713d 6185 673d 4d38 293d 64f0 5e3d
00000070: 51f7 aa3d 24cd 2e3d 478a 733d d1ce 1f3d
00000080: 21cb 1a3d 97d2 443d 9583 d9bc 60a9 aabc
00000090: 999e b33d 2287 453d 0875 dd3c 9aa9 033d
000000a0: 2290 673d 30dd 67bc 2cbb 033d be2c 543d
000000b0: 7ef9 913d cd13 5a3d 1075 0d3d b999 323d
000000c0: 27b4 8f3d bd3c 2c3d b246 413d eaea 453d
000000d0: 6005 4a3d 5498 613d 749c 953d 4fa6 083c
000000e0: 4c9f 4c3d 69e4 1c3d 2034 813d 97d7 a33d
000000f0: 5279 1d3d 6bb5 833d 566b 603d bc89 8a3d

model/dense/MatMul i1 [128, 34] scale=0.0032195842 zero_point=0
0.025756674 0.17063797 -0.051513348 0.08370919 0.21249256 0.1641988 0.16741838 -0.009658753
0.22215131 0.07727002 0.13200295 -0.09336794 0.26078632 0.16097921 -0.06439169 0.23824923
0.032195844 0.057952516 -0.19317505 0.22215131 -0.2028338 0.12878338 -0.13844213 0.19639464
0.23824923 0.0064391685 -0.19317505 -0.025756674 0.08692878 0.0 -0.11590503 0.035415426
0.0 -0.09980711 -0.02253709 -0.103026696 -0.13844213 0.019317506 -0.080489606 -0.14810087
-0.17385755 -0.0064391685 -0.019317506 -0.23824923 -0.06761127 -0.1223442 -0.041854594 0.02253709
0.1416617 0.18029672 -0.08692878 0.09980711 -0.019317506 0.33805636 0.035415426 0.24790798
0.21249256 0.27688426 0.103026696 -0.103026696 0.03863501 0.24146882 0.08692878 0.02253709
-0.009658753 -0.009658753 -0.12878338 0.27366465 -0.06761127 0.18351631 -0.12556379 -0.08692878
-0.15454005 0.016097922 0.06439169 -0.048293762 0.1641988 -0.080489606 -0.1223442 0.12878338
0.103026696 0.18029672 -0.0064391685 0.11268545 -0.103026696 0.07727002 0.1223442 0.054732934
0.07727002 -0.0032195842 -0.14810087 -0.0032195842 0.012878337 -0.096587524 0.1641988 -0.14810087
-0.11912461 0.15132046 0.054732934 -0.096587524 0.0611721 0.17707713 0.035415426 -0.032195844
0.11268545 0.09014836 -0.06761127 -0.08692878 -0.04507418 0.035415426 -0.096587524 0.2028338
-0.1416617 -0.13200295 -0.035415426 -0.009658753 0.035415426 -0.31873885 0.21893173 0.0032195842
-0.041854594 -0.325178 0.054732934 -0.36059344 0.032195844 -0.032195844 0.035415426 0.0611721
0.19961423 -0.009658753 -0.18351631 0.02253709 -0.10624628 -0.29298216 -0.15775962 -0.103026696
0.025756674 -0.02253709 0.23181006 0.074050434 0.009658753 0.07083085 -0.07727002 -0.14810087
0.11268545 0.057952516 -0.10946587 0.103026696 0.23502965 0.06761127 0.2253709 0.09014836
-0.07727002 0.11590503 -0.08692878 0.37347177 0.032195844 0.009658753 0.1448813 -0.09980711
0.1416617 -0.25112757 -0.06761127 0.15775962 -0.016097922 0.080489606 -0.23181006 0.286543
0.057952516 0.24790798 -0.025756674 -0.22859047 0.11590503 0.041854594 0.2253709 -0.11912461
0.048293762 -0.21571214 0.20605339 0.054732934 -0.15132046 -0.19317505 -0.04507418 -0.15132046
0.103026696 0.09980711 -0.15775962 0.09980711 -0.18029672 0.286543 -0.20927298 0.32195842
-0.1223442 0.2253709 -0.13844213 -0.13522254 -0.14810087 0.1641988 -0.103026696 0.24790798
-0.10624628 0.041854594 -0.07727002 -0.016097922 0.054732934 0.09980711 -0.09336794 0.096587524
0.13844213 -0.27688426 0.08692878 -0.22215131 -0.06761127 -0.19961423 -0.035415426 -0.08370919
0.057952516 -0.08692878 -0.11268545 -0.041854594 -0.06439169 -0.10946587 0.18673588 0.28010383
-0.21893173 0.17063797 -0.10624628 -0.1223442 -0.06761127 -0.103026696 0.0032195842 0.31873885
-0.08370919 0.2446884 -0.0032195842 0.11912461 0.18351631 -0.009658753 0.19961423 -0.07727002
-0.04507418 0.16741838 0.2253709 -0.17063797 -0.012878337 -0.13200295 0.13844213 -0.025756674
-0.09014836 0.0032195842 -0.15132046 0.009658753 -0.20927298 0.17385755 -0.07727002 0.074050434
00000000: 0835 f01a 4233 34fd 4518 29e3 5132 ec4a
00000010: 0a12 c445 c128 d53d 4a02 c4f8 1b00 dc0b
00000020: 00e1 f9e0 d506 e7d2 cafe fab6 ebda f307
00000030: 2c38 e51f fa69 0b4d 4256 20e0 0c4b 1b07
00000040: fdfd d855 eb39 d9e5 d005 14f1 33e7 da28
00000050: 2038 fe23 e018 2611 18ff d2ff 04e2 33d2
00000060: db2f 11e2 1337 0bf6 231c ebe5 f20b e23f
00000070: d4d7 f5fd 0b9d 4401 f39b 1190 0af6 0b13
00000080: 3efd c707 dfa5 cfe0 08f9 4817 0316 e8d2
00000090: 2312 de20 4915 461c e824 e574 0a03 2de1
000000a0: 2cb2 eb31 fb19 b859 124d f8b9 240d 46db
000000b0: 0fbd 4011 d1c4 f2d1 201f cf1f c859 bf64
000000c0: da46 d5d6 d233 e04d df0d e8fb 111f e31e
000000d0: 2baa 1bbb ebc2 f5e6 12e5 ddf3 ecde 3a57
000000e0: bc35 dfda ebe0 0163 e64c ff25 39fd 3ee8
000000f0: f234 46cb fcd7 2bf8 e401 d103 bf36 e817

model/dense_1/MatMul i1 [64, 128] scale=0.0032637194 zero_point=0
0.11423018 0.05221951 0.12075762 0.04895579 0.042428352 0.07180183 0.10443902 0.27088872
0.1011753 0.15339482 -0.17950457 0.2023506 -0.078329265 0.078329265 -0.14033994 -0.04569207
0.019582316 0.04569207 0.06853811 -0.15339482 0.3328994 0.05874695 -0.016318597 0.05874695
0.09464786 0.05221951 0.019582316 0.039164633 0.022846036 -0.19255945 -0.075065546 0.12402134
-0.019582316 0.24804267 -0.029373474 0.14360365 0.05874695 -0.039164633 -0.12075762 -0.016318597
0.16318597 0.13381249 0.17297712 0.07180183 0.19908687 0.07180183 0.11423018 0.1174939
-0.13381249 0.21214175 -0.20561433 0.084856704 -0.17297712 -0.18276829 -0.06201067 -0.035900913
0.24151523 0.078329265 0.019582316 0.09464786 -0.016318597 0.20887804 -0.05221951 0.10443902
0.34269053 0.04895579 -0.0032637194 -0.0065274388 0.18276829 -0.1174939 0.0065274388 0.084856704
-0.10443902 0.2839436 0.15992224 -0.022846036 0.18929572 0.2349878 -0.078329265 -0.029373474
0.05874695 -0.08812042 0.081592984 0.081592984 0.022846036 0.24151523 0.029373474 0.1174939
-0.035900913 0.0 -0.1011753 -0.05874695 0.11096646 0.029373474 0.12728506 0.08812042
-0.019582316 0.15992224 0.084856704 0.2023506 -0.30026218 -0.17297712 -0.22193292 0.05874695
0.039164633 0.04895579 0.11423018 -0.05874695 -0.17297712 0.09138414 0.15339482 0.0130548775
0.016318597 0.15013109 0.27741614 0.27415243 -0.11423018 -0.039164633 -0.12728506 0.24151523
-0.06527439 -0.14360365 0.15339482 0.022846036 0.09791158 -0.019582316 0.25783384 0.15339482
-0.186032 0.2186692 -0.009791158 -0.186032 0.12075762 0.11423018 0.13381249 0.078329265
0.11096646 -0.042428352 -0.1664497 -0.15665853 -0.04569207 0.042428352 0.06201067 -0.14360365
-0.11096646 0.13381249 0.15992224 -0.14360365 0.21540548 0.22846036 -0.019582316 -0.17950457
-0.075065546 0.16318597 0.186032 0.14033994 -0.08812042 0.032637194 -0.15665853 0.0032637194
-0.2382515 -0.15992224 0.032637194 0.05874695 0.16971341 -0.10770274 0.0065274388 -0.17950457
-0.07180183 -0.019582316 -0.14686736 -0.0130548775 -0.04895579 -0.1664497 -0.12075762 -0.14686736
-0.035900913 -0.081592984 -0.0032637194 0.05874695 -0.18276829 0.075065546 -0.11096646 0.17297712
0.20887804 0.06853811 0.029373474 -0.07180183 0.11423018 0.21540548 0.06853811 0.22846036
0.04569207 0.15992224 -0.22193292 0.035900913 -0.081592984 0.12728506 0.22846036 0.17950457
0.09464786 0.11096646 0.24804267 0.26762497 0.13054878 0.13381249 0.06527439 0.009791158
0.11423018 -0.016318597 0.05874695 -0.09791158 0.14686736 0.10443902 0.1664497 -0.022846036
-0.035900913 -0.17297712 0.04569207 -0.016318597 -0.1011753 0.2023506 0.12402134 -0.08812042
0.10770274 -0.075065546 0.05874695 -0.022846036 -0.09791158 0.019582316 -0.1174939 0.20561433
0.15665853 0.13381249 0.18929572 0.081592984 -0.22846036 -0.12728506 0.009791158 0.13707621
-0.0065274388 0.09138414 -0.0130548775 -0.032637194 0.11096646 0.15339482 -0.05221951 0.029373474
-0.14686736 0.22193292 0.029373474 0.07180183 -0.12728506 -0.06201067 0.08812042 -0.04895579
00000000: 2310 250f 0d16 2053 1f2f c93e e818 d5f2
00000010: 060e 15d1 6612 fb12 1d10 060c 07c5 e926
00000020: fa4c f72c 12f4 dbfb 3229 3516 3d16 2324
00000030: d741 c11a cbc8 edf5 4a18 061d fb40 f020
00000040: 690f fffe 38dc 021a e057 31f9 3a48 e8f7
00000050: 12e5 1919 074a 0924 f500 e1ee 2209 271b
00000060: fa31 1a3e a4cb bc12 0c0f 23ee cb1c 2f04
00000070: 052e 5554 ddf4 d94a ecd4 2f07 1efa 4f2f
00000080: c743 fdc7 2523 2918 22f3 cdd0 f20d 13d4
00000090: de29 31d4 4246 fac9 e932 392b e50a d001
000000a0: b7cf 0a12 34df 02c9 eafa d3fc f1cd dbd3
000000b0: f5e7 ff12 c817 de35 4015 09ea 2342 1546
000000c0: 0e31 bc0b e727 4637 1d22 4c52 2829 1403
000000d0: 23fb 12e2 2d20 33f9 f5cb 0efb e13e 26e5
000000e0: 21e9 12f9 e206 dc3f 3029 3a19 bad9 032a
000000f0: fe1c fcf6 222f f009 d344 0916 d9ed 1bf1
