app/src/main/assets/pose_02.tflite (tflite, 26984 bytes, 6 tensors)

model/dense_2/MatMul f4 [3, 64]
0	0x3e8851d7	0.2662494
1	0x3eb1ee70	0.34752226
2	0xbe33ad79	-0.17546643
3	0x3e68d20a	0.22736374
4	0x3e9eb755	0.30999246
5	0xbeb97cf1	-0.36228135
6	0xbed59cdc	-0.41721237
7	0x3ce1d036	0.027565103
8	0x3e59ad51	0.21257521
9	0xbe424e66	-0.18975219
10	0xbe882eaa	-0.26598102
11	0xbe83dfbf	-0.25756642
12	0xbe793f52	-0.24340561
13	0x3ebb19e8	0.36543202
14	0xbd5ae62d	-0.05344217
15	0x3ec28d99	0.37998655
16	0x3e89f955	0.26948038
17	0x3ec987d7	0.3936145
18	0x3e8426a7	0.2581074
19	0xbe3d41d2	-0.1848214
20	0xbe973e9d	-0.29539958
21	0xbeec771a	-0.46184617
22	0xbe5f5c6d	-0.21812601
23	0x3d2e1921	0.042504434
24	0x3ea5f5d8	0.32414126
25	0xbeb70715	-0.3574759
26	0xbe4b7a1f	-0.19870804
27	0xbe15c088	-0.14624226
28	0xbe8f04bd	-0.27933303
29	0x3e97ebed	0.29672185
30	0xbe808df2	-0.25108296
31	0xbef10d24	-0.47080338
32	0x3e97bd5c	0.29636657
33	0xbdef5797	-0.11686628
34	0xbe10ed4b	-0.1415302
35	0xbf0ad1c9	-0.54226357
36	0xbe853c98	-0.26022792
37	0xbe4a26ec	-0.1974141
38	0xbefaa628	-0.48954892
39	0x3daf14ec	0.085489124
40	0x3eb89d13	0.36057338
41	0x3ea399fb	0.31953415
42	0xbebd2f27	-0.36950037
43	0x3e9a269a	0.30107576
44	0x3ebf6a0f	0.37385604
45	0x3e628b73	0.22123508
46	0xbe90a220	-0.28248692
47	0x3ec42a21	0.38313392
48	0xbef79a4e	-0.48359913
49	0x3ed2554c	0.410807
50	0x3cddd985	0.02708126
51	0xbd0c1c9a	-0.034206964
52	0xbde58915	-0.11207787
53	0xbea2dce7	-0.3180916
54	0xbe712291	-0.23548342
55	0x3eb4b98a	0.35297805
56	0xbec1a13a	-0.3781832
57	0x3e0865cf	0.13320087
58	0x3ea949f7	0.33064243
59	0xbe64211b	-0.22278254
60	0xbeec395d	-0.46137515
61	0xbe85141d	-0.25991908
62	0xbe477754	-0.19479114
63	0x3eb1c716	0.34722203
64	0xbebb54c5	-0.36588112
65	0xbdfd5e62	-0.12371518
66	0xbe92d24d	-0.28676072
67	0x3e8c4be0	0.27401638
68	0xbdafab9e	-0.08577655
69	0xbea719d8	-0.32636905
70	0x3e792dff	0.24333952
71	0xbe5eb445	-0.21748455
72	0x3e70c474	0.23512441
73	0xbef7a1b5	-0.4836556
74	0xbf02defa	-0.51121485
75	0x3eb70f99	0.35754088
76	0x3eb3728e	0.35048336
77	0xbedb2b31	-0.4280639
78	0xbe487481	-0.19575693
79	0x3e5bbdef	0.21459173
80	0xbea0af15	-0.31383577
81	0xbe0f8cde	-0.1401858
82	0x3e73f30c	0.23823184
83	0x3db72993	0.089434765
84	0xbe4695a9	-0.19393028
85	0xbe680444	-0.22657877
86	0xbed42fab	-0.41442618
87	0x3e1a8a3f	0.15091799
88	0xbe114f6b	-0.14190452
89	0x3eb7386a	0.35785228
90	0x3e95ef9a	0.29284364
91	0x3ec48bd5	0.38387933
92	0x3e883e37	0.26609966
93	0xbee0fbf9	-0.4394224
94	0xbee15236	-0.44008034
95	0x3e61682d	0.22012396
96	0x3cb679ec	0.022274934
97	0xbe82e4bc	-0.25565135
98	0xbe9a4e6a	-0.3013795
99	0xbe1531a6	-0.1456972
100	0xbe05e05a	-0.13073865
101	0x3ee40ff4	0.4454342
102	0x3e3a58e0	0.18197966
103	0xbea897e6	-0.3292839
104	0xbe953db9	-0.29148653
105	0x3e588d7f	0.21147726
106	0x3e87a6b6	0.26494378
107	0xbebb955e	-0.36637396
108	0xbebe5f5c	-0.37182128
109	0x3c9db54f	0.019251494
110	0xbd367d39	-0.044553015
111	0xbea8ffb0	-0.33007574
112	0x3e80ce03	0.25157174
113	0xbdce9a31	-0.100880034
114	0xbf072944	-0.5279734
115	0x3ef1be20	0.47215366
116	0xbdf27ede	-0.11840604
117	0x3e8491c4	0.2589246
118	0x3ec34404	0.3813783
119	0xbe1a514e	-0.15070078
120	0xbebe8822	-0.37213236
121	0x3e548ad8	0.2075609
122	0xbeb63375	-0.35586134
123	0x3e5697d4	0.20956355
124	0xbdb99aab	-0.09062704
125	0x3e63c946	0.22244748
126	0xbe05d038	-0.1306771
127	0xbe95554d	-0.29166642
128	0xbe79d016	-0.24395785
129	0xbe596cc6	-0.212329
130	0x3bddf43d	0.0067735002
131	0xbec894d6	-0.39176053
132	0x3eba0cbc	0.3633784
133	0x3e9756a0	0.29558277
134	0x3ec7e840	0.3904438
135	0x3ef54ec4	0.47911656
136	0xbeedac62	-0.4642058
137	0x3ee2ff88	0.4433558
138	0x3e96f9e2	0.2948752
139	0xbe815f3a	-0.25267965
140	0xbebb08e8	-0.36530232
141	0x3d118920	0.035531163
142	0x3e590643	0.21193795
143	0xbe9fbb53	-0.31197605
144	0x3ed44e20	0.41465855
145	0xbd3e697d	-0.04648732
146	0xbeb55481	-0.35416034
147	0x3e82cef7	0.25548527
148	0x3d6ecd32	0.05830116
149	0x3ebeeec8	0.3729155
150	0x3ed95d39	0.42453936
151	0xbeb44cc3	-0.35214815
152	0x3ec63f72	0.3872028
153	0xbea6faaa	-0.32613117
154	0x3e7600bc	0.24023718
155	0xbe9bf9e3	-0.30464086
156	0xbdcbd92f	-0.09953534
157	0x3e668780	0.22512627
158	0x3eaa187c	0.33221805
159	0x3e921f1d	0.28539363
160	0xbf004d69	-0.5011812
161	0x3ec53eb3	0.38524398
162	0x3ee26805	0.44219986
163	0xbe52d456	-0.20588812
164	0x3e4f17c5	0.20223911
165	0xbd6ccbd0	-0.05781156
166	0xbdf964ea	-0.12177451
167	0xbea57610	-0.32316637
168	0x3e8e8e9a	0.2784317
169	0xbea9408a	-0.33057052
170	0xbe260114	-0.16211349
171	0xbecb2399	-0.39675596
172	0xbc9ef030	-0.01940164
173	0x3c23269e	0.0099579375
174	0x3e129134	0.14313203
175	0xbe4d200c	-0.20031756
176	0x3e626119	0.22107352
177	0xbe3016e7	-0.17196237
178	0x3e031990	0.1280272
179	0xbce7a245	-0.028275618
180	0x3ebedb7d	0.3727683
181	0xbc65c4ba	-0.014023954
182	0xbd9d88a1	-0.076920755
183	0xbec4f5e9	-0.38468865
184	0xbd23db98	-0.040004343
185	0xbec28543	-0.37992296
186	0xbe96be7c	-0.29442203
187	0x3dc47dea	0.09594329
188	0x3e4746e0	0.1946063
189	0xbc129c77	-0.008948437
190	0x3eaf2ab0	0.34212255
191	0xbeccec41	-0.40023997

model/dense/BiasAdd/ReadVariableOp f4 [128]
0	0xbbdf0b6b	-0.006806781
1	0x3d04107c	0.032242283
2	0x3ccb4cc9	0.024816887
3	0x3d8c1846	0.06840567
4	0x3d5a773c	0.053336367
5	0x3c206674	0.009790052
6	0x389ef3ec	7.579461e-05
7	0xbbab4795	-0.005227039
8	0x3d68eaec	0.056864664
9	0x3ca9804e	0.020691063
10	0x3d8159d1	0.06315959
11	0x3c59e36a	0.013298849
12	0xbba90944	-0.0051585753
13	0xbcc4f25d	-0.024041349
14	0x3d3c977a	0.046042897
15	0x3ca07c18	0.019590423
16	0xbc493ad0	-0.012282088
17	0xbb44092c	-0.0029912693
18	0xbbbd5d49	-0.0057789427
19	0xbc95cc01	-0.018285753
20	0x00000000	0.0
21	0xbb23522b	-0.0024920802
22	0x3d1462c8	0.036227018
23	0x00000000	0.0
24	0x3d372670	0.04471439
25	0x3c091266	0.008366203
26	0xbbfba193	-0.0076791733
27	0x3d20f59b	0.039296728
28	0xbc8a4eb0	-0.016883224
29	0x3b1cb1b7	0.0023909637
30	0xbc83c0b2	-0.016083095
31	0x3ce906ed	0.028445685
32	0x3cc3ffa6	0.023925614
33	0x3c04c7e7	0.008104301
34	0x3d505133	0.050858688
35	0x3ce621e6	0.028092336
36	0x3cb6eabb	0.022328725
37	0x3d356600	0.044286728
38	0x00000000	0.0
39	0xbcb113d1	-0.021615895
40	0xbcab5eab	-0.020919165
41	0x3d01f850	0.03173095
42	0x3d42ef64	0.047591582
43	0x3c8bc751	0.017062815
44	0x3d3adb9e	0.0456196
45	0x3d0a7bae	0.033809356
46	0x00000000	0.0
47	0x3d5f21e6	0.054475687
48	0xbc096ab4	-0.008387256
49	0xbcb9ce98	-0.02268152
50	0x3d20c783	0.03925277
51	0x3d4caaab	0.04996745
52	0x3bbbdad6	0.0057328744
53	0xbc46c51f	-0.012131958
54	0x3b11c6b3	0.0022243678
55	0x3daf2c06	0.08553319
56	0xbc3abd22	-0.011397632
57	0xbc0a3426	-0.008435285
58	0x3cc81c95	0.024427691
59	0x3d381bc4	0.044948354
60	0xbb4e9c9e	-0.0031526457
61	0x00000000	0.0
62	0x3d95ec56	0.07320468
63	0x3cbb0d52	0.0228335
64	0x3d0cc34a	0.03436593
65	0xbb0d84b6	-0.0021593994
66	0x3b2687a3	0.0025410436
67	0xbc05d5e5	-0.008168672
68	0x3d433915	0.04766186
69	0x3c05286a	0.008127311
70	0x3c759f5a	0.014991606
71	0x3d27fc85	0.041012306
72	0x3d4a89fb	0.049447995
73	0x3d25db82	0.040492542
74	0xbbd6ede2	-0.0065591196
75	0x3b1aaf67	0.0023603083
76	0x3ceff574	0.029291846
77	0x00000000	0.0
78	0x3cc0e41b	0.02354627
79	0xbc9c8d4b	-0.019110342
80	0x3caf42c7	0.021394147
81	0x3c92cdbb	0.017920366
82	0x3d070d5f	0.032971736
83	0x3ce8f130	0.02843532
84	0xbc4dcec9	-0.012561508
85	0xbcbba0ed	-0.022903884
86	0xbd0779d2	-0.03307516
87	0x3d5ec253	0.05438454
88	0x3ca1fd14	0.019773997
89	0x00000000	0.0
90	0x3d93934f	0.07205831
91	0x00000000	0.0
92	0x3d6cf376	0.05784937
93	0x00000000	0.0
94	0x3c38b7ea	0.011274317
95	0x3c94d5a2	0.018168274
96	0x3d8e3591	0.06943811
97	0x3cffb575	0.031214455
98	0x3d04b580	0.032399654
99	0x3da2f709	0.079572745
100	0xbb74257a	-0.0037253783
101	0x3ca335e0	0.01992315
102	0x3cc9001a	0.024536181
103	0x3cf96c93	0.03044728
104	0x3d48cb52	0.049022026
105	0x3d145f10	0.03622347
106	0xbabfea78	-0.0014642021
107	0xbc43dbcb	-0.011954258
108	0x3d7cd443	0.061725866
109	0x00000000	0.0
110	0x3c5d75d6	0.013516864
111	0x3d44342c	0.047901317
112	0x3caeeb50	0.02135244
113	0x00000000	0.0
114	0x3d887093	0.06662097
115	0x00000000	0.0
116	0x3ccad19e	0.024758156
117	0x3c857fbb	0.016296258
118	0x3cb2ab48	0.021810189
119	0x00000000	0.0
120	0x3c373d4d	0.011184049
121	0x3d17cfcd	0.03706341
122	0x3cdfedbb	0.027335038
123	0x3c7794e3	0.015111181
124	0x3d4ca4a8	0.049961716
125	0x00000000	0.0
126	0x3d22724f	0.039659794
127	0xbc555c9d	-0.013022569

model/dense_2/BiasAdd/ReadVariableOp f4 [3]
0	0xbd5082b4	-0.0509059
1	0x3d16acb9	0.036785815
2	0xbb0bbed8	-0.0021323469

model/dense_1/BiasAdd/ReadVariableOp f4 [64]
0	0x3d658e11	0.05604369
1	0x3d49ce7d	0.04926919
2	0xbd01f65c	-0.031729087
3	0x3d7ec290	0.062197268
4	0x3d1721f0	0.0368976
5	0x3d6f3324	0.05839838
6	0x3daf5bf2	0.08562459
7	0x3d1f7238	0.038927287
8	0x3d8d5688	0.0690127
9	0x3d74974f	0.05971461
10	0x3d7a159f	0.061055776
11	0x3d1ae939	0.037820075
12	0x3ced21fd	0.028946871
13	0x3d680159	0.05664191
14	0xbd0ecda4	-0.034864083
15	0x3d8d0b90	0.06886971
16	0x3d5ab7a7	0.0533978
17	0x3cbe03f9	0.023195254
18	0x3d4722f0	0.048617303
19	0x3d7b18ae	0.061302833
20	0x3d2cab30	0.042155445
21	0x3d1d122e	0.038347416
22	0x3d267421	0.040638093
23	0x3cde815b	0.02716129
24	0x3d19af72	0.037520833
25	0x3d4b94f4	0.0497026
26	0x3dd42f20	0.10360551
27	0x3d33c0b9	0.043884967
28	0x3d84fe55	0.064938225
29	0x3c853269	0.016259389
30	0x3d287a66	0.041132353
31	0x3d881451	0.066445
32	0x3d6207f7	0.055183377
33	0x3d717608	0.058950454
34	0x3d1f3af1	0.03887457
35	0x3e18b0fe	0.14911267
36	0x3d4187ce	0.047248654
37	0x3d71ea5f	0.059061404
38	0x3dbd17a8	0.09233028
39	0x3d7c2442	0.061558016
40	0x3d329d8d	0.043607283
41	0x3d335a36	0.043787204
42	0x3d5dd68f	0.054159697
43	0x3d6cc2b6	0.05780288
44	0x3da4245e	0.08014749
45	0xbc35be17	-0.011092684
46	0x3d80ed1c	0.06295225
47	0x3d2039c2	0.039117582
48	0x3dca36dd	0.098737456
49	0x3cd775fb	0.026301375
50	0x3d858e16	0.06521241
51	0x3d8049a1	0.062640436
52	0x3d9e38bc	0.07725665
53	0x3d9a5138	0.075350225
54	0x3d8660ea	0.06561454
55	0x3d45c1a1	0.048280362
56	0x3d42c5ca	0.047551908
57	0x3d9157bb	0.070968114
58	0x3d13a38b	0.03604464
59	0x3dd6edd7	0.10494583
60	0x3d707e95	0.058714468
61	0x3db780c0	0.08960104
62	0x3d420a6d	0.047373224
63	0x3d10d3eb	0.03535835

model/dense/MatMul i1 [128, 34] scale=0.0039779185 zero_point=0
0	0xf9	-0.02784543
1	0x01	0.0039779185
2	0x11	0.06762461
3	0x1f	0.123315476
4	0xce	-0.19889593
5	0xda	-0.15116091
6	0x33	0.20287384
7	0xf3	-0.05171294
8	0xe2	-0.11933756
9	0xd2	-0.18298425
10	0x48	0.28641012
11	0x0f	0.05966878
12	0xdf	-0.13127132
13	0x00	0.0
14	0x1e	0.11933756
15	0x0b	0.043757103
16	0xba	-0.2784543
17	0x01	0.0039779185
18	0x47	0.28243223
19	0x01	0.0039779185
20	0x90	-0.44552687
21	0x0a	0.039779186
22	0x62	0.389836
23	0x40	0.2545868
24	0x95	-0.42563727
25	0xd4	-0.17502841
26	0x1a	0.10342588
27	0xec	-0.07955837
28	0x17	0.091492124
29	0x0d	0.05171294
30	0x45	0.27447638
31	0x0c	0.04773502
32	0xfc	-0.015911674
33	0xd4	-0.17502841
34	0x30	0.19094008
35	0x0f	0.05966878
36	0x05	0.019889593
37	0xf9	-0.02784543
38	0xef	-0.06762461
39	0x12	0.07160253
40	0xb1	-0.31425557
41	0xee	-0.07160253
42	0xe2	-0.11933756
43	0x0e	0.05569086
44	0x9b	-0.40176976
45	0xf1	-0.05966878
46	0x2a	0.16707258
47	0xd6	-0.16707258
48	0xa2	-0.37392434
49	0x1b	0.1074038
50	0x5f	0.37790227
51	0xde	-0.13524923
52	0xef	-0.06762461
53	0x06	0.02386751
54	0x67	0.4097256
55	0x49	0.29038805
56	0xa6	-0.35801268
57	0xa9	-0.3460789
58	0x30	0.19094008
59	0x05	0.019889593
60	0xd9	-0.15513882
61	0x23	0.13922715
62	0x04	0.015911674
63	0xf0	-0.0636467
64	0xd6	-0.16707258
65	0x2e	0.18298425
66	0xf6	-0.039779186
67	0x3f	0.25060886
68	0xde	-0.13524923
69	0xf6	-0.039779186
70	0xda	-0.15116091
71	0xd0	-0.19094008
72	0xf5	-0.043757103
73	0xf1	-0.05966878
74	0x58	0.35005683
75	0xe7	-0.099447966
76	0xde	-0.13524923
77	0x29	0.16309465
78	0x55	0.33812308
79	0x28	0.15911674
80	0xd1	-0.18696217
81	0x16	0.08751421
82	0x53	0.33016723
83	0xcb	-0.21082968
84	0xba	-0.2784543
85	0xe2	-0.11933756
86	0x3f	0.25060886
87	0xc2	-0.24663095
88	0xd6	-0.16707258
89	0xce	-0.19889593
90	0x5d	0.36994642
91	0x0a	0.039779186
92	0xc5	-0.2346972
93	0xf2	-0.05569086
94	0x4c	0.30232182
95	0xe7	-0.099447966
96	0xf6	-0.039779186
97	0xff	-0.0039779185
98	0x24	0.14320506
99	0xcf	-0.194918
100	0xc7	-0.22674136
101	0xd8	-0.15911674
102	0xf0	-0.0636467
103	0xbf	-0.2585647
104	0x01	0.0039779185
105	0x1b	0.1074038
106	0xdf	-0.13127132
107	0xdc	-0.14320506
108	0x41	0.2585647
109	0xf8	-0.03182335
110	0xef	-0.06762461
111	0xd4	-0.17502841
112	0x0a	0.039779186
113	0x1d	0.115359634
114	0xb9	-0.28243223
115	0x07	0.02784543
116	0x15	0.08353629
117	0xf9	-0.02784543
118	0xef	-0.06762461
119	0xfa	-0.02386751
120	0x4b	0.2983439
121	0x32	0.19889593
122	0xc3	-0.24265303
123	0x3d	0.24265303
124	0x41	0.2585647
125	0x07	0.02784543
126	0xc6	-0.23071927
127	0xf4	-0.04773502
128	0x42	0.26254264
129	0x13	0.075580455
130	0xd9	-0.15513882
131	0x33	0.20287384
132	0x31	0.194918
133	0xf5	-0.043757103
134	0xfc	-0.015911674
135	0x2e	0.18298425
136	0xda	-0.15116091
137	0xcf	-0.194918
138	0xd9	-0.15513882
139	0x15	0.08353629
140	0x28	0.15911674
141	0x01	0.0039779185
142	0x3b	0.2346972
143	0x04	0.015911674
144	0x42	0.26254264
145	0xe4	-0.11138172
146	0x35	0.21082968
147	0xff	-0.0039779185
148	0x01	0.0039779185
149	0x1a	0.10342588
150	0x28	0.15911674
151	0xc1	-0.25060886
152	0xff	-0.0039779185
153	0x19	0.099447966
154	0xf6	-0.039779186
155	0xf2	-0.05569086
156	0xe8	-0.09547004
157	0x03	0.011933755
158	0x16	0.08751421
159	0xf3	-0.05171294
160	0xcc	-0.20685177
161	0xf4	-0.04773502
162	0xf8	-0.03182335
163	0xca	-0.2148076
164	0xe6	-0.10342588
165	0xb5	-0.2983439
166	0xef	-0.06762461
167	0xbe	-0.26254264
168	0xbf	-0.2585647
169	0xb2	-0.31027764
170	0x1c	0.11138172
171	0xe1	-0.123315476
172	0xf6	-0.039779186
173	0xed	-0.075580455
174	0x16	0.08751421
175	0xfb	-0.019889593
176	0xe6	-0.10342588
177	0xec	-0.07955837
178	0xd4	-0.17502841
179	0xda	-0.15116091
180	0x14	0.07955837
181	0xf5	-0.043757103
182	0x07	0.02784543
183	0xe0	-0.1272934
184	0x33	0.20287384
185	0x21	0.13127132
186	0xb8	-0.28641012
187	0x26	0.15116091
188	0x28	0.15911674
189	0xfd	-0.011933755
190	0xda	-0.15116091
191	0x1e	0.11933756
192	0x33	0.20287384
193	0xeb	-0.08353629
194	0xfb	-0.019889593
195	0x25	0.14718299
196	0x49	0.29038805
197	0x30	0.19094008
198	0xda	-0.15116091
199	0x12	0.07160253
200	0x08	0.03182335
201	0xef	-0.06762461
202	0xf8	-0.03182335
203	0x17	0.091492124
204	0xf4	-0.04773502
205	0xe4	-0.11138172
206	0xe8	-0.09547004
207	0x26	0.15116091
208	0xd7	-0.16309465
209	0xfb	-0.019889593
210	0xd5	-0.1710505
211	0x1a	0.10342588
212	0xe8	-0.09547004
213	0xd4	-0.17502841
214	0xe1	-0.123315476
215	0xf6	-0.039779186
216	0xd5	-0.1710505
217	0x0b	0.043757103
218	0x04	0.015911674
219	0xda	-0.15116091
220	0x0f	0.05966878
221	0x1e	0.11933756
222	0xe9	-0.091492124
223	0xca	-0.2148076
224	0xff	-0.0039779185
225	0x01	0.0039779185
226	0xf7	-0.035801265
227	0x0e	0.05569086
228	0xca	-0.2148076
229	0x2b	0.1710505
230	0x0b	0.043757103
231	0x26	0.15116091
232	0xe9	-0.091492124
233	0xf0	-0.0636467
234	0x01	0.0039779185
235	0xf7	-0.035801265
236	0xf5	-0.043757103
237	0xd3	-0.17900634
238	0xe7	-0.099447966
239	0x09	0.035801265
240	0xee	-0.07160253
241	0x1b	0.1074038
242	0x04	0.015911674
243	0xf4	-0.04773502
244	0xe1	-0.123315476
245	0x1d	0.115359634
246	0xf5	-0.043757103
247	0x14	0.07955837
248	0xd5	-0.1710505
249	0xf6	-0.039779186
250	0xeb	-0.08353629
251	0x1f	0.123315476
252	0x28	0.15911674
253	0xde	-0.13524923
254	0x04	0.015911674
255	0xd5	-0.1710505

model/dense_1/MatMul i1 [64, 128] scale=0.0032390677 zero_point=0
0	0xc5	-0.191105
1	0xe1	-0.1004111
2	0x04	0.012956271
3	0xb6	-0.23969102
4	0x11	0.055064153
5	0xcc	-0.16843152
6	0x07	0.022673475
7	0xfd	-0.009717204
8	0x00	0.0
9	0x28	0.1295627
10	0x08	0.025912542
11	0x14	0.06478135
12	0x0a	0.032390676
13	0xfd	-0.009717204
14	0x3d	0.19758314
15	0xad	-0.2688426
16	0xd7	-0.13280177
17	0x0a	0.032390676
18	0x03	0.009717204
19	0x05	0.016195338
20	0x06	0.019434407
21	0xf5	-0.035629746
22	0x49	0.23645194
23	0xe0	-0.10365017
24	0xe6	-0.08421576
25	0x05	0.016195338
26	0x10	0.051825084
27	0x46	0.22673474
28	0xd2	-0.14899711
29	0x01	0.0032390677
30	0xe8	-0.07773763
31	0x09	0.02915161
32	0x24	0.11660644
33	0x32	0.16195339
34	0x20	0.10365017
35	0xf8	-0.025912542
36	0x65	0.32714584
37	0x04	0.012956271
38	0xf4	-0.038868815
39	0x18	0.07773763
40	0x1c	0.0906939
41	0x01	0.0032390677
42	0x35	0.17167059
43	0xe7	-0.080976695
44	0xfd	-0.009717204
45	0xf7	-0.02915161
46	0xfb	-0.016195338
47	0xbd	-0.21701753
48	0xf2	-0.04534695
49	0xf0	-0.051825084
50	0xe7	-0.080976695
51	0xcc	-0.16843152
52	0xdf	-0.10688923
53	0xe3	-0.093932964
54	0xcf	-0.15871432
55	0x1f	0.1004111
56	0x31	0.15871432
57	0x32	0.16195339
58	0x3c	0.19434406
59	0x36	0.17490965
60	0x0e	0.04534695
61	0xee	-0.05830322
62	0xc6	-0.18786593
63	0xe0	-0.10365017
64	0xd7	-0.13280177
65	0x01	0.0032390677
66	0xeb	-0.068020426
67	0xb5	-0.24293008
68	0x07	0.022673475
69	0xf3	-0.04210788
70	0xde	-0.110128306
71	0x34	0.16843152
72	0x4a	0.23969102
73	0x55	0.27532077
74	0xfd	-0.009717204
75	0x14	0.06478135
76	0xe1	-0.1004111
77	0xd4	-0.14251898
78	0x05	0.016195338
79	0xdb	-0.11984551
80	0xb8	-0.23321287
81	0xe8	-0.07773763
82	0xda	-0.123084575
83	0xbf	-0.2105394
84	0xe0	-0.10365017
85	0xd2	-0.14899711
86	0xfd	-0.009717204
87	0x05	0.016195338
88	0xda	-0.123084575
89	0x11	0.055064153
90	0x0b	0.035629746
91	0xf1	-0.048586015
92	0xf6	-0.032390676
93	0xef	-0.055064153
94	0x42	0.21377847
95	0xb4	-0.24616915
96	0x25	0.11984551
97	0xea	-0.07125949
98	0x54	0.2720817
99	0x0c	0.038868815
100	0xec	-0.06478135
101	0xf6	-0.032390676
102	0x22	0.110128306
103	0xeb	-0.068020426
104	0x0f	0.048586015
105	0x0f	0.048586015
106	0xc9	-0.17814873
107	0xce	-0.16195339
108	0x11	0.055064153
109	0xd1	-0.15223618
110	0x2f	0.15223618
111	0x1b	0.087454826
112	0x29	0.13280177
113	0xce	-0.16195339
114	0x18	0.07773763
115	0x1f	0.1004111
116	0xc7	-0.18462686
117	0x23	0.11336737
118	0xf3	-0.04210788
119	0x10	0.051825084
120	0xee	-0.05830322
121	0x09	0.02915161
122	0x1d	0.093932964
123	0xd3	-0.14575805
124	0x4c	0.24616915
125	0xd8	-0.1295627
126	0x01	0.0032390677
127	0x0c	0.038868815
128	0xd3	-0.14575805
129	0xc3	-0.19758314
130	0x39	0.18462686
131	0xf5	-0.035629746
132	0x2f	0.15223618
133	0x03	0.009717204
134	0xfa	-0.019434407
135	0xd4	-0.14251898
136	0xe8	-0.07773763
137	0x34	0.16843152
138	0x21	0.10688923
139	0xc5	-0.191105
140	0xd3	-0.14575805
141	0xe1	-0.1004111
142	0xe6	-0.08421576
143	0xe1	-0.1004111
144	0xd3	-0.14575805
145	0xe4	-0.0906939
146	0x1c	0.0906939
147	0x29	0.13280177
148	0xf1	-0.048586015
149	0xe3	-0.093932964
150	0x1b	0.087454826
151	0xe1	-0.1004111
152	0xff	-0.0032390677
153	0x25	0.11984551
154	0x34	0.16843152
155	0xe7	-0.080976695
156	0xf4	-0.038868815
157	0xf6	-0.032390676
158	0x0c	0.038868815
159	0x50	0.2591254
160	0xef	-0.055064153
161	0xc3	-0.19758314
162	0x2b	0.13927992
163	0x04	0.012956271
164	0x16	0.07125949
165	0x2c	0.14251898
166	0x13	0.061542287
167	0xdb	-0.11984551
168	0x18	0.07773763
169	0xb7	-0.23645194
170	0x04	0.012956271
171	0x08	0.025912542
172	0xfa	-0.019434407
173	0xd1	-0.15223618
174	0x20	0.10365017
175	0xc7	-0.18462686
176	0x21	0.10688923
177	0xe6	-0.08421576
178	0xc0	-0.20730034
179	0xb9	-0.22997381
180	0xf3	-0.04210788
181	0xec	-0.06478135
182	0x17	0.07449856
183	0x54	0.2720817
184	0xe9	-0.07449856
185	0x02	0.0064781355
186	0x3c	0.19434406
187	0x08	0.025912542
188	0x08	0.025912542
189	0xe9	-0.07449856
190	0xdd	-0.11336737
191	0xfa	-0.019434407
192	0xbf	-0.2105394
193	0x1c	0.0906939
194	0x16	0.07125949
195	0xbe	-0.21377847
196	0x20	0.10365017
197	0x3f	0.20406127
198	0x32	0.16195339
199	0x38	0.1813878
200	0x3b	0.191105
201	0x06	0.019434407
202	0xf1	-0.048586015
203	0xec	-0.06478135
204	0x2c	0.14251898
205	0x0c	0.038868815
206	0xd7	-0.13280177
207	0xd9	-0.12632364
208	0xc3	-0.19758314
209	0xd4	-0.14251898
210	0xc5	-0.191105
211	0x13	0.061542287
212	0xd2	-0.14899711
213	0x05	0.016195338
214	0xf5	-0.035629746
215	0x0a	0.032390676
216	0xb9	-0.22997381
217	0xfe	-0.0064781355
218	0x5a	0.2915161
219	0xe3	-0.093932964
220	0x1c	0.0906939
221	0xf7	-0.02915161
222	0x1d	0.093932964
223	0xfc	-0.012956271
224	0x4e	0.25264728
225	0xe7	-0.080976695
226	0x36	0.17490965
227	0x55	0.27532077
228	0x46	0.22673474
229	0xfb	-0.016195338
230	0xf8	-0.025912542
231	0xe9	-0.07449856
232	0xe3	-0.093932964
233	0x04	0.012956271
234	0x1a	0.08421576
235	0xfe	-0.0064781355
236	0x4e	0.25264728
237	0xea	-0.07125949
238	0xe3	-0.093932964
239	0x2b	0.13927992
240	0x32	0.16195339
241	0xfd	-0.009717204
242	0x24	0.11660644
243	0xcd	-0.16519246
244	0xd1	-0.15223618
245	0xf2	-0.04534695
246	0xe5	-0.087454826
247	0x07	0.022673475
248	0xf5	-0.035629746
249	0x38	0.1813878
250	0x17	0.07449856
251	0xf7	-0.02915161
252	0x33	0.16519246
253	0x21	0.10688923
254	0xbd	-0.21701753
255	0xf2	-0.04534695
